snapshots/2-fcr32-x4.pt (torch, 19294 bytes, 9 tensors)

weight f4 [32, 2]
0	0x3f33e86a	0.7027651
1	0xbeb95094	-0.3619429
2	0xbf049b46	-0.5179943
3	0xbf4c8878	-0.79895735
4	0xbe8152ed	-0.2525858
5	0xbf8cce11	-1.1000386
6	0x3f3550bb	0.7082631
7	0x3fa1128d	1.2583786
8	0xbd270020	-0.040771604
9	0xbe8b3fe2	-0.27197176
10	0x3f0017c3	0.5003626
11	0xbe97976e	-0.2960772
12	0xbe9ce832	-0.306459
13	0xbf0fba78	-0.56143904
14	0xbc15fc00	-0.00915432
15	0xbcd04de0	-0.025427759
16	0xbee1e410	-0.4411931
17	0xbf2b3c06	-0.66888463
18	0xbe01c478	-0.12672603
19	0x3e951d28	0.29123807
20	0xbec375cb	-0.38175806
21	0x3f2afbc8	0.6679044
22	0xbe0bd448	-0.13655198
23	0x3e800b7c	0.25008762
24	0x3ec6836f	0.3877215
25	0x3f857cb7	1.0428685
26	0x3e8ad1eb	0.2711328
27	0xbf7e61d4	-0.99368024
28	0x3f29dfac	0.6635692
29	0xbf74fd1b	-0.9569871
30	0xbea6659d	-0.324994
31	0x3e2b07c4	0.16702181
32	0x3efaea78	0.4900701
33	0xbf4db103	-0.80348223
34	0x3ef818a4	0.484563
35	0x3f6c03d6	0.92193353
36	0x3b833800	0.0040044785
37	0xbf0f104e	-0.55884254
38	0x3ea93c56	0.33053845
39	0x3e4bcce8	0.19902384
40	0x3f23c164	0.63966966
41	0xbe4be2e7	-0.19910775
42	0xbe0b0367	-0.13575517
43	0x3f8a7a19	1.0818511
44	0x3f22bee9	0.63572556
45	0x3e45c5b4	0.19313699
46	0xbee7c13b	-0.4526461
47	0xbe70aa14	-0.2350238
48	0x3e7c1cb2	0.24620321
49	0xbf1ae918	-0.6051192
50	0x3978709a	0.0002369307
51	0x3e48bedd	0.19604059
52	0xbdb0ebf0	-0.086387515
53	0xbf86c72e	-1.0529535
54	0x3e727c7c	0.236803
55	0x3ef2436a	0.47317058
56	0x3f5b88fe	0.8575591
57	0x3ea31d9e	0.31858534
58	0xbf21d31b	-0.63212746
59	0xbf03303b	-0.5124547
60	0xbe810877	-0.2520177
61	0xbf09c5ce	-0.5381745
62	0xbef5987c	-0.479679
63	0x3db20180	0.08691692

bias f4 [32]
0	0x3eb7c916	0.35895604
1	0x3f24d585	0.64388305
2	0x3e5632d6	0.2091783
3	0x3e978d42	0.2959996
4	0xbeaf8ff0	-0.34289503
5	0xbd7aedae	-0.061261825
6	0xbd7d7750	-0.061881363
7	0xbe30ec40	-0.17277622
8	0x3eae0abd	0.33992568
9	0xbed834b2	-0.42227703
10	0xbe05f559	-0.13081874
11	0x3db2a24a	0.087223604
12	0x3ecaf673	0.3964115
13	0x3e1ef67c	0.15523714
14	0x3e8b2b45	0.2718145
15	0xbebb0324	-0.36525834
16	0x3e67a3b2	0.22621039
17	0x3e5a1243	0.21296029
18	0xbe8f64c6	-0.28006572
19	0xbf2be506	-0.6714634
20	0x3ee74879	0.4517248
21	0x3bf4a827	0.0074663344
22	0xbf2a307e	-0.66480243
23	0xbe8519ad	-0.25996152
24	0x3e9cf4aa	0.30655414
25	0x3df677a4	0.120345384
26	0x3eba0b4f	0.36336753
27	0xbf001853	-0.50037116
28	0x3e169ede	0.1470904
29	0xbf2c111e	-0.6721362
30	0x3e7b7d22	0.24559453
31	0xbdf36c88	-0.11885935

weight f4 [32, 32]
0	0x3e6b9089	0.23004355
1	0x3e8338a8	0.25629163
2	0x3eaf238d	0.3420681
3	0xbd92e16b	-0.07171901
4	0xbc8d3078	-0.017235026
5	0x3db26a9e	0.08711742
6	0xbe02637a	-0.1273326
7	0xbcfbbb40	-0.030728936
8	0x3e89fe40	0.2695179
9	0xbde5013a	-0.111818746
10	0x3e1555c0	0.14583492
11	0x3df8a2f9	0.121404596
12	0xbe1587ed	-0.14602633
13	0x3f04ddc6	0.519009
14	0x3e27bcf4	0.16380674
15	0xbe1b9513	-0.15193586
16	0x3d16c0db	0.036805015
17	0xbde948be	-0.113908276
18	0x3c09cc50	0.008410528
19	0xbd7db756	-0.06194242
20	0xbcb03b5e	-0.021512683
21	0xbeabf9ea	-0.33589107
22	0x3d90d47c	0.07071778
23	0x3cd8e1d8	0.026474878
24	0x3e78062b	0.24221103
25	0x3e05abd7	0.13053833
26	0x3c82b303	0.0159545
27	0x3e2f95c9	0.17146982
28	0x3e29e909	0.16592802
29	0xbbd9e2c0	-0.006649345
30	0x3e4991bf	0.19684504
31	0xbe2259f4	-0.15854627
32	0xbd49eb3a	-0.049296595
33	0x3d97b86f	0.07408225
34	0xbcb868db	-0.022510936
35	0xbc0cb97a	-0.008589143
36	0x3e119637	0.14217459
37	0xbdc8d81f	-0.09806847
38	0xbdeff050	-0.11715758
39	0xbdf24757	-0.11830013
40	0x3d9a6978	0.07539648
41	0x3d9efb5e	0.07762788
42	0xbe16863f	-0.14699648
43	0xbcefe01d	-0.02928167
44	0xbdde5ffe	-0.10858153
45	0x3e1bba50	0.15207791
46	0x3e25be3a	0.16185847
47	0xbda05409	-0.078285284
48	0x3d184ded	0.03718369
49	0x3d7727d6	0.060340725
50	0xbe26eb5e	-0.16300723
51	0x3b85a700	0.004078746
52	0xbd4ff9c7	-0.050775316
53	0xbd1897c5	-0.037254114
54	0xbe16a416	-0.14711031
55	0xbca9d5b0	-0.020731777
56	0x3dc91cb8	0.09819931
57	0x3b9c685c	0.004773183
58	0xbd81b81c	-0.06333944
59	0xbcc5bf28	-0.024139002
60	0xbd04f71c	-0.032462224
61	0xbc3bd700	-0.011464834
62	0xbe13d76e	-0.14437649
63	0xbb4f3940	-0.0031619817
64	0x3ded91fb	0.11600109
65	0x3d6348e6	0.055489443
66	0xbd5a1d6d	-0.05325072
67	0x3d8954e0	0.06705642
68	0x3e0e6501	0.13905717
69	0xbd9e4b37	-0.0772919
70	0xbe256243	-0.16150765
71	0xbd72c9fa	-0.05927465
72	0x3dd35cb0	0.10320413
73	0xbda4fbff	-0.08055877
74	0xbd3a5a82	-0.04549647
75	0x3d9c0412	0.07617964
76	0xbd5178db	-0.051140647
77	0x3cc4f7f1	0.024044009
78	0xbdfddc7e	-0.12395571
79	0xbdf71d5a	-0.12066145
80	0xbd351ec3	-0.04421879
81	0xbe7fa4a0	-0.24965143
82	0xbdc7fda0	-0.09765172
83	0xba351d00	-0.00069089234
84	0x3d10010d	0.035157252
85	0xbea232d4	-0.31679404
86	0x3d90f3f0	0.070777774
87	0xbdf8b116	-0.121431515
88	0x3daa3fde	0.08312963
89	0xbd545344	-0.05183722
90	0xbdcece39	-0.100979276
91	0x3dc9bb92	0.09850229
92	0xbe3b100a	-0.18267837
93	0xbe2e1adb	-0.17002432
94	0x3d8e577e	0.069502816
95	0xbe306bd8	-0.17228639
96	0xbd93427b	-0.071904145
97	0x3dde6aaa	0.10860188
98	0x3e0595a5	0.13045366
99	0xbe1cab6d	-0.15299769
100	0x3d95e6fe	0.07319449
101	0xbe151650	-0.14559293
102	0xbb65f580	-0.0035088956
103	0x3dfdd752	0.12394585
104	0x3d888f92	0.06668009
105	0xbdfb1d46	-0.12261443
106	0xbdaa9de6	-0.08330898
107	0x3dab8fae	0.08377014
108	0xbbdc9540	-0.006731659
109	0x3ddd2e8e	0.10799895
110	0x3cd33188	0.025780454
111	0xbda6271a	-0.08112927
112	0xbe07ff87	-0.1328107
113	0xbdfbd390	-0.12296212
114	0xbe0e6e31	-0.13909222
115	0xbe1cef7b	-0.1532573
116	0x3c807010	0.015678436
117	0xbe20797a	-0.1567134
118	0x3ddd8aa6	0.10817461
119	0xbd7c1f28	-0.06155315
120	0x3dd0119e	0.1015961
121	0xbdec8e8e	-0.11550628
122	0xbc971360	-0.018441856
123	0x3e2ccfbf	0.16876124
124	0xbe326719	-0.17422141
125	0x3de53866	0.11192398
126	0x3e26c849	0.1628734
127	0x3e2a7461	0.16645958
128	0xbd70be79	-0.0587754
129	0x3d3ab39d	0.04558145
130	0xbd3f9385	-0.046771545
131	0xbc6997b9	-0.014257365
132	0x3da34542	0.07972194
133	0xbe309886	-0.17245683
134	0xbe0bc4f8	-0.13649356
135	0x3d2d7e10	0.04235655
136	0xbd2d6d90	-0.042340815
137	0xbc597560	-0.013272613
138	0x3d9e830f	0.07739841
139	0xbe26bffb	-0.16284172
140	0xbd171d25	-0.03689303
141	0xbe4cfb8f	-0.20017837
142	0xbe36d500	-0.1785469
143	0xbbec22e0	-0.007206306
144	0x3d2807e9	0.04102317
145	0x3dbad37b	0.09122368
146	0x39defc00	0.00042530894
147	0xbbfdf220	-0.007749811
148	0xbe2e1c79	-0.17003049
149	0x3e9e0e3d	0.30870238
150	0xbc355a20	-0.011068851
151	0xbe298b08	-0.16556942
152	0x3c00a4c8	0.007851787
153	0x3dd926fd	0.106031395
154	0xbdb3a230	-0.08771169
155	0x3d09742c	0.033558056
156	0xbd429207	-0.047502544
157	0x3bf195e0	0.007372603
158	0xbe8fc324	-0.28078568
159	0xbd014b78	-0.031566113
160	0x3db22016	0.08697526
161	0xbd002084	-0.03128101
162	0xbc8b6428	-0.017015532
163	0xbd1dc5ac	-0.038518593
164	0xbcacf0e0	-0.021110952
165	0x3e1251ff	0.14289092
166	0x3e2ed7b1	0.17074467
167	0x3d965682	0.07340719
168	0x3e1e07ef	0.15432714
169	0x3c9155d8	0.017741129
170	0xbc383c50	-0.011244848
171	0x3df805c2	0.12110473
172	0x3d67a0a4	0.056549683
173	0x3df459e6	0.11931209
174	0xbdf92461	-0.12165142
175	0x3e0ddec5	0.13854511
176	0xbd90e530	-0.07074964
177	0xbe1ea67d	-0.15493198
178	0x3cee1468	0.029062465
179	0xbdefe091	-0.117127545
180	0xbd5cb06a	-0.05387918
181	0x3e02d47d	0.1277637
182	0x3e332223	0.17493491
183	0xbdcd677a	-0.10029502
184	0x3cd56770	0.0260503
185	0x3cfb9928	0.030712679
186	0xbdea74ec	-0.11448082
187	0xbdd5bd15	-0.10436455
188	0xbdb64211	-0.0889932
189	0x3e019621	0.12654926
190	0x3b628080	0.0034561455
191	0xbdd6782b	-0.10472139
192	0x3d10ec21	0.03538144
193	0xbe22f183	-0.15912442
194	0x3dc28532	0.09498061
195	0x3de58614	0.11207214
196	0xbe32c8b8	-0.1745938
197	0xbe261642	-0.16219428
198	0xbd1ae2c4	-0.037813917
199	0xbe1efbd4	-0.15525752
200	0xbe0164c8	-0.12636101
201	0x3b9519c0	0.004550189
202	0xbe1f5548	-0.15559876
203	0x3d79a24a	0.060945787
204	0xbd1561fd	-0.036470402
205	0xbddbbf10	-0.10729802
206	0xbe1dabbc	-0.15397543
207	0xbe1f7646	-0.15572461
208	0xbd24da3f	-0.0402472
209	0x3cd8eb01	0.026479246
210	0x3d52aef0	0.051436365
211	0x3e0ed275	0.1394747
212	0xbe0a317a	-0.13495436
213	0x3b018759	0.0019764511
214	0xbda2586c	-0.079270214
215	0x3e3361cb	0.17517774
216	0xbcb888ed	-0.022526229
217	0x3d799dda	0.060941555
218	0xbe1071c6	-0.14105901
219	0x3dd94c5a	0.10610266
220	0xbd8a2509	-0.06745345
221	0xbde0dcfa	-0.10979648
222	0xbe02e7a5	-0.12783678
223	0x3d909302	0.070592895
224	0xbdfff437	-0.12497752
225	0xbded94df	-0.116006605
226	0x3bd24f40	0.0064181387
227	0xbacd5680	-0.0015666038
228	0xba760300	-0.00093846023
229	0xbe28eace	-0.16495821
230	0xbdca9a0f	-0.098926656
231	0x3e31df6d	0.17370386
232	0x3e293ed3	0.16527872
233	0xbdecac6c	-0.11556324
234	0xbdbb48f7	-0.09144776
235	0xbd8591f9	-0.06521983
236	0xbd04e2c0	-0.03244281
237	0xbdae4d30	-0.08510816
238	0xbd9f2bd6	-0.07772033
239	0x3d7222cc	0.059115216
240	0xbd03ac7c	-0.032146916
241	0xbe02ea1f	-0.12784623
242	0x3e17db47	0.14829741
243	0xbcc803b0	-0.02441582
244	0xbd571f4a	-0.052520074
245	0x3d8074ea	0.062722996
246	0x3d7b1674	0.06130071
247	0xbca53640	-0.02016747
248	0x3e180ff7	0.1484984
249	0xbc5fd4d0	-0.013661578
250	0xbdddebda	-0.10836001
251	0xbc4c2370	-0.012459621
252	0x3b6ffdc0	0.0036619753
253	0x3d84fc7c	0.0649347
254	0x3d9e9cc6	0.07744746
255	0xbde9828d	-0.11401854

bias f4 [32]
0	0x3d884ca0	0.0665524
1	0x3ce40734	0.027835466
2	0xbcb97478	-0.022638544
3	0xbdd04d54	-0.10170999
4	0x3c162efb	0.009166474
5	0xbd9154e3	-0.07096269
6	0xbdef8c0f	-0.11696636
7	0xbd9a4757	-0.07533138
8	0x3bf28680	0.0074012876
9	0x3ddb0c6e	0.1069573
10	0x3df69595	0.12040249
11	0x3dc25168	0.09488183
12	0xbe0806de	-0.1328387
13	0xbd651b1a	-0.05593405
14	0x3d44d28d	0.04805236
15	0xbe1b9229	-0.15192474
16	0x3dacc802	0.08436586
17	0xbdfcbe0b	-0.12340935
18	0xbd4f5458	-0.050617546
19	0x3b9076d5	0.004408697
20	0xbd7f47fa	-0.0623245
21	0xbe1ec929	-0.15506424
22	0xbc790aa7	-0.015200294
23	0x3e090381	0.13380243
24	0x3d956768	0.07295114
25	0x3dcf903c	0.101349324
26	0xbe22f54b	-0.15913884
27	0xbe1490a0	-0.14508295
28	0x3e014fc9	0.12628092
29	0x3c22e9e0	0.009943455
30	0xbe2639af	-0.16232942
31	0xbd0af43d	-0.03392433

weight f4 [32, 32]
0	0x3e046c0e	0.12931845
1	0xbc2b4fbd	-0.010456023
2	0xbe0e4c2c	-0.13896245
3	0xbe23ec3f	-0.1600809
4	0xbe1aebe8	-0.15129054
5	0xbb7da700	-0.0038704276
6	0xbe306d79	-0.1722926
7	0xbd083c50	-0.033260643
8	0xbd80f230	-0.062961936
9	0xbd0e2ed0	-0.034712613
10	0xbd92773b	-0.07151648
11	0xbd2e4231	-0.042543594
12	0x3e1f1521	0.15535404
13	0x3d430c90	0.047619402
14	0xbd74f2d8	-0.059801906
15	0xbd053fc8	-0.03253153
16	0xbde7d891	-0.11320604
17	0xbdd1b43e	-0.102394566
18	0xbe2dda8f	-0.16977905
19	0xbde8d6f2	-0.113691226
20	0x3d947cec	0.072503895
21	0x3e292a59	0.1652006
22	0xbe219b3d	-0.15781875
23	0x3d92b8fe	0.07164191
24	0xbde1b146	-0.1102014
25	0xbe4053ff	-0.18782042
26	0x3e2e7f7f	0.17040823
27	0xbe2ad7e8	-0.16683924
28	0x3de54a61	0.11195827
29	0xbdb28105	-0.08716015
30	0x3bd2fb80	0.0064386725
31	0xbdc294b9	-0.09501023
32	0xbd21cceb	-0.039502066
33	0xbd8deeae	-0.0693029
34	0xbda064e2	-0.07831742
35	0x3e23ee67	0.16008912
36	0xbd4141f3	-0.047182035
37	0x3da17736	0.07884066
38	0xbd4a9034	-0.04945393
39	0x3d3cc0f4	0.046082452
40	0x3e34618d	0.17615338
41	0xbd07972c	-0.033103153
42	0xbe07ce30	-0.13262248
43	0xbe86df11	-0.2634206
44	0xbd5e5990	-0.054284632
45	0xbdc1916c	-0.09451565
46	0x3d670515	0.05640133
47	0xbda2c633	-0.0794796
48	0x3d1fbf53	0.03900082
49	0xbcbb3338	-0.022851571
50	0x3e1f0b33	0.15531616
51	0x3d1cce8a	0.03828291
52	0xbe0b51b4	-0.13605386
53	0xbdac5d69	-0.08416254
54	0xbd0c9aa7	-0.034327175
55	0xbda516b6	-0.080609724
56	0x3dbb8be0	0.091575384
57	0x3d2616ae	0.040548973
58	0x3e234dcd	0.15947647
59	0xbbacade0	-0.005269751
60	0xbe0c1b6a	-0.13682333
61	0xbdebbe8e	-0.11510955
62	0x3d8896e8	0.06669408
63	0xbde2aa8f	-0.11067688
64	0xbe6a5eb5	-0.2288769
65	0xbeba260a	-0.36357147
66	0x3cd77598	0.02630119
67	0x3c867e18	0.016417548
68	0x3d63aafe	0.055582993
69	0x3e171c91	0.14756991
70	0xbe043faf	-0.12914918
71	0xbe20c0cd	-0.15698548
72	0x3cb401f0	0.02197358
73	0x3dacac6e	0.08431326
74	0x3dd507cd	0.104018785
75	0xbe235040	-0.15948582
76	0x3e2210d9	0.1582674
77	0xbe308ec6	-0.17241964
78	0xbe8312f0	-0.25600386
79	0x3def7ec6	0.11694102
80	0x3d516a3c	0.051126704
81	0xbdc97884	-0.0983744
82	0xbe01c198	-0.12671506
83	0x3d31de9d	0.04342519
84	0xbe053db1	-0.13011815
85	0x3e03f2ce	0.12885591
86	0xbd94f942	-0.07274105
87	0xbd962be3	-0.073325895
88	0xbded5f6f	-0.11590468
89	0xbed33412	-0.41250664
90	0xbd1b71d8	-0.037950367
91	0x3ddf85ea	0.10914214
92	0x3c8c54b7	0.017130239
93	0xbce76708	-0.028247371
94	0x3e093939	0.13400735
95	0xbd6f69fe	-0.05845069
96	0x3e8bb5c8	0.27287126
97	0xbc892e03	-0.016745573
98	0xbd87a0bd	-0.06622455
99	0x3d0beed4	0.03416331
100	0xbd6e6954	-0.058205917
101	0xbd33c7cc	-0.043891713
102	0xbd1ad32b	-0.03779904
103	0xbda3529b	-0.0797474
104	0xbd7fb908	-0.06243232
105	0xbc7b6300	-0.015343428
106	0xbe2a5452	-0.16633728
107	0x3d150807	0.03638461
108	0x3d5a91bc	0.05336164
109	0xbde349ac	-0.11098036
110	0x3d78dfe9	0.060760412
111	0x3d8513fa	0.06497951
112	0xbc0bd12a	-0.008533755
113	0x3c74bd41	0.0149377
114	0xbd96b54e	-0.073588
115	0x3de78995	0.113055386
116	0x3d22db89	0.039760146
117	0x3e1cca1b	0.15311472
118	0x3cbf6269	0.023362355
119	0xbdd736d2	-0.10508503
120	0xbda53d54	-0.08068338
121	0x3cad68c3	0.021168118
122	0x3d9c0b5a	0.07619353
123	0xbd65e92e	-0.05613058
124	0xbe29ed59	-0.16594447
125	0xbe091198	-0.13385618
126	0x3e1cd233	0.1531456
127	0x3e15c961	0.14627601
128	0xbe9fcdde	-0.31211752
129	0xbdefd196	-0.11709897
130	0x3d6ecc02	0.058300026
131	0xbe1b7e43	-0.15184884
132	0x3e01617a	0.1263484
133	0xbc1436d0	-0.009046271
134	0x3d26d74c	0.040732667
135	0xbdb4d0c7	-0.088288836
136	0x3dc4b062	0.09603955
137	0xbd8c9a7c	-0.06865403
138	0x3e3c63ab	0.18397395
139	0x3ce14402	0.027498249
140	0xbd130cd0	-0.03590089
141	0x3d3c1654	0.04591973
142	0xbdc76ec4	-0.09737924
143	0xbd97bfac	-0.074096054
144	0xbde624e4	-0.11237505
145	0xbbdf1883	-0.006808342
146	0xbdc80a5a	-0.097675994
147	0x3d89f871	0.067368396
148	0x3dec1d3f	0.11529016
149	0xbd3e6318	-0.046481222
150	0xbdb2f8ba	-0.08738847
151	0x3e2a97fe	0.16659543
152	0x3d5c8104	0.053833976
153	0xbc0b9bf6	-0.008521071
154	0x3d8246ba	0.06361146
155	0x3de22eca	0.110440806
156	0xbbb35388	-0.005472604
157	0x3daed8d2	0.08537449
158	0xbd4f32ac	-0.050585434
159	0xbe10935e	-0.14118716
160	0x3e57a38b	0.2105848
161	0xbdfaea02	-0.12251665
162	0x3e00976b	0.12557761
163	0xbd947ae1	-0.0725
164	0x3d7c686f	0.061623033
165	0x3d82d916	0.06389062
166	0xbcef0398	-0.029176518
167	0x3d7e1048	0.062027246
168	0xbccaccc8	-0.02475585
169	0x3d55297c	0.052041516
170	0xbd8ba4ef	-0.06818568
171	0x3dbcb8cb	0.09214934
172	0x3e02b66d	0.12764902
173	0xbdaf96ca	-0.085736826
174	0x3e109038	0.14117515
175	0x3e21e23d	0.1580896
176	0x3e3e6ed2	0.18596962
177	0x3e0f954e	0.14021799
178	0xbd867338	-0.06564945
179	0x3e1a6bc1	0.15080167
180	0x3e2cbd8c	0.16869181
181	0xbb0c7386	-0.0021431162
182	0xbca43ce5	-0.020048568
183	0xbdea6732	-0.11445464
184	0x3cbfcdc1	0.02341354
185	0x3e26c99a	0.16287842
186	0x3e1a9f77	0.15099894
187	0xbe083cdc	-0.13304466
188	0xbe231f46	-0.15929899
189	0x3dbd2962	0.09236409
190	0x3e27bb85	0.16380127
191	0xbd8c327e	-0.06845568
192	0xbe82fce0	-0.25583553
193	0xbd458b55	-0.04822858
194	0x3d1a211d	0.037629236
195	0xbdb9a8ef	-0.09065425
196	0x3dff0fcf	0.12454187
197	0x3ceddf90	0.029037267
198	0x3d96a2bc	0.07355258
199	0xbcc8a320	-0.024491847
200	0xbe0f7104	-0.14007956
201	0xbd8495ff	-0.06473922
202	0x3e02abe7	0.12760888
203	0x3d4ac6f3	0.04950614
204	0xbceb3810	-0.028713256
205	0xbbe39d00	-0.006946206
206	0xbd9da0a7	-0.07696658
207	0x3bac3060	0.00525479
208	0x3cdc1cc9	0.026869195
209	0xbe01a71b	-0.12661402
210	0xbe182ec5	-0.14861591
211	0x3e8633c1	0.2621136
212	0xbe099ab9	-0.13437928
213	0xbd745127	-0.059647705
214	0x3e03ef37	0.12884222
215	0x3d8a3076	0.067475244
216	0xbd9103ba	-0.07080789
217	0xbe058ffd	-0.13043208
218	0xbe127d9e	-0.14305732
219	0x3ad5c700	0.0016309917
220	0x3e86e075	0.26343122
221	0xbdccc2d5	-0.09998099
222	0x3e02ca1b	0.1277241
223	0x3e45a3b0	0.19300723
224	0xbeb0042b	-0.3437818
225	0xbcbcf2ca	-0.02306499
226	0xbd32cca5	-0.043652195
227	0x3dbd3242	0.092381015
228	0xbc982cb6	-0.018576007
229	0xbe1f5d8c	-0.15563029
230	0xbde91920	-0.11381745
231	0xbe2fecef	-0.17180227
232	0xbdce0321	-0.100591905
233	0x3d6b0a08	0.057382613
234	0x3e2a22b3	0.16614799
235	0xbdd392f9	-0.10330767
236	0x3d956674	0.07294932
237	0x3ccf96c8	0.025340453
238	0xbd8ff41d	-0.07028983
239	0xbce48a88	-0.027898088
240	0xbd4cc9f7	-0.049997296
241	0x3dbf2542	0.09333278
242	0x3e34d84f	0.1766064
243	0x3e56361a	0.20919076
244	0xbd3e6f20	-0.046492696
245	0x39118f0e	0.0001388157
246	0x3dafdfa5	0.08587579
247	0x3e17a5c7	0.14809333
248	0xbda8fcb7	-0.082513265
249	0xbe141c2c	-0.14463872
250	0xbd83c764	-0.06434515
251	0xbdcf1264	-0.101109296
252	0x3ef55817	0.4791877
253	0x3d7fa25c	0.062410697
254	0xbe06ee25	-0.13176782
255	0xbc0d73ed	-0.008633596

bias f4 [32]
0	0xbdf0f85d	-0.117661215
1	0x3d910b5d	0.070822455
2	0xbe18588f	-0.14877532
3	0x3dd7ab5e	0.105307326
4	0xbdd046e8	-0.10169774
5	0x3d846fde	0.064666495
6	0x3e6f4faa	0.23370233
7	0x3c33d835	0.010976841
8	0x3bc20b80	0.005921781
9	0x3957b6f0	0.00020572147
10	0x3dbe3fd6	0.092895195
11	0x3d28e8d0	0.041237652
12	0xbd23f654	-0.04002984
13	0xbdc71a9f	-0.097218744
14	0x3bdd22b7	0.006748523
15	0x3d865952	0.06560005
16	0x3c8a54fc	0.016886227
17	0xbe12e707	-0.14345942
18	0x3cd6ad64	0.026205726
19	0xbdb8f18b	-0.09030446
20	0x3e2a7e92	0.16649845
21	0xbdc88e98	-0.097928226
22	0xbdea0782	-0.11427213
23	0xbd06d9a5	-0.032922406
24	0x3dd00ac6	0.10158305
25	0x3cc076ac	0.023494087
26	0xbc341145	-0.0109904455
27	0xbdcd6dbd	-0.100306965
28	0xbb964275	-0.004585559
29	0xbcd54cfa	-0.026037682
30	0x3e42edb1	0.19035985
31	0xbe67a129	-0.22620071

weight f4 [32, 32]
0	0x3cbe19f8	0.023205742
1	0xbd2e3e9c	-0.042540178
2	0x3e33dab1	0.17563893
3	0x3d471334	0.048602298
4	0x3c822638	0.015887365
5	0x3e2bcad7	0.16776596
6	0xbd353f54	-0.044249848
7	0x3d6ed1bc	0.058305487
8	0xbe035e27	-0.12828885
9	0x3e0179b3	0.12644081
10	0x3d2eac3c	0.042644724
11	0xbdcafce1	-0.09911514
12	0xbcaf8ef8	-0.021430477
13	0xbcac4ed0	-0.021033674
14	0x3c8e6b30	0.017385095
15	0xbe12a0f3	-0.1431921
16	0x3e1c4393	0.15260153
17	0x3e2651ab	0.16242091
18	0xbdf61410	-0.12015545
19	0x3dabfa5e	0.08397363
20	0xbc9ea670	-0.019366473
21	0x3d40acf0	0.047039926
22	0xbddd9e1d	-0.10821173
23	0x3c275870	0.010213956
24	0xbe035436	-0.12825093
25	0x3c031f40	0.008003056
26	0xbc817820	-0.01580435
27	0x3d6b139c	0.057391748
28	0xbe109e4b	-0.14122884
29	0xbdc0244d	-0.09381924
30	0xbdb6fb92	-0.08934702
31	0xbe0c1008	-0.1367799
32	0xbe10bff8	-0.1413573
33	0x3dc61f5f	0.09673952
34	0x3dc09247	0.094029
35	0x3d16e4c6	0.03683927
36	0xbcb22b18	-0.021749064
37	0x3dab1fcb	0.083556734
38	0xbe0f195a	-0.13974515
39	0x3df817c9	0.12113912
40	0xbc9595c0	-0.018259883
41	0x3de4a19d	0.11163638
42	0x3d005feb	0.031341475
43	0x3dc3c655	0.09559313
44	0x3dd733bf	0.10507917
45	0xbd2b7750	-0.041861832
46	0xbe098d09	-0.13432707
47	0xbe0c8263	-0.13721614
48	0x3ceb0951	0.028690966
49	0xbd80c0d5	-0.0628678
50	0x3d28a552	0.041173287
51	0x3d2ad861	0.04171026
52	0x3d63a9d2	0.055581875
53	0xbe1c8081	-0.15283395
54	0xbc74c100	-0.014938593
55	0x3cf624ff	0.030046938
56	0xbdd7b44e	-0.10532437
57	0x3ccd5e6e	0.025069442
58	0xbe565876	-0.20932183
59	0xbc714470	-0.014725789
60	0x3e037e76	0.1284121
61	0xbe552ba6	-0.20817432
62	0x3e0674ce	0.13130495
63	0xbd601e22	-0.054716237
64	0x3e1f68b7	0.1556729
65	0xbe3363e9	-0.17518581
66	0xbe242eee	-0.16033527
67	0xbe301dd1	-0.17198874
68	0x3e188287	0.14893542
69	0xbe536010	-0.20642114
70	0x3e1d335d	0.15351625
71	0xbe1ce013	-0.15319853
72	0xbcda0b28	-0.026616648
73	0xbdd5c432	-0.10437812
74	0x3d83418a	0.06408985
75	0xbcae284e	-0.021259453
76	0xba7b3d00	-0.000958398
77	0xbdb0ef04	-0.086393386
78	0x3db80836	0.08985941
79	0x3d4ab3e0	0.04948795
80	0xbdf357fa	-0.118820146
81	0x3e20eea3	0.15716033
82	0xbe255a76	-0.1614779
83	0x3e19fb8c	0.15037364
84	0x3d7e1fb9	0.06204197
85	0xbc5b4250	-0.013382509
86	0xbdfe9f5f	-0.124327414
87	0x3dcb4baa	0.09926541
88	0xbd48d031	-0.04902667
89	0xbdc0a5e9	-0.09406645
90	0xbd930b7e	-0.07179926
91	0xbd5e8426	-0.054325245
92	0x3d3477f4	0.04405971
93	0xbb3c7a19	-0.00287593
94	0x3de82c8c	0.11336622
95	0x3db72392	0.089423314
96	0xbd244c90	-0.04011208
97	0xbe17954c	-0.14803046
98	0xbe18d827	-0.14926206
99	0xbdf77640	-0.12083101
100	0xbe31351f	-0.1730542
101	0x3c697200	0.014248371
102	0xbcc26aa0	-0.023732483
103	0xbdae0b3a	-0.08498235
104	0x3d710c3c	0.05884956
105	0x3d4f8a80	0.050669193
106	0x3e10c5e9	0.14137997
107	0xbd175904	-0.036950126
108	0x3e067f1d	0.13134427
109	0xbd990f8a	-0.07473667
110	0x3dd1e1ce	0.10248147
111	0xbd74392a	-0.05962483
112	0x3d8418a6	0.06450014
113	0x3d16e9d0	0.036844075
114	0x3e340dab	0.17583339
115	0x3e1b3b15	0.15159257
116	0x3d770950	0.060311615
117	0x3cd7db20	0.026349604
118	0xbe1ebf97	-0.15502773
119	0xbd80d9a3	-0.06291511
120	0xbd756812	-0.059913702
121	0x3d793ea8	0.06085077
122	0x3df0eb7a	0.117636636
123	0x3d8c292c	0.068437904
124	0xbdc19816	-0.09452836
125	0xbe2ed0f0	-0.17071891
126	0xbd75abe4	-0.05997838
127	0x3d2f7548	0.042836457
128	0xbb834520	-0.004006043
129	0x3ca4ac58	0.020101711
130	0x3d5d9930	0.05410117
131	0x3b8a2100	0.0042153597
132	0xbd76baf4	-0.060236886
133	0xbe0acb1e	-0.13554046
134	0xbd81d306	-0.06339078
135	0xbcb95d00	-0.022627354
136	0x3d8a7722	0.06761004
137	0xbb124d00	-0.0022323728
138	0xbd976bd0	-0.073936105
139	0xbe31648f	-0.17323516
140	0xbe30f556	-0.17281088
141	0xbd0d56bc	-0.034506544
142	0x3bcd6440	0.0062680542
143	0xbe289335	-0.16462405
144	0xb9901c00	-0.00027486682
145	0x3d52d6e0	0.051474452
146	0xbc944158	-0.018097565
147	0xbcb787f8	-0.022403702
148	0x3df28232	0.11841239
149	0x3e1e57e5	0.15463217
150	0x3ddf9c9e	0.10918544
151	0x3d6d9fb4	0.058013633
152	0x3dff4c7e	0.124657616
153	0xbe1df308	-0.1542474
154	0x3dd9f02a	0.10641511
155	0xbdd22191	-0.102603085
156	0xbd9c6797	-0.07636946
157	0x3e0c5791	0.13705279
158	0xbc9e8088	-0.019348398
159	0xbe0ad99e	-0.13559577
160	0x3d369e18	0.044584364
161	0x3dde2b68	0.10848123
162	0x3cc9e140	0.02464354
163	0x3d923efe	0.07140921
164	0xbd2596ab	-0.04042689
165	0xbdabc0d9	-0.08386392
166	0xbd5c3bd8	-0.05376801
167	0xbd6e6b4a	-0.058207788
168	0xbe0703f0	-0.13185096
169	0xbd987574	-0.074442774
170	0x3d7542c6	0.059878133
171	0x3dac5a02	0.08415605
172	0xbd54c152	-0.051942177
173	0xbdf7e16e	-0.12103544
174	0x3df7ecb4	0.121056944
175	0xbe398396	-0.18116602
176	0x3e05e2d4	0.1307481
177	0x3e28122b	0.1641318
178	0x3dea8c55	0.114525475
179	0x3df668a0	0.120316744
180	0xbd8d98a3	-0.06913879
181	0xbcfdc728	-0.030978754
182	0xbc331928	-0.010931291
183	0x3e115dd9	0.14195956
184	0xbe26c0d9	-0.16284503
185	0xbe35a5f8	-0.17739093
186	0xbd9c52dd	-0.076329924
187	0x3db21df6	0.08697121
188	0xbd0f1902	-0.03493596
189	0x3e0949a5	0.13407
190	0x3e2452c8	0.16047204
191	0xbba904fb	-0.0051580644
192	0xbdb6f1c5	-0.08932833
193	0xbde55b24	-0.11199024
194	0x3dd8edc6	0.10592227
195	0xbd5ce46e	-0.053928785
196	0xbdcfc728	-0.10145408
197	0xbdd16e89	-0.10226161
198	0xbc81d100	-0.01584673
199	0xbe113ff2	-0.1418455
200	0xbd27ae70	-0.04093784
201	0x3d4b8afc	0.049693093
202	0x3ca27898	0.019832894
203	0xbd31beac	-0.04339473
204	0x3dc101ee	0.09424196
205	0x3e167dc7	0.14696418
206	0xbe2790b8	-0.163638
207	0xbd7a36ec	-0.061087534
208	0x3e1b33eb	0.15156524
209	0xbd9d59f3	-0.07683172
210	0x3d867dfe	0.06567
211	0xbda29cc5	-0.07940058
212	0xbe003a51	-0.12522246
213	0xbe1318be	-0.14364907
214	0x3db40b06	0.08791165
215	0xbe298abc	-0.16556829
216	0xbc3c64c0	-0.01149863
217	0x3caa5250	0.020791203
218	0x3dfe662a	0.1242183
219	0xbd4de6c4	-0.050268903
220	0xbd825a0c	-0.06364831
221	0x3dbf555e	0.093424544
222	0xbe2a3824	-0.16622978
223	0xbe3101ca	-0.17285839
224	0x3d1f9f74	0.038970426
225	0x3de438ce	0.11143647
226	0xbe26a41a	-0.16273537
227	0xbe0d12a9	-0.1377665
228	0x3d874a89	0.06606013
229	0x3bfad000	0.00765419
230	0x3d0552ed	0.032549787
231	0xbd040275	-0.032228906
232	0xbddb377c	-0.10703942
233	0xbcb8d858	-0.022564098
234	0xbe0ea39e	-0.13929603
235	0x3d7eb639	0.0621855
236	0xbc259b50	-0.01010783
237	0x3e31062d	0.17287512
238	0xbdf9a4f4	-0.121896654
239	0xbe068d0f	-0.13139747
240	0xbdef8760	-0.116957426
241	0x3c0299b0	0.007971212
242	0x3d56c821	0.05243695
243	0xbde69a6a	-0.11259921
244	0x3cdef9fd	0.027218813
245	0x3abcc3ee	0.0014401653
246	0xbdd4cc30	-0.10390508
247	0xbc886848	-0.016651288
248	0x3b88f539	0.0041796234
249	0xba45ab3d	-0.000754047
250	0x3e0f1eb3	0.13976555
251	0xbde5f2df	-0.112279646
252	0x3d1d5330	0.038409412
253	0x3d234e18	0.039869398
254	0xbc5bfd8e	-0.013427151
255	0x3d946573	0.072459124

bias f4 [32]
0	0xbdbdf7f1	-0.09275807
1	0xbe5f71b5	-0.2182072
2	0xbddb33e8	-0.1070326
3	0xbdb5c009	-0.088745184
4	0xbe19de03	-0.15026097
5	0xbdbd481a	-0.09242268
6	0xbdef2bef	-0.116783015
7	0xbe368466	-0.17823943
8	0x3d69690c	0.056984946
9	0xbd685c0e	-0.056728415
10	0xbe215487	-0.15754901
11	0xbd81434b	-0.06311663
12	0xbd4cb4b4	-0.04997702
13	0xbe2e4a0d	-0.17020436
14	0xbe14231e	-0.14466521
15	0x3d0b665a	0.034033157
16	0x3e03c81f	0.12869309
17	0x3dc46248	0.09589058
18	0xbe2f484e	-0.17117426
19	0xbd645bc5	-0.05575158
20	0xbe17b1b2	-0.14813879
21	0xbdd2ae4b	-0.1028715
22	0xbd5844c9	-0.052799974
23	0xbd648dc9	-0.05579928
24	0xbe1892e9	-0.14899792
25	0x3b67a9cb	0.0035349007
26	0xbd850bcb	-0.0649639
27	0xbdef7338	-0.11691898
28	0xbcb9e7c9	-0.022693532
29	0xbc7f45fe	-0.015580652
30	0x3df6267a	0.120190576
31	0xbe1a2b7f	-0.15055655

weight f4 [1, 32]
0	0x3e05630d	0.13026066
1	0xbd7f3a18	-0.062311262
2	0x3d869024	0.065704614
3	0xbdff2686	-0.1245852
4	0x3e099399	0.1343521
5	0x3b5bd89c	0.0033545857
6	0x3de7cf42	0.11318828
7	0x3c7cfff5	0.015441884
8	0x3e2a9ecb	0.16662137
9	0x3d35c05c	0.0443729
10	0xbe0b3b91	-0.13596942
11	0x3d623882	0.05522967
12	0x3dc125a2	0.09431006
13	0xba9bab3c	-0.0011876593
14	0x3e09ade1	0.13445236
15	0x3d9ca4ae	0.07648598
16	0x3dd89a47	0.10576301
17	0x3b2c6827	0.0026307197
18	0x3b778340	0.003776744
19	0x3c73a29e	0.014870314
20	0x3c782154	0.015144665
21	0xbdddeafe	-0.10835837
22	0x3e0bcff6	0.1365355
23	0x3950b587	0.0001990405
24	0x3da2ad01	0.07943154
25	0xbcbe0ef6	-0.023200493
26	0x3bea837d	0.007156788
27	0xbdc127d2	-0.09431423
28	0x3baae131	0.005214833
29	0xbbff4b5b	-0.0077909655
30	0x3e3251ee	0.17414066
31	0xbdbeb87f	-0.093125336
