snapshots/4fcr64x5.pt (torch, 75148 bytes, 11 tensors)

weight f4 [64, 4]
00000000: b930 6d3d e13d 163d 8eaa 163f cace e13d
00000010: 5847 25be 303d 0a3e d840 5abe 722f e2be
00000020: ebba 20bf 8839 683e 6e8f db3e 4ed4 243f
00000030: a7af 3bbe b586 80be 9b0b bb3e 3469 2b3e
00000040: e497 a03e d8d0 b13d 4888 e13d 98a3 c3bd
00000050: 08d4 88be 2488 b1be 2731 493c c733 813f
00000060: 979e 02bf fcd9 903e 7b5c e13e 4672 e63e
00000070: 7d9f 04bf 81e9 d53e b8e4 263f c50d fa3d
00000080: 3cc1 b63e 39b4 b9bc b2f8 a53e b9c3 16bf
00000090: 00f5 20be 9a0f c33e d06a 44be 0820 e2bd
000000a0: ea89 d83e 9aa0 c2be 2c8b 9dbe 00d5 28bb
000000b0: b2ca 383e 255e 273e a763 86bc 5871 8dbf
000000c0: 1bc6 253d 9def bb3d 8552 7abe 35e3 e23c
000000d0: bd47 93bd 22ea 3cbe 97b7 043f 11a2 543f
000000e0: 366d ca3e c847 de3e d447 0bbf 0673 6dbf
000000f0: 68f2 90be e4a1 94be ea6d 93be 8e5d d4be
00000100: 5c4d f73e b9d9 d93e fe5c e1be e778 b6be
00000110: 4030 063c b4fa fe3e 10bb 4fbe 6c8e 34be
00000120: c052 9dbc 9813 e13d 2a1f c9be 2813 fcbd
00000130: c2bb febe 00ce 67bb 1457 8dbe 0afa d0be
00000140: 8a99 f93e 80db c3bb c012 ce3d 008f 30be
00000150: ef00 e0be 188f 00bf 13c0 943d 6dda 543e
00000160: 4f49 a83e 9c8a 91be caf7 e13e 90b2 1f3e
00000170: 6438 763e 549a e2be 407d fdbe 50d6 fa3d
00000180: 5c09 173e 1edb a83e 4085 223d d0c5 43be
00000190: 0006 f03d e7f2 483e 7863 653e 0d1a 7d3e
000001a0: 76f9 cfbe 996e 803e b701 323e a2fa 85bd
000001b0: 20c7 52bd 74d4 60be 4e19 b2be 98d3 133e
000001c0: d3f8 22bd 72d7 0cbf 6471 b0bd a659 403f
000001d0: 970c d33e dc33 31be 4010 92be b8fb 343d
000001e0: 4a4d 89be 86c6 b43e aff7 373e 06ec abbe
000001f0: 521a ee3e 2841 2abe 64f4 40be 24ac 6e3e
00000200: 3792 363f 1d91 2c3f c2ff d2be 3bc0 6abf
00000210: 8429 b53e 6a6f 053f bde6 1cbd ab2e 65bf
00000220: 716c 8e3e ec9f 94be 2e45 6cbe 0e81 50bf
00000230: 009e 483b f462 063e 50f2 543d 0022 b43b
00000240: 9a27 e63e c4d0 c6be 8299 853e 20b0 2ebe
00000250: e583 87be 9d35 65bd 61f4 4a3d 753b 203d
00000260: e0d8 68be e8b0 ddbe 409d a63d e603 b7be
00000270: 50c1 cdbd 700e dbbd 1e55 89be 4c2d 7dbe
00000280: 96d1 8d3e 4831 fc3d ccf5 7e3e 766f b9be
00000290: c0ae f8be 426a 983e b62d e53e cac9 d0be
000002a0: 4426 833e 3a2b 8dbe 2982 d5be 6e16 1cbf
000002b0: 547b b73e 6bf8 163d 7a52 3ebe 1667 143d
000002c0: 4166 0bbf a775 a9bc 4a1f 0cbe 72af 073f
000002d0: b051 23be ce57 afbe f09e 923d ce36 d9be
000002e0: 6277 873e 0e56 823e 6000 b3be 7519 7cbd
000002f0: 53b7 683e 9902 a43e 1b70 ec3d 3343 17bf
00000300: e05c 883d 90dd cd3e 4685 8bbe f095 99bd
00000310: 3978 843e d2ca 5dbe 0086 96bd a2ab 613f
00000320: 56a8 b53e 8b99 8a3e 2acc 233f d99e 633f
00000330: 187c f3bc 9cf9 eebe 72e2 153f 6298 0e3f
00000340: f857 b63e a062 c13c 6efa c1be f41f 1f3e
00000350: ccca 50be 28aa 60be 6c28 e4be 1c2c ba3e
00000360: 13af 7abe fe02 89bd add0 e23e 278b 5ebe
00000370: a881 e43d a0cd bf3c 54bb 003e 5cb7 78be
00000380: 3031 2c3e fc4c 293e 602e ee3e 8c04 b5be
00000390: ccb9 c3be ccc2 10be d816 6a3e 48b7 17be
000003a0: 4b91 333c c237 66bb 15d6 b3be f05c f63d
000003b0: 830d f23e 4edc da3e 88cb 27bf 5de1 7abf
000003c0: e29d afbe 4941 fabd 9bb6 193f 7e81 db3e
000003d0: c295 153d 8fc7 6f3d dad0 fd3d d8a0 5abe
000003e0: d9eb f4bd c087 d23e df89 403f df24 813f
000003f0: abb4 143f d67e bbbe 8306 ac3e 5cd8 90bf
0.057907794 0.036680106 0.58853996 0.1102577 -0.16140497 0.13499904 -0.21313798 -0.44176823
-0.62785214 0.22678196 0.42882866 0.6438645 -0.18328725 -0.25102773 0.36532292 0.1673935
0.31365883 0.08682412 0.11012322 -0.095526874 -0.26724267 -0.3467418 0.012279785 1.0093926
-0.5102324 0.2829131 0.4401587 0.4500906 -0.5180586 0.41779712 0.6519275 0.122096576
0.356943 -0.022668945 0.32416302 -0.588924 -0.1571846 0.3809784 -0.1918137 -0.11041266
0.4229272 -0.38013154 -0.30770242 -0.0025761724 0.18046072 0.16344507 -0.01640494 -1.1050215
0.04047213 0.09176562 -0.24445541 0.027696231 -0.07191417 -0.1844869 0.51842636 0.83059794
0.39536446 0.4341414 -0.54406476 -0.92753637 -0.2830994 -0.29029763 -0.28794795 -0.41477627
0.48301208 0.42548922 -0.4401626 -0.35639116 0.008190215 0.49800646 -0.20286202 -0.17632455
-0.019204497 0.10990065 -0.3928159 -0.12308341 -0.49752623 -0.0035370588 -0.27605498 -0.40815765
0.48749954 -0.005977094 0.1006217 -0.1724205 -0.43750712 -0.50218344 0.07263198 0.20786448
0.3286843 -0.28426063 0.4413436 0.1559546 0.24044949 -0.44258368 -0.4950962 0.12247908
0.14749664 0.32979673 0.03967786 -0.19118428 0.117198944 0.1962391 0.22401226 0.24716969
-0.4062001 0.2508438 0.17383467 -0.06541945 -0.05145943 -0.21956044 -0.3478493 0.14436185
-0.03978808 -0.55016243 -0.086153775 0.7513679 0.41220543 -0.17304939 -0.28528023 0.04418537
-0.2681678 0.3530771 0.17965578 -0.3357851 0.46504456 -0.16626418 -0.18843228 0.23307854
0.71316856 0.67408925 -0.41210753 -0.9169957 0.35383236 0.5212313 -0.038305987 -0.89524335
0.2781711 -0.2902826 -0.23073265 -0.8144692 0.0030611753 0.13123685 0.0519889 0.005497217
0.4495209 -0.3883115 0.2609368 -0.17059374 -0.26467815 -0.055959333 0.049549464 0.039119203
-0.22738981 -0.4329903 0.08135462 -0.35745162 -0.10046637 -0.10696113 -0.26822752 -0.2472431
0.27698964 0.12314087 0.24898452 -0.3621785 -0.48570824 0.29768568 0.44761437 -0.40778953
0.25615132 -0.27572042 -0.41700867 -0.60971725 0.3583628 0.036858004 -0.1858615 0.036231123
-0.544529 -0.020685984 -0.13683811 0.53002083 -0.1594913 -0.34246677 0.07159221 -0.42424625
0.2645827 0.2545628 -0.34961224 -0.061547715 0.22726183 0.32033232 0.1154482 -0.5908691
0.066583395 0.402081 -0.27250117 -0.074993014 0.25872973 -0.21659401 -0.07349777 0.88152516
0.35479993 0.2707027 0.63983405 0.8891426 -0.029722258 -0.46674812 0.58548653 0.5570127
0.3561399 0.023606598 -0.37886375 0.15539533 -0.20389861 -0.2193991 -0.4456209 0.36361778
-0.24480848 -0.06690024 0.44299832 -0.2173277 0.111575425 0.02341348 0.1257146 -0.24288696
0.16815639 0.16533273 0.46519756 -0.35355031 -0.3822769 -0.14136809 0.22860277 -0.1481601
0.0109599335 -0.003512845 -0.3512427 0.12029445 0.47275934 0.42746204 -0.6554494 -0.9800013
-0.34300143 -0.122194834 0.6004426 0.42872232 0.036519773 0.058539923 0.12393351 -0.2135042
-0.11959047 0.41119194 0.75210375 1.0089377 0.5808818 -0.36620206 0.33598718 -1.1316028

bias f4 [64]
00000000: 6741 d13d 38a5 f6bd ad5c 873d 7ff5 7c3d
00000010: 68cd 6bbe ed47 343e 0a7f aa3e 71d0 dc3d
00000020: ac9d c3bb 608d 7dbd 10fd 9abd fe8c 843e
00000030: c4ef 9dbb e574 7a3e 4f07 733e ec3f 3cbe
00000040: c159 26bc a82c 72be 8878 d4be 8048 0bbe
00000050: 2415 61be 7690 b2bb 494f 56be 50f3 e7bd
00000060: 06cc b7be d280 933e cc33 02bc 005b c4be
00000070: 24f8 ff3b 876d 5cba 6635 54bb b8ac 4dbe
00000080: 4d7d ab3d 6192 4f3d e6a6 453e d81b a7be
00000090: f084 debe 58d5 67b9 a6fc debe 6634 d2be
000000a0: 5c9f afbe f635 b7be be00 8c3e 931e 7fbd
000000b0: bed0 59bc f82d ddbd 78a8 55bc ad2a f0bb
000000c0: 7094 0cbe e4e6 e23c f652 123d 8416 053e
000000d0: 422b 9cbe 904a ffbe 5d2b 81bb 0c5e 6fbe
000000e0: 04fb e8be fcce 34be 3bd0 3eba d54e 293e
000000f0: 3afd 963c 747e 2dbb f57e 123e fc31 5d3e
0.10217553 -0.12043232 0.066094734 0.06175756 -0.23027575 0.17605563 0.33300048 0.107819445
-0.0059697237 -0.061902404 -0.07567799 0.25888819 -0.004819842 0.24458654 0.23733257 -0.1838376
-0.010153235 -0.23649848 -0.41498208 -0.13601875 -0.21980721 -0.00544935 -0.20928682 -0.11325705
-0.35897845 0.2880922 -0.00794692 -0.38350677 0.007811563 -0.0008408655 -0.003238046 -0.20085418
0.083735086 0.050676707 0.19301948 -0.3263843 -0.43460798 -0.00022109353 -0.4355213 -0.41055602
-0.3430127 -0.35783356 0.27344316 -0.062285017 -0.013294397 -0.107997835 -0.013040654 -0.007329306
-0.137285 0.027697988 0.03572365 0.1299687 -0.30501753 -0.49861574 -0.003941937 -0.2337572
-0.4550401 -0.17657083 -0.00072789536 0.16533978 0.018431295 -0.0026473077 0.14306243 0.21601099

weight f4 [64, 64]
00000000: 8a67 22bd 38ce 493d f962 ea3c 5558 0fbe
00000010: 42d1 febd d74b bcbb 4121 403d 5bff 993d
00000020: b5fb 1bbe 5206 f0bd b8a2 173d 1a13 a4bd
00000030: dc7a cebd 4213 6c3d d8d4 aabd 8409 333d
00000040: d9cd 87bb d8e7 1dbd a88b 4d3d 2006 a43c
00000050: 6060 e13d ac9d e1bd d9a4 953d b6f3 f7bd
00000060: 28af bbbd bb52 ddbb d986 10be 3ced 63bd
00000070: 9703 b53d 20bb 57bc 32e2 a9bd 24b1 14bd
00000080: e310 0abe 8956 9abd 9cfd c4bd a868 e8bd
00000090: 000b f13a 940a fcbc c059 183b b813 4c3d
000000a0: 3c9b 7b3d 241b 373d 9112 e8bd 5eb0 25bd
000000b0: fc0e a8bd e459 513d 6571 06be 84f6 33bd
000000c0: 548c 763d 50d8 c73d 21fe 943d f9a2 f1bd
000000d0: a6ce 8a3d 4cb2 58bd f4eb 1ebe e252 b43d
000000e0: 3c3c 9c3d 78b5 12bd afcf 36be 0cbd a4bc
000000f0: 2504 f0bd 08d9 a9bd 66f3 0cbe f2c1 b13b
00000100: a13f 8b3d d8ce 3bbd 83c6 9a3d 98e4 983d
00000110: 2cd7 b03d c9bf c3bc 34a1 14bd e489 733c
00000120: d8f0 c3bd b05d 6abc ac5f 493d dc9a be3d
00000130: 00c9 de3c 4892 88bd 532c 573d a0ed 32bd
00000140: 08e8 66bc d833 cc3d b836 87bd a87b 6a3d
00000150: a00f a13c d288 81bd f282 c9bd f602 833d
00000160: 827c ccbd 4d64 91bd bed5 aabd 00c7 783a
00000170: f604 d4bd 0094 29ba b6e7 f8bd 4018 a23c
00000180: 0684 be3d 447f 3abd 0a36 db3d 3897 e6bd
00000190: 1874 f63d fa43 973d b82e eabd 56e8 fdbd
000001a0: 3c39 82bd 3486 ddbd d376 dabd 8018 6a3d
000001b0: 56a6 e0ba c005 c13c e0e9 e2bd a8b5 49bd
000001c0: e603 f33d 46c8 203d cb51 c13d 87eb b3bd
000001d0: 5825 8dbd 0aaf eabd b856 213d 2092 023d
000001e0: 5a29 e0bd 4490 f4bd 5ca5 573d 634c 3f3d
000001f0: 7bbd bb3d 4e2a dabd 802a 56bd 1b07 a7bc
00000200: 632c 0b3d fa6f fa3d 1fc7 5f3d a186 b33d
00000210: ba98 de3d 2ac6 0a3d 29ce 7a3c 3486 21bd
00000220: 410b 1dbd e8fd 4c3d 4c38 e03d 34d2 92bd
00000230: 1379 31bd dc0e 2dbc cc4c 1cbe bc68 17bd
00000240: d0bf 903d e47f d83d 76aa afbd 4057 da3d
00000250: 74bd 9cbd e46c dd3d db26 b5bd 5c07 223d
00000260: d2ce 823d 801d f4bd ac1b f7bd e829 e7bd
00000270: 77a9 b7bd d0a9 cd3d 1e86 70bd 94d5 aebd
00000280: 4841 95bc 9146 34bd cfb6 e1bd f0c0 c13c
00000290: 1669 cdbd 2e75 53bd b0a9 02bc 40dc a7bb
000002a0: 485f f53c 4cfa 323d 96d2 4c3d 6b5b f33d
000002b0: 8405 a3bc c65c 9c3d 8fb8 d63d 91b9 d73d
000002c0: 8a79 b5bd f954 b83d 8b8f d6bd a577 c43d
000002d0: fe08 fbbd 808c 23bc bc47 043d b8d2 fcbd
000002e0: f0e5 873d e059 0ebd 7e19 41bc e1e5 97bd
000002f0: 7789 f33d 6416 f6bd 27df ecbd 3f7c 0abe
00000300: d8f5 ca3c 7472 c3bd 741c 11bd 7436 97bd
00000310: d0d4 48bd 34c8 4fbd b81d d3bd 24e0 123d
00000320: 2c32 5dbd eaa4 ca3d a8cf db3c 4a7d df3d
00000330: 38ab 03bd 705a 79bc 3e5b aebd 1880 cd3d
00000340: 8807 433d 48e4 d83c 80f9 503b e021 a7bd
00000350: c665 ce3d 8091 d03a 4698 9b3d 4285 abbd
00000360: aec2 fd3d 92de bf3d c0b3 88bb 446b dbbd
00000370: 1087 d6bc 4815 e3bc 14c3 21bd 3015 843c
00000380: 1e25 afbd 7c0a f7bd 748e a2bd 1eb1 c03d
00000390: 2e87 a73d 1017 a33c 001f b43d 10bc 3ebc
000003a0: aa97 88bd dc11 f2bd b0b4 aebd c40c 55bd
000003b0: 4070 cd3b 1e72 963d 3884 51bd 906a e7bc
000003c0: 00cd af3a 60f7 e3bc 3428 6f3d e271 ed3d
000003d0: 1036 d3bd b857 31bd 004b c4bb 00cb 0ebd
000003e0: 3021 88bd 187b d63c 6243 f43d 4c20 49bd
000003f0: be14 ccbd c03b 57bd 8c1a cabd 3066 a33d
-0.039649524 0.04926893 0.028611647 -0.1399854 -0.124422565 -0.0057463455 0.046906713 0.07519408
-0.15232737 -0.117199555 0.037020415 -0.08011456 -0.10082027 0.057635553 -0.08341378 0.043710247
-0.004144412 -0.03855118 0.050182015 0.020022452 0.1100471 -0.11016402 0.07306833 -0.12107031
-0.09164268 -0.006754247 -0.1411394 -0.055646166 0.08838575 -0.013167173 -0.082950965 -0.036301747
-0.13483004 -0.075360365 -0.09618685 -0.113480866 0.0018390119 -0.030766763 0.0023246855 0.049823493
0.06142734 0.044703618 -0.11331666 -0.0404514 -0.08205983 0.051111117 -0.13129194 -0.043936267
0.06019242 0.09758055 0.07275034 -0.11798663 0.06777696 -0.052904412 -0.15519696 0.08804871
0.07628676 -0.035817593 -0.17852663 -0.020109676 -0.117195405 -0.082933486 -0.13764724 0.0054247314
0.067992456 -0.04585156 0.07557394 0.07465476 0.08634791 -0.023895161 -0.036286548 0.014864419
-0.09567422 -0.014304563 0.049163505 0.09306881 0.027195454 -0.06668526 0.052532505 -0.043683648
-0.0140934065 0.09970826 -0.06602234 0.057246834 0.01966077 -0.063249245 -0.09839429 0.06397049
-0.099846855 -0.07099209 -0.08341549 0.00094901025 -0.10352509 -0.0006468892 -0.1215357 0.019786954
0.09302525 -0.045531526 0.107036665 -0.112593114 0.12033862 0.073860124 -0.11434692 -0.1239783
-0.06358573 -0.10816613 -0.10667195 0.05715227 -0.0017139416 0.023562312 -0.11079764 -0.049245507
0.11865978 0.039253496 0.09439429 -0.08785158 -0.068918884 -0.11459167 0.039389342 0.031877637
-0.10945387 -0.11941579 0.052647933 0.046703707 0.09167 -0.106526 -0.052286625 -0.02038913
0.033977877 0.12228389 0.054633256 0.08765913 0.10868974 0.03388039 0.0153079415 -0.039434627
-0.03834081 0.05004683 0.10948238 -0.07168999 -0.043328356 -0.010562625 -0.1526367 -0.036965117
0.07067835 0.10571268 -0.08577435 0.10661173 -0.07653323 0.10811785 -0.08845302 0.0395578
0.06387104 -0.11919689 -0.12065825 -0.1128729 -0.0896787 0.10042155 -0.058721654 -0.085368305
-0.018219605 -0.04401261 -0.11021196 0.02365157 -0.10029809 -0.051625423 -0.007975027 -0.0051226914
0.02995266 0.043695733 0.050005518 0.11882671 -0.019900091 0.07634883 0.104844205 0.10533441
-0.08861072 0.09000582 -0.104765974 0.09593133 -0.122575745 -0.009982228 0.032294974 -0.12344879
0.06635654 -0.03475368 -0.011785863 -0.07416893 0.11891454 -0.120159894 -0.115660004 -0.13523959
0.02477543 -0.095433146 -0.035427526 -0.07383433 -0.04903108 -0.050728038 -0.10308403 0.03585829
-0.054002926 0.09894736 0.026832417 0.10912569 -0.03214571 -0.015219316 -0.08513497 0.100341976
0.047614604 0.02647604 0.0031886995 -0.08160758 0.100780055 0.0015912503 0.07597403 -0.08375026
0.12390648 0.09368624 -0.0041718185 -0.10713819 -0.02618745 -0.027720109 -0.03949268 0.016123384
-0.085520014 -0.120625466 -0.07937327 0.094087824 0.0818008 0.019908458 0.08794975 -0.011641517
-0.066695526 -0.11819813 -0.08530557 -0.052014127 0.0062694848 0.07345985 -0.051151484 -0.028249055
0.0013412535 -0.027827919 0.05838795 0.11593987 -0.10313046 -0.043296546 -0.005990386 -0.034861565
-0.06646955 0.026181743 0.11926915 -0.049103066 -0.09964894 -0.052547216 -0.09868345 0.07978475

bias f4 [64]
00000000: 9702 e1bc 87ac e9bb b712 6bbd 7030 aebd
00000010: bfd6 363e 6ce1 da3d 9416 583e 58b3 dabd
00000020: dccc 0abd 093e 413d 3ce6 b7bd 57ce 343e
00000030: 809a 96bb d2a4 eabd f8ec f0bc f03d b73c
00000040: adaf 833d 8b66 203b 1ab7 f1bd e056 d23b
00000050: 8b3e 79bd 4b1c 263d 2443 25bd e4b8 3dbd
00000060: da2b f1bd 61d2 a9bd be0d 62bd 56fc f2bd
00000070: 8a79 19be 1e2b 94bd 410b ccbc 6cb5 d3bd
00000080: cf8b e3bd d581 6ebd ffa1 d23d bb11 90bd
00000090: 7741 1ebd f21e 953d 2113 593c 42e9 3b3e
000000a0: 4438 463c 6210 e2bd 3f9c 1f3d 2613 cdbd
000000b0: 10b5 683c a382 3b3c c0cd a43c ac1c c4bd
000000c0: 1ca7 1cbd efd5 853d 8748 b13d a531 883d
000000d0: 6089 e53c 556d a4bd b46c 153c ccb1 1f3c
000000e0: 4ef4 9fbc 0382 92bd bb6d 1a3d b165 003d
000000f0: f474 7ebd d2ac 0cbd e167 553d 04c3 d0bd
-0.027467055 -0.0071311626 -0.057390895 -0.085053325 0.17855357 0.10687527 0.21102363 -0.10678738
-0.033886775 0.047178302 -0.089794606 0.17656837 -0.0045960546 -0.11457218 -0.02940987 0.022368401
0.06429992 0.0024475183 -0.11802502 0.0064190477 -0.06085066 0.040554326 -0.040347233 -0.046318904
-0.11775942 -0.0829208 -0.055188887 -0.118645355 -0.1498777 -0.072347865 -0.02490771 -0.10337338
-0.11110651 -0.058229286 0.102848046 -0.07034632 -0.03863665 0.07281293 0.01324919 0.183507
0.012098376 -0.11038281 0.038967367 -0.10013418 0.014203325 0.01144472 0.02011764 -0.09575781
-0.038245305 0.06534945 0.086564116 0.06650094 0.028019607 -0.08028666 0.009120155 0.00974698
-0.019525673 -0.07153704 0.037702303 0.03134698 -0.062123254 -0.0343445 0.05210102 -0.10193446

weight f4 [64, 64]
00000000: 1895 a4bd f02a ca3c 77d6 0bbc d81d 09bd
00000010: 1f8b e23a be34 123b 654a c7bd b883 8b3c
00000020: a467 64bd 0579 183d 5e80 f03d f993 c9bc
00000030: 081c acbd b019 45bc 6162 c9bd 90fd ac3c
00000040: c012 adbc f7c1 46be 86b3 82bd 9da6 93bd
00000050: a0e0 913b 3c6e d5bc 7c16 d53d f49e 22bd
00000060: 18c9 0fbd bba8 8ebb 71ed c1bd 39a6 c13d
00000070: 3e41 1cbe ff98 78bd 2cd1 73bd 40a2 69bd
00000080: 6b50 6bbd 77c6 983b afce fbbc 3f7a ecbd
00000090: 1e74 36bd a10e 36be 4cb5 24bd 1fa6 b03d
000000a0: 24df 0e3c f419 2a3d c9ce 2a3d 89c1 933d
000000b0: 7607 403d afac d5bc 79d3 83bd b4fd c3bd
000000c0: 92d6 98bd 20ac 753d c0f1 4d3d 9452 50bd
000000d0: b5f2 263d 50cf babd 442b 54bd 0535 2dbe
000000e0: 0207 81bc 5a6c d3bd 8155 0a3d 9ec3 913d
000000f0: 7091 2d3d 6903 873d b3d2 1abe 7baa 053e
00000100: 28d8 ce3c c0b9 58bb bc7e cfbd 0cdc 98bd
00000110: c367 edbd 47ae d5bd d5b9 a33d 96fb 9abd
00000120: c0e0 96bb 56b1 05bd 8a29 ddbd fd4e a6bd
00000130: 9834 12bd e840 2a3d 2eb1 a53c b42a df3d
00000140: ef70 45bc d69b 7fbd 00e8 9c39 14b1 b0bd
00000150: 6873 d53d 5444 ae3d 6696 c93d 1c6b d63d
00000160: 50af 783d 6718 d03c 1dce d4bc 587b ab3c
00000170: d791 44bd 6065 e9bd 20af e63d e0a5 58bd
00000180: 006c cdbd 169b e83d 44d1 953d b064 f33d
00000190: a018 36bd 2a40 d8bd ce32 fc3d 9ed7 ddbc
000001a0: f2c5 12be 280a a33c d8f5 e2bd 00c3 28ba
000001b0: d0f7 9abc 483f c5bc 5ef1 cdbd 0803 55bd
000001c0: 5030 7bbc c1ae 0dbe 3f8c 923d 303f babd
000001d0: e204 89bd b0a8 a23d 8874 4e3d dbe5 0a3d
000001e0: f346 e0bd 2817 debc da3a b2bd 0116 843d
000001f0: 80f4 32bd b6a5 cdbd eacb f6bc 92c8 943d
00000200: cce6 8d3d 529f d9bd 7831 da3d f010 e73c
00000210: d1f3 6abd e8d9 1abe ff82 14be 20b4 6dbd
00000220: b664 f5bd 7378 943d 8e36 8d3d 82eb 843d
00000230: 8cc7 983d 9e37 efbd c502 c9bd 74df 2cbd
00000240: a9d6 dcbd b5d7 cdbd cebe 873d decf 3bbd
00000250: 0c62 8e3d 6aae e43d 3c0d 6abd 5051 d4bd
00000260: 807e dfbd 0597 ab3c 0ed2 dabb bcd8 8abd
00000270: fd73 4dbc a073 c03d 8ce1 c43d a891 033d
00000280: d625 f23d 00cb 6dba 59cb 913b bd16 cf3c
00000290: 4097 cfbd 16c5 04be cce2 963d 9dab 003c
000002a0: 89f7 95bb 206b d8bd 92d3 8e3d dcb2 2cbd
000002b0: 9ec6 ca3d 0f82 c5bd 15c7 8c3d 7822 d93d
000002c0: a899 6bbd 468d b8bd 108e e1bb 90a9 d43c
000002d0: 3237 ccbc 2aa8 febd 400d a03d c602 e6bc
000002e0: f9cf 07be 7a73 c8bd 7fff 05bc cfbb 743c
000002f0: d22d 92bd 0828 0bbe 2c6f 7fbd 0af2 f6bd
00000300: 484a a6bd 7801 e53d 9db4 8ebd 02d8 d0bd
00000310: 9a9b 343c 24d9 2abd 7ce1 e63b c875 f6bc
00000320: a04d 5dbd fe7d c23d e08a 5fbd e406 6cbd
00000330: 8004 6cbb 6e93 c9bd e84a 8b3c 5636 e3bd
00000340: 5a2f 83bd a6d6 b5bd 3231 f83d 8491 94bd
00000350: c085 54bd 162d e33d fea5 8ebd 70e3 45bc
00000360: b0af f83c 6dc7 b9bc 913e 95bd a7f3 ab3c
00000370: c3f4 2dbd 80cb 633b 00b2 4b3d d6db bdbd
00000380: 22eb a5bd 6085 f83c e4de 1e3d 2029 7dbc
00000390: 35d4 8abd b3b3 a4bd 3c0c d6bd 91b3 93bd
000003a0: 1ddb 9abc f82c 8dbc 3211 d8bd 19e0 553d
000003b0: dbf1 56bd 7ebb 3b3c c2a6 c43d 1897 2abd
000003c0: 4854 dbbd b9e0 e3bd 33ab 1bbd c47b 6cbd
000003d0: 009b 803d 1a0a d63d a03e eb3b 184e 0abd
000003e0: 882b 53bd e8cc f4bd 5efa 5f3d 2359 18bd
000003f0: 9a87 a53d ec5c c63d 76c1 5e3d d5d6 433d
-0.0803625 0.024678677 -0.008535019 -0.033475727 0.0017283893 0.0022309269 -0.097309865 0.017030582
-0.055762902 0.03722479 0.11743234 -0.024606692 -0.08403784 -0.01203005 -0.098332174 0.021117002
-0.021127105 -0.19409929 -0.06381898 -0.07209513 0.004451826 -0.02605354 0.10404679 -0.03970237
-0.035103887 -0.0043536103 -0.094691165 0.094555326 -0.15259263 -0.060692783 -0.059525654 -0.0570395
-0.05744974 0.0046623307 -0.030738203 -0.11546754 -0.04454433 -0.17779018 -0.04021196 0.08625435
0.008720193 0.041528657 0.041701112 0.07214648 0.046882115 -0.026083319 -0.064368196 -0.095698744
-0.07462801 0.059978604 0.05027938 -0.050860003 0.040758807 -0.09121573 -0.051799074 -0.16914757
-0.015750412 -0.10323401 0.03377295 0.07117389 0.042375028 0.06592447 -0.15119438 0.13053314
0.025249556 -0.00330697 -0.101315945 -0.074638456 -0.115920566 -0.104336314 0.07994429 -0.075675175
-0.004604429 -0.032639824 -0.107989386 -0.081205346 -0.03569469 0.041565806 0.020226087 0.10896817
-0.012050851 -0.062404476 0.00029927492 -0.08627525 0.104224026 0.08509126 0.09843139 0.10469648
0.060714066 0.025402261 -0.025977189 0.020932838 -0.047990646 -0.11396289 0.11263871 -0.052892566
-0.10030365 0.11357705 0.07315305 0.11884439 -0.044457078 -0.10559113 0.12314378 -0.027080353
-0.14333323 0.019902304 -0.11082047 -0.00064377487 -0.018916994 -0.024078026 -0.10055803 -0.052004844
-0.015331343 -0.13836195 0.07155656 -0.09094083 -0.066903844 0.07942331 0.0504041 0.033910614
-0.109510325 -0.027110651 -0.08702631 0.064495094 -0.043690205 -0.100413725 -0.03012653 0.07264818
0.06928787 -0.10626091 0.10653967 0.028206319 -0.057361428 -0.15122187 -0.14503096 -0.05803311
-0.119821 0.07249536 0.06895171 0.06490232 0.074599355 -0.1168053 -0.09814981 -0.04220529
-0.10783131 -0.100509085 0.0662819 -0.045852534 0.06952295 0.11166079 -0.057141528 -0.10367072
-0.109128 0.020946035 -0.0066778725 -0.0677962 -0.012539861 0.09397054 0.09613332 0.03212133
0.11823623 -0.0009071082 0.0044492898 0.025279397 -0.101362705 -0.12965807 0.07367477 0.007853416
-0.0045766276 -0.105673075 0.069739476 -0.04216276 0.099011645 -0.09643947 0.068739094 0.106022775
-0.057519585 -0.09011321 -0.0068833902 0.02595976 -0.024928663 -0.124344185 0.07815027 -0.028077494
-0.13262929 -0.097876504 -0.008178591 0.014937355 -0.07137646 -0.1358949 -0.06236188 -0.12057884
-0.08119637 0.11181921 -0.06968043 -0.1019745 0.011023426 -0.041710988 0.007045923 -0.03008546
-0.054029107 0.09496687 -0.0545758 -0.05762376 -0.0036013424 -0.09842573 0.017003492 -0.11094348
-0.06405516 -0.088788316 0.12118758 -0.072543174 -0.051885366 0.11092584 -0.06965254 -0.012078151
0.030357212 -0.022678101 -0.07287324 0.020990206 -0.04246975 0.0034758747 0.0497303 -0.09270446
-0.08101489 0.030337036 0.038786784 -0.0154516995 -0.067787565 -0.080420874 -0.10451552 -0.07211984
-0.01890331 -0.017233357 -0.10550155 0.05221567 -0.052476745 0.011458276 0.09602119 -0.041648
-0.10709435 -0.11126847 -0.038005065 -0.05773522 0.06279564 0.104511455 0.0071790963 -0.033765882
-0.051555187 -0.11953145 0.054682128 -0.037194382 0.080825046 0.09685692 0.054383717 0.0478123

bias f4 [64]
00000000: fd69 37bd d01e dabc 967b cbb9 d6cc 303d
00000010: 6f75 b43c 4342 15bd d286 f73c ecef a0bd
00000020: d94d e8bd ad21 d7bd 54ea 1c3d 8e6f 033c
00000030: f839 88bd d85a 7abc 607c 7fbd 1614 87bd
00000040: 189a 9c3c 32fb 82bc 4226 e6bd 6cc8 dcbd
00000050: db49 abbd 7abf 84bd d19c f1bd 7d22 c7bb
00000060: 6c66 4abd bc27 933b 3390 33bd b2ce 1e3d
00000070: 5420 a1bc 870b 94bd 5b5b 93bd 6870 aebd
00000080: 5462 3f3e be03 343e 413a 11be b8ca f43d
00000090: d828 323d 18a1 f2bc 1291 003e c6d1 8fbd
000000a0: 90b0 923d 6664 d6bd e3c1 c1bc d993 9cbd
000000b0: 00e6 18bc 8cf5 cebb 6104 e03d ca96 97bc
000000c0: 3c30 0c3d 9f54 1a3c d2f8 dbbc c53e 8fbd
000000d0: 2e52 863c c11e 43be 95ba a7bc 4fcb 0f3c
000000e0: 784e b2bd 61bb b2bd 9136 01bd 9b90 a0bd
000000f0: e2c0 8f3e b739 f7bc b6b5 94bd f1df b3bd
-0.044778813 -0.02662602 -0.00038811256 0.043164097 0.022028653 -0.036440145 0.030215655 -0.078582615
-0.11342973 -0.1050447 0.03830941 0.008022202 -0.06651682 -0.015280448 -0.062374473 -0.06595628
0.019116446 -0.01598892 -0.11237766 -0.10780415 -0.08363696 -0.06481834 -0.117974885 -0.0060771094
-0.049414083 0.0044908207 -0.04383869 0.03877134 -0.019668736 -0.07228761 -0.07195159 -0.085175335
0.18689853 0.17579553 -0.14182378 0.11952728 0.043495983 -0.029617831 0.1255534 -0.07022433
0.07162583 -0.10468368 -0.023652023 -0.07645387 -0.00933218 -0.0063158926 0.10938335 -0.018504519
0.034225687 0.009419589 -0.026852045 -0.06994394 0.016396608 -0.190547 -0.020474711 0.0087765
-0.08706373 -0.08727146 -0.03154618 -0.07840081 0.28076845 -0.030178888 -0.07261221 -0.08782948

weight f4 [64, 64]
00000000: 2048 dabd 6c75 c3bd cc27 36bd 164d fa3d
00000010: f7de 023d b668 0dbd d63a 23be d5f4 2f3d
00000020: 6bd0 8abd 85f4 16bd 5d36 bc3d 8915 cebd
00000030: b080 24bc 127e abbd 8a5e c4bc 35f7 8e3d
00000040: 0586 e6bd 183e 52bd 906e 74bd 4011 fdbc
00000050: 13e4 b83d f8cc 323d 004b 5c3a da17 04be
00000060: 21c1 e73d c191 2cbe a959 52bd 067c 453d
00000070: ec63 6d3d c05e d43d b082 253d 40d2 043b
00000080: b6ad 12be 79b1 2c3d 6369 d0bd b543 c9bd
00000090: 4887 9dbd ea93 a2bd ed73 9dbd 4078 8f3b
000000a0: 8021 f23d 8c36 dc3d 71bb 7dbd 87ac 373c
000000b0: 3299 123c 98d9 8ebc c0c8 90bd b2f8 46bd
000000c0: 980d a2bd 6393 1bbd 6c4a 803b dae9 a6bd
000000d0: 1fbc ab3c b310 433e a698 bbbd b87d 8e3d
000000e0: 0090 0838 7f8b c7bd 5a6b 8fbc 511e c9bd
000000f0: 63d3 47be d709 c5bc abdb fabc 13ad ce3d
00000100: 8f8f d13d 2657 c6bd 7882 83bd 806e ce3a
00000110: 99a5 c83d 4c23 ccbd c7c1 bf3d 5e4c f63d
00000120: e56a 2ebd a215 ffbd ea79 dfbc 8f5e 193c
00000130: 087c 8cbc a7eb 283d d936 8d3d 80eb d6bc
00000140: 87a7 533d 31e9 34bd 5ebb d43d aa8f ccbd
00000150: 9067 da3d fcf3 01bd a069 a13c e838 f03c
00000160: 8029 a23d 2d86 bcbd ae1d f53c a8af b73d
00000170: 86d7 9fbd 6afc a53d e03b 01bd 40df a7bb
00000180: dedc 903d 1ce6 f5bc 9c00 1fbd 949c 89bc
00000190: dd0e 7a3d 8075 8a3a a150 3bbe dc97 c93d
000001a0: 469d b5bd 5011 0cbc b91b b23c 21e5 08be
000001b0: 1db8 e6bd 7e47 f6bc 8cae 03be 8063 f6bb
000001c0: c18d e0bd bd63 11be 92bd 363d f63c 03be
000001d0: fab1 f73b 5049 113c 5ee2 9fbd 4303 b03b
000001e0: bc0b 6abd 0666 bcbd cef2 953d 96ac 87bd
000001f0: 2b5a c03a 02d3 d9bd ec43 54bd 1a87 b83d
00000200: d752 9b3c 354c 74bd a81f b73b 2c4c e0bd
00000210: 928e 20bd 96bf a53d 4b5e f6bd 9e28 ecbd
00000220: f0ac e83d c8bf 20bd 5676 a4bc 571c 6a3d
00000230: 3810 5e3d c2f0 aebd 5733 ba3d 7fbb 8bbd
00000240: 22be c33c 4dc2 8e3c 9c01 a4bd b0e5 8a3c
00000250: 7a95 0b3d 3237 b9bd 7b37 3ebe 882f a13d
00000260: 3555 35be ccee c13d 016e d83d f3bf 8cbb
00000270: 4f80 de3d 7982 67bd b4a9 773c 36ce a6bd
00000280: 24f4 143e d987 773e 81c6 3db9 c37b 123e
00000290: 0767 8a3d f08a 1f3c b4b1 a13c dba3 be3c
000002a0: b093 a6bd 0a50 803d 706f d7bd db2f 28bd
000002b0: b8c5 aeba 402b fcbd 33ab 0f3e a562 14bc
000002c0: 21c1 a13d 1cc9 45bc 629e 4bbd c45a 99bd
000002d0: b21e d0bd 2bbd 193e 50b9 243c d91a 8e3d
000002e0: ac12 8dbd 0b88 543d 43a3 3cbe 5b5d 1dbc
000002f0: 7f3e 9dbd ed63 acbd 56b9 5d3c e329 943d
00000300: a4a5 b03d 6002 d93d 1871 163d 2627 673d
00000310: dd6a f8bd 18ef afbd 7bf1 cd3d 74d6 24bd
00000320: af0e edbd 5a1f 64bd 8418 e3bd 873b b6bd
00000330: 08bb acbd 7f9b c5bd c982 313d 9a05 d1bd
00000340: 4899 0dbe 9098 9dbd 4060 bfbd b8d0 f23c
00000350: c03c f5bb 2613 99bd 1485 6bbd d81a 9abd
00000360: 3567 4d3d 6d68 a9bd 4eb4 9d3c 3886 ee3d
00000370: 9dc2 90bd d817 d93d d012 0c3d a8ac 9e3c
00000380: cca3 32bb 1375 a0bd d3cc 00bd 0aa7 8d3d
00000390: fbcc bbbc 20e9 a23c 19ba 25be d20b 9d3d
000003a0: 1882 2ebd 4090 793d c0e7 06bb 48f9 f3bd
000003b0: 27a9 733d e401 00be d9b0 e6bd 7596 8f3d
000003c0: 8ed0 703d 466f 9a3d f2b0 f1bd ec81 2c3d
000003d0: 500f 0cbd b699 8a3d 00a8 04ba 5e93 be3d
000003e0: ba74 91bd 9cc5 313d 545c 1c3d 9cad 443d
000003f0: 2e2e 88bd 6a36 523b a81b 9b3d 6bb0 3dbd
-0.10658288 -0.09543881 -0.044471547 0.12221734 0.031950917 -0.03452369 -0.15940413 0.0429581
-0.06778034 -0.036854286 0.091900565 -0.10062701 -0.010040447 -0.083736554 -0.023970861 0.06980745
-0.11256031 -0.05132875 -0.059675753 -0.030892015 0.09027877 0.043652505 0.000840351 -0.12899724
0.11316133 -0.16852476 -0.051355038 0.04821398 0.05795662 0.10369635 0.040407836 0.002026692
-0.14324078 0.04216144 -0.10176351 -0.09827367 -0.076918185 -0.079383686 -0.07688127 0.0043783486
0.11822796 0.107525915 -0.061946336 0.011210567 0.008947657 -0.017437741 -0.0706954 -0.048577018
-0.07912749 -0.037982356 0.003915122 -0.081500724 0.020963727 0.19049339 -0.09159975 0.06957573
3.2559037e-05 -0.09743404 -0.017507244 -0.098202355 -0.19514231 -0.024052544 -0.030622324 0.10091605
0.1023246 -0.09684591 -0.06421369 0.0015749484 0.0979721 -0.0996767 0.09363132 0.12026285
-0.04258241 -0.12455298 -0.027279813 0.009360923 -0.017148986 0.04124036 0.06895227 -0.026235342
0.05167344 -0.0441677 0.103873 -0.09988339 0.10664284 -0.031726822 0.019703686 0.02932401
0.07918072 -0.092052795 0.029921379 0.08969051 -0.0780478 0.08104785 -0.031551242 -0.005123049
0.07073377 -0.030016951 -0.03881894 -0.016798295 0.06104933 0.0010563582 -0.18292476 0.09843418
-0.08867888 -0.0085490495 0.021741735 -0.13368656 -0.112655856 -0.030063387 -0.12859553 -0.0075191855
-0.109645374 -0.14198203 0.044614382 -0.12816224 0.0075590583 0.008867577 -0.07806848 0.0053714826
-0.057140097 -0.09199147 0.07321702 -0.06624715 0.001467531 -0.1063595 -0.051822588 0.090101436
0.0189604 -0.05964299 0.0055884905 -0.10952029 -0.039198466 0.08093183 -0.12029704 -0.115311846
0.1136111 -0.039245397 -0.020075958 0.057155933 0.054214686 -0.08542015 0.090918235 -0.068228714
0.023894373 0.017426634 -0.080081195 0.016955227 0.0340781 -0.09043731 -0.18575852 0.07870394
-0.17708285 0.09469375 0.105678566 -0.004295343 0.10864317 -0.056520913 0.015116144 -0.081448
0.14546257 0.24172916 -0.00018098393 0.14305024 0.06757932 0.009737715 0.019738056 0.023271492
-0.08133638 0.06265266 -0.10519302 -0.041061264 -0.0013334071 -0.12312937 0.14030151 -0.009056722
0.078981645 -0.012071874 -0.049711592 -0.07488015 -0.10162105 0.15013568 0.010053948 0.069387145
-0.06888327 0.051887553 -0.18421654 -0.009604777 -0.07677936 -0.08417497 0.013532957 0.07234552
0.086253434 0.10596156 0.03672895 0.05643382 -0.121297576 -0.085905254 0.10055824 -0.04024358
-0.11575066 -0.05569396 -0.1108866 -0.08898073 -0.08434111 -0.09648799 0.043337617 -0.102061465
-0.13828003 -0.076951146 -0.0934453 0.02964054 -0.0074840486 -0.074743554 -0.05749996 -0.07524651
0.050147254 -0.08271871 0.019251015 0.11646694 -0.070683695 0.10600251 0.03419763 0.019369438
-0.0027258275 -0.0783483 -0.031445336 0.06916626 -0.02292489 0.019886553 -0.16184272 0.0766827
-0.042604536 0.060928583 -0.002058491 -0.11912781 0.059487488 -0.12500721 -0.112642 0.07011119
0.058792643 0.07540755 -0.11801328 0.04211609 -0.03419429 0.06767599 -0.00050604343 0.09305452
-0.07102342 0.043401346 0.03817399 0.04801713 -0.06649433 0.003207589 0.075736344 -0.046310823

bias f4 [64]
00000000: 4699 fe3c d68b 95bb 6da0 3c3d fc33 5fbd
00000010: 35de d9bc 0044 39bd aba9 04be 0b15 4ebd
00000020: e3a3 7abd cbec 883d 7862 bbbd b201 2fbd
00000030: 1ee3 d23b 7ffc 83bc dc61 e3bd 0a2a 83bd
00000040: a3cf 3bbd 7247 fcbd e681 0abd 4e01 3f3d
00000050: 6fee 12be e2f4 1cbe 38e3 18be e234 97bd
00000060: aed8 0b3e 1a49 fcbd 1f04 13be 0fff 04bd
00000070: ddda b13c f643 b4bd ff28 083c 3c3b f3bd
00000080: 1722 2abd dd52 f73b fa29 dfbd e09c e2bd
00000090: ba55 8bbd 8944 cebd ed01 06be 9c16 77bd
000000a0: 8b9f 2abd 2e54 6fbd 8c96 b83d 7a01 dbbc
000000b0: e46a b03c 650e 08bd 5ba1 8b3b a974 89bd
000000c0: 32da eb3b a032 debb 6e4f dfbd 9c41 f1bd
000000d0: fe62 a3bd 2d88 dfbd d840 48bd 61a1 8cbd
000000e0: bf66 4ebd 98c0 f03c c8c1 59bd ab48 503d
000000f0: a2b3 9cbb df58 df3d 30f5 7fbc 8aa3 873c
0.031078946 -0.004563789 0.04605143 -0.054492936 -0.026595214 -0.045230865 -0.12955348 -0.050313037
-0.06119145 0.0668579 -0.09149641 -0.042726226 0.006435766 -0.01611161 -0.111026496 -0.06404503
-0.045852315 -0.123183146 -0.033815287 0.046632104 -0.14348768 -0.1532779 -0.14930427 -0.073831335
0.13656875 -0.123186305 -0.14357041 -0.032469805 0.021710807 -0.08802025 0.0083105555 -0.118765324
-0.041536417 0.00754772 -0.10896678 -0.11065078 -0.068034604 -0.10071666 -0.13086672 -0.060324296
-0.04165606 -0.05842989 0.090130895 -0.026734103 0.021535344 -0.033216853 0.0042611784 -0.06711704
0.007197642 -0.0067809373 -0.10903822 -0.11780092 -0.07977866 -0.10914645 -0.048889965 -0.06866718
-0.050390955 0.02938871 -0.05316332 0.05085055 -0.004782156 0.10905623 -0.015622422 0.016557474

weight f4 [64, 64]
00000000: a097 e03b baf5 97bd b028 b33c 30dc 743d
00000010: ce30 e23d 38d1 fe3d 4cfa 6b3d 14ff e83d
00000020: fc71 02bd 702a dfbd 7002 cbbc fef6 95bd
00000030: 2869 3bbd b8dc d6bd 2c86 ce3d bcec 71bd
00000040: e4f8 7a3d d0b6 44bc 2eb9 c2bd e0ce ca3b
00000050: 82ba f5bd 6c7a 073d 8aa6 8ebd e075 efbc
00000060: a097 69bd 4400 b63d 048d e0bd 54e6 d33d
00000070: 3053 553d e067 66bc 2843 9c3c 7659 d13d
00000080: 0461 29bd e04b a1bd 6867 2ebd 00a7 a63a
00000090: 80db 96ba 00f7 343d 00a6 3eba 70a8 853d
000000a0: 224f f53d 8089 933c 0cae d2bd 5060 02bd
000000b0: 009e 9bb9 cc56 20bd 6e53 843d baa4 a93d
000000c0: 8e42 fabd d4a4 11bd 44c3 883d 485b 12bd
000000d0: 1475 17bd 846d a9bd 4834 823d 90b0 e6bc
000000e0: 7091 f3bd a871 4b3d 0001 f5bb 30ac 71bd
000000f0: 90e5 3f3d e041 d0bb 2418 853d b84f fb3c
00000100: cf6e 3d3c 80f9 4dbd e2bf 96bd f662 e2bc
00000110: 1bd0 d8bc c184 0ebd 8263 c1bd 302a 793c
00000120: 7dd0 4fbd b697 06ba 82c1 c6bd f16b d4bc
00000130: ceb7 f43d 5c16 b6bd a636 9bbd 90ac 9abd
00000140: 4e82 7f3d 000a c9bc 664e ad3d 20ea e33d
00000150: a21b a13d 30d7 b9bd 3806 c4bd 8081 9dbc
00000160: b181 96bc b8d8 313d 9475 06bd a4bd 5bbd
00000170: c2a6 93bd 8418 09bd 5ccb b13d 36f7 c43d
00000180: f01d d53d 3cc7 de3d 58f1 27bd 8622 f53d
00000190: ec39 713d 8ef1 a13d 14bc d13d a769 903d
000001a0: 5870 58bd 3672 eabd b6aa 2e3b 7eb9 b8bd
000001b0: 9359 b6bc 50e8 cabc c44c a23d cc82 89bd
000001c0: ac6d 92bd 2cc6 783d f6cb d23d ca1e e73d
000001d0: d094 f4bd 58f7 86bc e8e1 83bd 9ce3 85bd
000001e0: 182d aebc bacb e0bd 8878 843c 15a4 7a3c
000001f0: c27e a1bd c7bf b63d 40a5 d4bb d418 cbbd
00000200: e0dd bd3c 90f8 273c e810 3e3c 9ee4 f7bd
00000210: 1252 3ebd 4d78 2a3d 686a e2bd 6c7c c6bd
00000220: 2ded d8bb e403 e13c 6e02 f3bd d187 efbd
00000230: dc18 f8bd 5890 94bc 96a2 c13d 5cc2 813d
00000240: 6554 42bd 10f2 e93c e063 b93b 384c 7ebd
00000250: 001f 6c3a 401f 9cbb 402d ab3c 2013 a3bc
00000260: 3c44 08bd 9875 0f3d f080 043c 46f5 f03d
00000270: e45c babd 22e1 fbbd 686a 06bd d446 c83d
00000280: 646b b83d 2c8f e63d 805b 03bd f087 5a3d
00000290: 0003 cd3b 10af 00be 266d bdbd 8bde 10bb
000002a0: 7ad9 8c3d c83e 9d3d 5370 283d a85a 96bd
000002b0: e2a7 e2bd 0e1e 8a3d 04b1 85bd 9391 febc
000002c0: 9307 c3bd 2479 c0bd c8ed 343d 804f d7bc
000002d0: 6054 57bd 804f ddbd 08c8 cebc f64c bc3d
000002e0: 1658 ad3d fef1 ec3d cc33 c9bd 0648 06be
000002f0: dd39 cf3c a560 c7bd 30ab d73c 386b a3bd
00000300: 04b6 9d3d 7439 ef3d 34fd 333d 3ef6 c2bd
00000310: 3524 c9bd d70d 96bd dc73 b23d b6db e93d
00000320: f72f 07be a193 a6bd 881c 3a3d e80f b5bd
00000330: f489 463d 6c92 2ebd b8df c73c 8dde 48bd
00000340: 8b25 163d 8662 8a3d 6096 b7bc d62f e3bd
00000350: 0871 1fbd aa50 c3bd 30cf 87bc 58bd 1dbd
00000360: ee7f 073c 463f efbd e965 cd3d e4d5 3bbd
00000370: a006 663d 58a0 943c d639 ee3d 2859 0fbd
00000380: 8219 af3d 2222 e43d 687b d7bd 8c87 46bd
00000390: 6c67 4fbd ae05 d7bd 48c9 4b3d a18f a83b
000003a0: b864 d43d 3ee5 c1bd 646c 9ebd 94ad ab3d
000003b0: 8ea5 ed3c 3078 b2bc ece7 bd3d 1b97 ad3d
000003c0: 393e 2ebd 6023 90bd 02c0 b5bd 9a6c e7bd
000003d0: 16d0 8bbd c776 d4bc 76e5 d53d d808 b9bc
000003e0: 2390 b3ba 64a4 33bd 84ce b9bd d88b b6bc
000003f0: 7e9d a03d 714c 103d 6611 c83d 50ba 00bd
0.0068540126 -0.074199155 0.021869987 0.0597803 0.11044465 0.12442249 0.05761175 0.11376777
-0.031846985 -0.10896766 -0.024781436 -0.07322501 -0.04575458 -0.104913175 0.10084185 -0.059063658
0.061272517 -0.0120064765 -0.095079765 0.006189212 -0.11998464 0.033075735 -0.069653586 -0.029231012
-0.057029366 0.088867694 -0.109643966 0.10346666 0.052081287 -0.014062852 0.019074991 0.102221414
-0.041352287 -0.078758 -0.042579085 0.0012714565 -0.0011509508 0.04418087 -0.0007272661 0.065262675
0.11977984 0.018009901 -0.10287103 -0.031830132 -0.00029681623 -0.039145276 0.064612255 0.08283372
-0.122197255 -0.035557583 0.06677869 -0.035731584 -0.03697689 -0.082728416 0.06357628 -0.028160363
-0.118929744 0.049668938 -0.007476926 -0.0590021 0.046849787 -0.006355509 0.06498745 0.030677661
0.011562063 -0.05028677 -0.073608175 -0.027635079 -0.02646642 -0.034794573 -0.09442808 0.015207812
-0.05073594 -0.0005134301 -0.097048774 -0.025930377 0.119491205 -0.088909835 -0.07578783 -0.07552445
0.062380128 -0.024540901 0.08462219 0.1112864 0.07866599 -0.09074247 -0.09571499 -0.01922679
-0.018372389 0.04341957 -0.032826975 -0.053647652 -0.07209541 -0.033470646 0.08681366 0.09617464
0.10406101 0.10877845 -0.041001648 0.119694754 0.05889313 0.07907401 0.10240951 0.070514016
-0.052841514 -0.11447565 0.0026652045 -0.09019755 -0.02225951 -0.024768978 0.07924798 -0.06714401
-0.071498245 0.060735866 0.10292809 0.112851694 -0.11942446 -0.016475365 -0.064395726 -0.06537554
-0.021261737 -0.10976358 0.016170755 0.015297909 -0.07885505 0.089232974 -0.006489426 -0.09916845
0.023177087 0.010252133 0.01160071 -0.12104152 -0.046464987 0.041618634 -0.11055452 -0.096917
-0.0066200704 0.027467676 -0.11865698 -0.11695827 -0.121141165 -0.018135235 0.09454839 0.06335899
-0.047443766 0.028557807 0.005657658 -0.062084407 0.0009007305 -0.0047644675 0.0208956 -0.01990658
-0.0332682 0.035024256 0.008087382 0.11765532 -0.09099749 -0.122988 -0.03281632 0.097791344
0.09004858 0.112577766 -0.032069683 0.053352296 0.006256461 -0.12566781 -0.09249334 -0.0022105302
0.06877418 0.0767799 0.041122746 -0.0734151 -0.11067177 0.06744014 -0.06527904 -0.031075275
-0.09522929 -0.09398106 0.04417208 -0.026283026 -0.0525707 -0.10806179 -0.025241867 0.09194367
0.08464067 0.11569594 -0.098243326 -0.13113412 0.025296146 -0.0973523 0.026326746 -0.07979435
0.07700732 0.1168088 0.043942645 -0.09519623 -0.09821359 -0.073268585 0.08713505 0.1141886
-0.13201891 -0.08133627 0.045437366 -0.088409245 0.048471406 -0.042620108 0.02439867 -0.049040366
0.036656898 0.06757073 -0.022410572 -0.11093108 -0.038926154 -0.0953687 -0.016578287 -0.03851065
0.008270247 -0.1168199 0.100292034 -0.04585828 0.05615866 0.018142864 0.11632125 -0.034997135
0.08549787 0.11139323 -0.10521585 -0.04846911 -0.05063574 -0.1049913 0.049752504 0.005144075
0.10370773 -0.094675526 -0.077355176 0.08382717 0.029009607 -0.021785825 0.09272751 0.08476087
-0.04253981 -0.07037997 -0.08874513 -0.11300011 -0.068267986 -0.025935544 0.10444157 -0.022587225
-0.0013699572 -0.043857947 -0.09072593 -0.02228348 0.07842539 0.03522915 0.097689435 -0.03142768

bias f4 [64]
00000000: b432 28bd 4cd1 99bd ed0b 95bd 73e9 85bd
00000010: a3c1 d8bc b8aa 75bd 913a e0bd 3a46 11be
00000020: d5d8 ebbc 6a60 d9bc d02f 93bd 779c 90bd
00000030: 9ec7 18be 5d9a f9bd 4463 8bbc 0047 62bc
00000040: 2a80 bd3b 2945 2ebc 8e5e e6bd a2b3 c6bd
00000050: 42d9 f4bc 2442 7bbd 8649 45bd 57e0 52bd
00000060: 4bb1 92bc e276 66bd 4130 9fbd c430 00bd
00000070: 7ec1 16bd 3907 bcbb a849 aebd 7866 f5bd
00000080: 2eb6 ddbc a0fa 02bd 16d6 95bd 9f89 e2bd
00000090: 8a41 19be d7fe cabc 7d12 41bd 28bb 0cbd
000000a0: f26a f9bd c60e b73d 1396 c7bd 7cbc 35bd
000000b0: 7c96 03bd 2a72 81bc 1dfd 2cbd 694c b4bc
000000c0: d735 ffbd c691 3ebd fd07 d9bd c856 babd
000000d0: a236 53ba a499 73bd fe3b 00bd 0076 cabd
000000e0: cb13 06be 9884 36bd 7e99 a9bd ead2 d1bd
000000f0: 0a5c d5bd 6058 f5bd 463f fabd 0629 a7bd
-0.04106398 -0.07510623 -0.07277665 -0.065386675 -0.02645952 -0.059977263 -0.10948671 -0.14186946
-0.028789917 -0.026535232 -0.07186854 -0.07061093 -0.14919898 -0.121876456 -0.017015107 -0.013810873
0.0057831006 -0.010636606 -0.112485036 -0.09702231 -0.029888753 -0.061342373 -0.04816582 -0.05148348
-0.017906806 -0.05626572 -0.077728756 -0.031296507 -0.036805622 -0.0057381657 -0.085101426 -0.11982435
-0.02706441 -0.031977296 -0.07316224 -0.110614054 -0.14966407 -0.02477972 -0.047136772 -0.034358174
-0.12178601 0.08938365 -0.09745421 -0.044369206 -0.032125935 -0.015801508 -0.042233575 -0.022009091
-0.12461441 -0.04652574 -0.10597227 -0.090985835 -0.0008057152 -0.059472695 -0.031307213 -0.09885788
-0.13093488 -0.044560045 -0.082812294 -0.10245307 -0.10417946 -0.11979747 -0.122191 -0.081621215

weight f4 [1, 64]
00000000: 10df 353d a532 0d3d 30f5 883d 1d31 4ebd
00000010: c2cc 673b 9a28 dd3d c0e7 a63d 2bae fe3c
00000020: d14e d5bb 5567 88bc 9aa6 863d b85b a43d
00000030: 6b44 b23d 62f1 72bc 0cd9 41bb 8815 e5bc
00000040: 45c6 fe3c 72ac d8bb d6a4 f03d e0d1 c03b
00000050: 08bd 34bc 26e1 8abd 78b5 92bd a3ca b4bb
00000060: 6e2a 3a3c 6f37 8f3c 6ef2 e3bb 08f6 e2bd
00000070: a0d3 293c a7e6 27bd 101e 15bd c589 853c
00000080: 8a36 7f3b 489a 2dbd 64bf 073b 67d4 d93c
00000090: dede de3c 6aa8 a0bc 8932 6fbc 5832 87bc
000000a0: 2054 b7bb 5b98 043e 507d 84bd 7eb5 c23d
000000b0: bc21 83bd 56fb f7bb 64bb 333d 4c2a cabc
000000c0: 91cf 3cbd ee05 163c a57c 66bc 85a0 72bd
000000d0: 7a76 6f3b 503f 173d d530 e6bb 48a8 ed3d
000000e0: e9d8 a53d 50bb e73d 3268 fc3d c4dd 6dbd
000000f0: c6a0 023d 3847 afbd 1400 ca3d 6cbf f4bd
0.044402182 0.034472127 0.06687391 -0.050339807 0.0035369848 0.1079876 0.081496716 0.03108891
-0.00650964 -0.016650835 0.065747455 0.080253065 0.08704456 -0.014828058 -0.0029578833 -0.027964368
0.031100402 -0.006612354 0.1175019 0.005884394 -0.011031397 -0.06781225 -0.07163519 -0.0055173202
0.011362655 0.017482487 -0.00695639 -0.11082083 0.010365397 -0.04099145 -0.036405623 0.016301045
0.003894242 -0.042383462 0.0020713443 0.02659054 0.02720588 -0.019611556 -0.014599451 -0.016503498
-0.0055947453 0.12948744 -0.06469214 0.09507273 -0.06402919 -0.0075678034 0.04387988 -0.024678372
-0.04609639 0.009156687 -0.0140678035 -0.059235115 0.0036539123 0.036925614 -0.007024864 0.11604363
0.08098013 0.11315024 0.12324561 -0.05807282 0.031891607 -0.08558506 0.09863296 -0.11950573
