snapshots/8conv8-3.pt (torch, 4242 bytes, 3 tensors)

weight f4 [8, 1, 3]
00000000: 76b1 f5bc 110f 2e3d e827 1b3e 0782 6cbe
00000010: 0bd7 393f ff6e 563f 68f0 c73d a06a 413d
00000020: 7a2c a8be 372b f3bd 2564 7fbd e7b7 153e
00000030: eb7d 373c c6e9 cdbd b8af abbe 43c0 19bd
00000040: 1d0c 193f 3caa 42bf f4ea 493e a579 ddbd
00000050: 8ed4 a63f ef8d f5be d4fd 0c3e 04e8 0d3f
-0.029991847 0.042494837 0.15151942 -0.23096476 0.72593755 0.83763117 0.09762651 0.047220826
-0.32846433 -0.11873477 -0.062351365 0.14620934 0.011199455 -0.10054354 -0.335325 -0.03753687
0.5978411 -0.7604101 0.19718534 -0.108142175 1.3033617 -0.4795985 0.13768703 0.5543215

bias f4 [8]
00000000: ad29 dabd b9ce 4e3d 3c9d ffbd 430d 99bc
00000010: e668 133e ac32 913d 8b13 fc38 94b4 9bbe
-0.1065248 0.050490115 -0.12481162 -0.018683081 0.14395484 0.07089743 0.000120199365 -0.30411208

weight f4 [1, 48]
00000000: 1741 a1bc 04fd 0e3d 03c7 9dbd 12c5 75bd
00000010: 3d16 9ebd 82fc 5d3e 1b62 20bd aa9f afbd
00000020: 945f c63d 5021 57b9 752b 8d3c a1a4 903e
00000030: 62da 17bd 2670 b13d 63aa 12be 60d0 843d
00000040: 126b d33d 1257 0d3e 75d9 02be 918f 933d
00000050: f351 ab3c 83ea 003d 86c3 01bd 47a4 ea3c
00000060: e9db e83d f5a5 063e dc7a 66bd a311 28bc
00000070: 76a6 58be 2294 8cbe 5c15 b43b 5fa5 193d
00000080: 0d9a ed3d b266 26be 0ea9 08be e873 a9be
00000090: 9a27 21bd 9c33 c83c c899 f1bd 07e0 83bd
000000a0: 05a2 563c 3a7c ec3e 226a 0f3e 00d1 7fba
000000b0: c044 0fbe aaff e9bd 60c5 d23c 4cab 04bd
-0.019684358 0.034909263 -0.07703974 -0.060002394 -0.07719085 0.21678355 -0.03915606 -0.085753754
0.09686199 -0.00020516408 0.017232636 0.28250602 -0.0370735 0.08663969 -0.1432281 0.06485057
0.103231564 0.13802746 -0.12778266 0.072051175 0.0209131 0.031473648 -0.031680606 0.028642787
0.113700695 0.13149245 -0.05626951 -0.010258111 -0.2115725 -0.27456766 0.0054957103 0.037511226
0.116016485 -0.16250113 -0.13345739 -0.33096242 -0.039344408 0.024438672 -0.117969096 -0.06439214
0.013100152 0.46188527 0.1400533 -0.00097586215 -0.1399107 -0.11425717 0.025728881 -0.032389924
