snapshots/8fcr64x2.pt (torch, 23430 bytes, 5 tensors)

weight f4 [64, 8]
-0.038656984 -0.1820471 0.4914052 0.49107435 0.056462448 -0.19637334 -0.4391229 -0.23714668
-0.15811588 -0.18494749 0.14444226 -0.17174275 0.15347758 -0.015140146 -0.0938904 0.21501973
0.049082786 0.19224182 0.09515828 -0.083841085 0.03793782 0.014480352 0.29768965 0.20907637
-0.1730244 -0.1867896 -0.079648726 -0.16386826 0.13303797 -0.31619546 0.30119735 0.45267788
0.15391985 -0.28068143 -0.091796756 0.018395841 0.21227726 0.04150626 0.29958305 -0.3027835
-0.36389935 -0.35337827 0.12588699 0.3324768 0.1640492 0.08669648 0.0041529397 0.6700414
-0.06116566 -0.12998104 0.14620349 -0.05643034 -0.15913706 -0.112452045 -0.056896716 -0.19574526
0.15363477 0.08053309 -0.008761633 0.30112976 -0.06497776 0.20818987 0.40735278 0.72252023
-0.2872584 0.20183352 0.22154471 0.22807941 0.051441252 0.023897052 -0.27021798 -0.06660819
0.32686928 0.032061905 0.3298659 -0.10382855 0.04430461 -0.32161513 -0.18822019 -0.32975158
0.5554233 0.28326914 0.02729053 0.17534083 0.06347094 0.12748785 0.013574778 -0.6102
-0.19617082 0.0783214 -0.2596587 -0.30859065 -0.27187413 0.056010604 -0.20029534 -0.13231026
-0.24961028 -0.1686466 0.18939164 -0.23414053 0.036329776 -0.049744964 0.028256059 0.23441043
-0.08983478 -0.3371068 -0.09067994 0.17936102 0.021995306 -0.27709416 -0.18917009 -0.18416837
-0.14337641 -0.19901021 -0.017294824 -0.29255196 0.04798487 0.34700117 0.08607495 -0.28588313
0.3283846 0.35648352 0.10119898 0.27786136 -0.10199873 0.20656896 0.37021852 0.26299483
0.38888246 0.17797917 0.17228377 0.15997204 0.39420435 0.24345304 0.58000726 0.34264103
0.26323584 0.08332643 0.11905089 -0.26575547 0.107396334 -0.18235676 -0.31471878 0.22894731
0.15480658 -0.17367393 0.024486363 0.16569331 -0.29417387 -0.08409378 -0.3489925 0.20247504
0.20734629 0.23212394 -0.12964231 0.21879658 -0.042685896 0.08553895 -0.15461925 -0.0019423366
0.036515653 0.35027102 -0.18987459 0.1559163 -0.07782635 0.05312264 0.07740837 -0.21064901
0.08553037 0.22588083 0.007283896 -0.005359143 0.065678954 -0.22469787 -0.23413599 -0.16754851
0.30334353 -0.12705661 -0.13990495 0.108662695 -0.1341035 0.1692851 -0.12776574 -0.008879816
-0.011550307 0.028100401 0.2016693 -0.35330492 0.34420624 -0.2920898 -0.06624097 -0.1666976
0.25409636 0.22348204 0.2716352 -0.21044566 0.17436776 -0.017190993 0.01433751 0.21040598
0.0054269442 0.2741491 0.55337816 0.056551058 0.32168067 -0.15655854 -0.9099776 -1.2762845
-0.29290816 0.16283485 -0.048954874 -0.31836697 -0.19781525 -0.055229902 0.19841263 -0.19215304
-0.098011315 0.2315094 0.2422428 0.010803628 0.0712815 0.19427472 0.10820181 -0.098725855
0.266584 0.25272942 0.17819026 0.27702978 -0.10830513 0.27123648 -0.19634968 -0.44074097
-0.16501325 -0.33156222 -0.3299386 0.08683491 -0.0014533997 -0.14410964 0.2905021 0.23140368
0.21353331 -0.21085086 0.24585125 -0.08724415 0.2694026 -0.15196526 0.10900432 -0.03559655
0.18829444 -0.06541726 -0.25546104 0.30585405 -0.10088414 0.26576653 -0.108967856 -0.35062805
00000000: c956 1ebd 8e6a 3abe 7699 fb3e 196e fb3e
00000010: 2b45 673d 1816 49be b7d4 e0be 94d6 72be
00000020: 21e9 21be e062 3dbe ace8 133e 55dd 2fbe
00000030: 3a29 1d3e 600e 78bc 9c49 c0bd 222e 5c3e
00000040: 080b 493d 0adb 443e 58e2 c23d e0b4 abbd
00000050: b064 1b3d 003f 6d3c c76a 983e 1e18 563e
00000060: 4f2d 31be c645 3fbe df1e a3bd 15cd 27be
00000070: 1b3b 083e 5fe4 a1be 8a36 9a3e 65c5 e73e
00000080: 2a9d 1d3e 7ab5 8fbe f0ff bbbd e0b2 963c
00000090: 365f 593e 7802 2a3d f362 993e 7006 9bbe
000000a0: 0451 babe ffed b4be 85e8 003e 663a aa3e
000000b0: 83fc 273e ed8d b13d 6215 883b d587 2b3f
000000c0: d888 7abd c019 05be 5eb6 153e 8023 67bd
000000d0: d3f4 22be 424d e6bd 880c 69bd 7271 48be
000000e0: 6f52 1d3e 88ee a43d f48c 0fbc ae2d 9a3e
000000f0: 0f13 85bd ba2f 553e 8b90 d03e 16f7 383f
00000100: 8813 93be 72ad 4e3e 9edc 623e a68d 693e
00000110: 10b4 523d c0c3 c33c 035a 8abe e069 88bd
00000120: 695b a73e 5853 033d 2fe4 a83e 10a4 d4bd
00000130: c078 353d bdaa a4be cbbc 40be 33d5 a8be
00000140: 3930 0e3f a708 913e 6490 df3c 8c8c 333e
00000150: 0dfd 813d 2d8c 023e bf68 5e3c 1136 1cbf
00000160: 01e1 48be f866 a03d fcf1 84be 98ff 9dbe
00000170: 1633 8bbe 606b 653d 391a 4dbe 577c 07be
00000180: d699 7fbe b2b1 2cbe e2ef 413e 89c2 6fbe
00000190: 88ce 143d 60c1 4bbd 4079 e73c 4a09 703e
000001a0: 4cfb b7bd 4399 acbe 68b6 b9bd 6aaa 373e
000001b0: 802f b43c 49df 8dbe ceb5 41be a296 3cbe
000001c0: 44d1 12be 55c9 4bbe e0ad 8dbc 5fc9 95be
000001d0: c88b 443d 23aa b13e 1048 b03d 465f 92be
000001e0: 0722 a83e 0285 b63e 6941 cf3d d843 8e3e
000001f0: b6e4 d0bd d086 533e 488d bd3e 42a7 863e
00000200: 9a1b c73e 2c40 363e 286b 303e b6cf 233e
00000210: 27d5 c93e c14b 793e 5b7b 143f a56e af3e
00000220: d9c6 863e 0ca7 aa3d f4d0 f33d 1a11 88be
00000230: 9cf2 db3d bbbb 3abe d222 a1be 2a71 6a3e
00000240: 9e85 1e3e 94d7 31be a097 c83c 82ab 293e
00000250: f59d 96be 5c39 acbd 25af b2be 9e55 4f3e
00000260: 9652 543e e6b1 6d3e f4c0 04be 360c 603e
00000270: 68d7 2ebd 0c2f af3d 8254 1ebe 0096 feba
00000280: 7091 153d b956 b33e 7c6e 42be 86a8 1f3e
00000290: 6c63 9fbd 2097 593d 4888 9e3d 60b4 57be
000002a0: 8c2a af3d 4e4d 673e c0ad ee3b c09b afbb
000002b0: b082 863d 3317 66be 58c1 6fbe d691 2bbe
000002c0: d84f 9b3e 211b 02be 3e43 0fbe 8c8a de3d
000002d0: 6e52 09be 1359 2d3e 06d5 02be a67c 11bc
000002e0: 803d 3dbc d032 e63c 6682 4e3e 62e4 b4be
000002f0: cd3b b03e cb8c 95be 58a9 87bd c7b2 2abe
00000300: eb18 823e 7ad8 643e c513 8b3e 117f 57be
00000310: 768d 323e 20d4 8cbc e0e7 6a3c aa74 573e
00000320: 82d4 b13b 455d 8c3e 31aa 0d3f 15a2 673d
00000330: 54b3 a43e e250 20be 4bf4 68bf 4a5d a3bf
00000340: 0ff8 95be 2ebe 263e e884 48bd ff00 a3be
00000350: 1590 4abe c038 62bd ae2c 4b3e c4c3 44be
00000360: 28ba c8bd cd10 6d3e 7f0e 783e b301 313c
00000370: 09fc 913d f4ef 463e e998 dd3d c830 cabd
00000380: b37d 883e c065 813e 8277 363e d9d6 8d3e
00000390: 14cf ddbd 82df 8a3e e40f 49be cda8 e1be
000003a0: 3cf9 28be 86c2 a9be b6ed a8be 80d6 b13d
000003b0: 0080 beba 7a91 13be b1bc 943e 16f5 6c3e
000003c0: 7aa8 5a3e 4ae9 57be 6ec0 7b3e 10ad b2bd
000003d0: 23ef 893e c89c 1bbe a83d df3d b0cd 11bd
000003e0: 42d0 403e 7cf9 85bd cacb 82be e798 9c3e
000003f0: 589c cebd 8d12 883e 8a2a dfbd 8585 b3be

bias f4 [64]
0.098447435 -0.35248762 -0.30838093 -0.019710911 -0.32205498 0.0046385718 -0.25981197 0.15784803
-0.33321255 -0.16726828 0.03026362 -0.290069 -0.14113626 -0.31020877 -0.14947164 0.18337923
0.14076953 -0.22685009 -0.13515289 -0.11513314 -0.09578696 -0.14043613 -0.018107645 -0.22165306
-0.2942231 0.040416498 -0.24546337 -0.16409236 0.028968964 -0.1634676 -0.30029055 -0.1325182
-0.21184975 0.07057354 0.0028978973 0.06871603 -0.063785166 -0.0034688357 0.13756725 -0.20902729
0.013605427 -0.008908663 0.054122243 -0.16617806 -0.04241369 -0.21142077 -0.06811325 0.11601217
-0.2654487 -0.008421353 -0.052814197 0.013638677 0.09379022 -0.095863044 0.037523568 -0.012568667
-0.34863082 -0.08833644 0.007495613 0.16914158 -0.00012417175 0.0026487573 -0.0119564505 -0.08123746
00000000: cf9e c93d 4279 b4be 1be4 9dbe c778 a1bc
00000010: 64e4 a4be 29ff 973b 1306 85be eaa2 213e
00000020: d69a aabe 6048 2bbe 69eb f73c ed83 94be
00000030: 0686 10be afd3 9ebe 180f 19be c4c7 3b3e
00000040: e325 103e 644b 68be 8565 0abe ecca ebbd
00000050: f42b c4bd 7dce 0fbe 7c56 94bc 05f9 62be
00000060: 69a4 96be c58b 253d c05a 7bbe d407 28be
00000070: 5250 ed3c 0d64 27be afbf 99be dab2 07be
00000080: 24ef 58be dc88 903d a6ea 3d3b fdba 8c3d
00000090: cca1 82bd 6855 63bb 6ede 0c3e 400b 56be
000000a0: 4ce9 5e3c a4f5 11bc 49af 5d3d 952a 2abe
000000b0: fab9 2dbd b07e 58be f67e 8bbd ca97 ed3d
000000c0: e4e8 87be b7f9 09bc b353 58bd c274 5f3c
000000d0: 1615 c03d d853 c4bd 50b2 193d cfec 4dbc
000000e0: bd7f b2be bce9 b4bd c29d f53b 7333 2d3e
000000f0: 1a34 02b9 c696 2d3b fde4 43bc d35f a6bd

weight f4 [64, 64]
-0.036751077 0.0033668727 -0.01687567 -0.10777807 -0.010445252 0.042886864 -0.042680934 -0.08335969
-0.045398474 -0.016514868 0.09544152 -0.06266627 0.104595706 -0.1028489 -0.12139295 -0.08761378
-0.042841297 -0.11005752 0.027630478 0.057446554 0.080595 -0.0131136775 -0.10694725 0.03625615
-0.024762705 -0.09027839 -0.00940688 -0.04753893 0.04519771 0.04328324 0.021210685 0.022934854
-0.05162601 0.009836822 0.0630906 -0.11147177 -0.11274837 -0.006347125 -0.09706503 0.022967815
-0.054907463 -0.087732896 0.08988048 0.024980813 0.08876205 0.024136186 -0.14861067 -0.11089944
0.09345792 0.050217845 -0.06790537 0.017600432 -0.10667151 0.08232404 -0.07821385 0.03108549
0.018960178 -0.012634281 0.041541845 -0.036328122 -0.053648755 -0.050559003 -0.13559783 -0.09791431
-0.16147059 -0.066085815 -0.025388464 0.0926195 -0.023220256 0.28180486 -0.11767511 -0.02481592
0.02696471 -0.027977675 0.0122424485 0.055546746 0.080438256 0.06938283 0.09983036 0.0034235986
0.080161534 0.044770733 -0.09967747 -0.09446049 0.032751635 -0.05259019 0.11973548 -0.08394675
0.024607748 -0.21012452 0.10849103 -0.081297584 -0.07526747 -0.0427562 -0.069953695 -0.11473428
0.004776766 0.09286794 0.26360744 -0.12734315 -0.08017856 0.08907676 -0.14210118 0.065446034
0.12751117 0.08326971 -0.12976119 -0.031492427 -0.031561363 0.04160337 0.012247326 -0.0688396
-0.025994241 0.029311977 0.08167745 0.1309734 -0.011003379 0.08812787 0.021622082 -0.008737296
-0.0741428 0.045064222 0.17059647 -0.07384462 0.11007873 0.2109574 0.013022193 0.07324489
0.017620003 -0.042994037 -0.08644287 0.0786352 0.046806604 -0.15896434 -0.029615104 -0.10525451
-0.080696225 0.04969728 0.07401551 -0.08645034 -0.07828461 -0.09608927 0.03633097 -0.11268523
-0.07746243 -0.023369506 -0.039851338 -0.028826997 0.08252251 0.085950345 -0.029745791 -0.039351404
-0.08346562 -0.085697085 0.0410551 0.060020924 0.09031029 -0.06123221 -0.019457981 -0.0928825
-0.17644985 0.027660178 -0.1806118 0.028026357 -0.0021539629 0.0009488977 -0.013026175 -0.09222193
-0.05735232 0.045549646 0.033363577 0.07445374 -0.021966254 -0.02953896 -0.034303907 0.06434828
0.1053593 -0.047056656 0.0880734 -0.10009666 0.055188168 0.10885963 0.038678925 0.021539208
0.020858124 -0.05859631 -0.037466433 -0.028995445 -0.010868433 -0.040871672 -0.012399811 -0.15299658
0.009425998 0.048332706 -0.07230766 -0.07787068 -0.1025029 -0.069011465 0.09722377 0.045021802
0.07413572 -0.015823334 0.030483484 -0.099427864 -0.11710438 -0.04003781 -0.02440992 0.1215359
-0.11861944 -0.08664417 -0.08791272 -0.062504545 0.06023106 0.06378281 -0.048352912 0.12208091
0.05949475 0.08017574 0.04292305 0.06892046 0.10613507 -0.07808648 0.009113684 0.03313364
-0.1145491 -0.029288217 -0.06251788 0.018106982 -0.08097616 0.0052711964 0.03854175 -0.0228405
0.02112253 0.10091691 -0.10150613 -0.0011602044 0.07957409 0.01774919 0.07368201 0.035474584
-0.051474616 0.024520263 -0.09476252 -0.055510253 0.09555857 -0.0043819994 0.062030658 -0.048100233
0.023410842 -0.08588821 -0.037750557 -0.055858538 0.11317998 0.08996259 0.0320009 -0.11297497
00000000: 4c88 16bd c0a6 5c3b d83e 8abc c0ba dcbd
00000010: 9022 2bbc 23aa 2f3d 34d2 2ebd 7cb8 aabd
00000020: c0f3 39bd 304a 87bc d876 c33d 2c57 80bd
00000030: 4636 d63d 72a2 d2bd de9c f8bd da6e b3bd
00000040: 5b7a 2fbd d665 e1bd 5059 e23c 144d 6b3d
00000050: fe0e a53d c0da 56bc 2907 dbbd 5481 143d
00000060: 28db cabc e0e3 b8bd 501f 1abc 2eb8 42bd
00000070: 3c21 393d c449 313d 08c2 ad3c e0e1 bb3c
00000080: cc75 53bd 9f2a 213c a535 813d 504b e4bd
00000090: 9ee8 e6bd 8bfb cfbb 08ca c6bd 0027 bc3c
000000a0: a6e6 60bd 4ead b3bd 4213 b83d 90a4 cc3c
000000b0: e1c8 b53d 40b9 c53c 652d 18be 3f1f e3bd
000000c0: de66 bf3d 3ab1 4d3d f811 8bbd c82e 903c
000000d0: 9876 dabd 8299 a83d 952e a0bd ffa6 fe3c
000000e0: 6052 9b3c 0400 4fbc c827 2a3d cccc 14bd
000000f0: ccbe 5bbd f516 4fbd 28da 0abe 4c87 c8bd
00000100: 8c58 25be 0058 87bd 78fb cfbc 4baf bd3d
00000110: 6838 bebc ba48 903e a6ff f0bd c24a cbbc
00000120: 18e5 dc3c 7031 e5bc 8d94 483c fc84 633d
00000130: d0bc a43d 9618 8e3d dc73 cc3d 745e 603b
00000140: bb2b a43d 8461 373d b423 ccbd 8074 c1bd
00000150: 9426 063d d068 57bd e037 f53d 46ec abbd
00000160: 3096 c93c e22a 57be 8c30 de3d 597f a6bd
00000170: d525 9abd 2021 2fbd e243 8fbd cef9 eabd
00000180: 6b86 9c3b 8c31 be3d 8ef7 863e 3e66 02be
00000190: a834 a4bd e06d b63d f982 11be 9208 863d
000001a0: 4a92 023e 4f89 aa3d 1ee0 04be 34fe 00bd
000001b0: 7d46 01bd 4c68 2a3d 02a9 483c c7fb 8cbd
000001c0: e0f1 d4bc ac1f f03c 8246 a73d e41d 063e
000001d0: 8447 34bc 627c b43d cb20 b13c e026 0fbc
000001e0: 2ed8 97bd 4395 383d d7b0 2e3e d93b 97bd
000001f0: f570 e13d 3705 583e 095b 553c 6b01 963d
00000200: d357 903c 841a 30bd f608 b1bd 7e0b a13d
00000210: 48b8 3f3d 8cc7 22be 609b f2bc ad8f d7bd
00000220: 1044 a5bd 608f 4b3d 7295 973d e00c b1bd
00000230: ae53 a0bd 74ca c4bd c8cf 143d 84c7 e6bd
00000240: 9fa4 9ebd 6871 bfbc 283b 23bd 9826 ecbc
00000250: 9001 a93d bc06 b03d 72ad f3bc f02e 21bd
00000260: 06f0 aabd f481 afbd 6429 283d 80d8 753d
00000270: 9af4 b83d a0ce 7abd 5866 9fbc 2e39 bebd
00000280: 45af 34be 9997 e23c 4df2 38be 8897 e53c
00000290: 8029 0dbb 72bf 783a bd6b 55bc dade bcbd
000002a0: 44ea 6abd 4492 3a3d 3fa8 083d 347b 983d
000002b0: 93f2 b3bc b0fb f1bc 4182 0cbd 08c9 833d
000002c0: 9ec6 d73d 7bbe 40bd d45f b43d 7aff ccbd
000002d0: fd0c 623d ccf1 de3d cb6d 1e3d fe72 b03c
000002e0: a8de aa3c af02 70bd 6776 19bd db87 edbc
000002f0: 8311 32bc 0e69 27bd 9428 4bbc 23ab 1cbe
00000300: 806f 1a3c 84f8 453d 0a16 94bd aa7a 9fbd
00000310: 0aed d1bd e255 8dbd 421d c73d c868 383d
00000320: 78d4 973d f09f 81bc 80b8 f93c d6a0 cbbd
00000330: 6cd4 efbd b0fe 23bd 50f7 c7bc d0e7 f83d
00000340: c0ee f2bd 8072 b1bd 960b b4bd 6202 80bd
00000350: d8b4 763d 90a0 823d b40d 46bd 8e05 fa3d
00000360: c4b0 733d 2e33 a43d 14d0 2f3d 2c26 8d3d
00000370: 585d d93d ceeb 9fbd 9051 153c 24b7 073d
00000380: b898 eabd d8ed efbc 6009 80bd 1855 943c
00000390: d4d6 a5bd 00ba ac3b f4dd 1d3d 001c bbbc
000003a0: 2809 ad3c 86ad ce3d 72e2 cfbd 0012 98ba
000003b0: bef7 a23d c066 913c 98e6 963d cc4d 113d
000003c0: 0cd7 52bd b8de c83c da12 c2bd b85e 63bd
000003d0: 36b4 c33d e096 8fbb dc13 7e3d c004 45bd
000003e0: 18c8 bf3c 28e6 afbd 54a0 1abd eccb 64bd
000003f0: e8ca e73d 4e3e b83d 6013 033d 6c5f e7bd

bias f4 [64]
0.010275665 0.0870499 0.001787759 -0.101279944 -0.044767782 -0.058256924 -0.0015932001 -0.00083589053
-0.021169038 -0.011957247 0.018713815 -0.0054507903 0.014534337 0.086154014 -0.09947492 0.058953
0.024173858 0.0014121152 -0.093094036 -0.02010843 0.017957391 -0.035308287 -0.1315284 -0.021911636
0.10901448 -0.12590118 0.034894112 0.044201054 -0.020617947 -0.089437366 0.032015126 -0.121310845
-0.048056077 -0.008714581 -0.10485123 -0.07611632 0.09534835 0.040577896 0.041884754 -0.05225429
-0.03540254 -0.0030370778 -0.04579769 0.049649984 -0.09100032 -0.012840092 -0.06423684 -0.025064068
-0.12194343 0.009112692 0.06587915 0.009611392 0.05300353 -0.03203319 -0.023371458 0.0324683
-0.048009485 0.066704854 0.03709957 0.006750923 0.011861429 0.030828848 0.058121994 0.029364273
00000000: 435b 283c 3847 b23d 3d53 ea3a dc6b cfbd
00000010: 6c5e 37bd d09e 6ebd edd2 d0ba aa1f 5bba
00000020: b16a adbc 54e8 43bc b74d 993c 8b9c b2bb
00000030: 6e21 6e3c 8471 b03d 82b9 cbbd b378 713d
00000040: 4108 c63c b916 b93a 16a8 bebd 6fba a4bc
00000050: 611b 933c 6c9f 10bd 62af 06be 0880 b3bc
00000060: fc42 df3d 3dec 00be 21ed 0e3d 2a0c 353d
00000070: f8e6 a8bc f02a b7bd 4b22 033d d271 f8bd
00000080: 73d6 44bd 9ac7 0ebc 3ebc d6bd e0e2 9bbd
00000090: ff45 c33d 0235 263d 598f 2b3d 9808 56bd
000000a0: 4102 11bd b609 47bb 5c96 3bbd c85d 4b3d
000000b0: 605e babd 405f 52bc 9b8e 83bd 2953 cdbc
000000c0: 7abd f9bd 674d 153c a6eb 863d 1a79 1d3c
000000d0: 3b1a 593d 3c35 03bd 8075 bfbc 7bfd 043d
000000e0: 98a5 44bd 8e9c 883d b8f5 173d d936 dd3b
000000f0: 7056 423c c88c fc3c 5411 6e3d 588d f03c

weight f4 [1, 64]
-0.074107036 0.061050292 0.0004610266 0.12028934 0.012432292 0.043887824 3.634693e-05 0.005378021
0.01318566 -0.00033418197 0.045614094 -0.039576057 0.079095736 -0.052020535 -0.12353946 0.009253178
0.029154845 0.057232484 -0.07933332 0.012514994 0.03068168 -0.12284012 -0.0027508663 -0.027246773
-0.101710595 0.009965283 -0.0009950096 -0.0017514034 0.009321436 -0.025635045 -0.0019589842 0.123652056
0.11101626 -0.004882094 0.045419216 0.05322823 -0.07418868 -1.9944737e-05 0.0010082115 0.016224876
0.013668424 0.0009700675 0.071329705 0.067366235 0.0102636665 0.0911323 -0.00022839228 0.023201669
0.016468182 -0.016413063 -0.011348033 -0.06937773 -0.0015841918 -0.030864239 -0.0056896377 0.051568322
-0.0788151 0.026642371 0.12296884 -0.014067106 0.12223478 -0.015580104 0.0555016 0.0004483539
00000000: 6ec5 97bd df0f 7a3d f1b5 f139 425a f63d
00000010: d0b0 4b3c b8c3 333d 3873 1838 1c3a b03b
00000020: ab08 583c 2535 afb9 d8d5 3a3d 811a 22bd
00000030: f2fc a13d 7c13 55bd 4202 fdbd a49a 173c
00000040: 24d6 ee3c 9c6c 6a3d 8279 a2bd b00b 4d3c
00000050: 2658 fb3c 9a93 fbbd e147 34bb a034 dfbc
00000060: a54d d0bd 6d45 233c fb6a 82ba 598f e5ba
00000070: f0b8 183c 9600 d2bc 4d62 00bb 4a3d fd3d
00000080: 7e5c e33d f9f9 9fbb 8009 3a3d d805 5a3d
00000090: 3cf0 97bd ff4e a7b7 f725 843a 08ea 843c
000000a0: 87f1 5f3c 214c 7e3a 4f15 923d 4ff7 893d
000000b0: f028 283c 92a3 ba3d 967c 6fb9 6d11 be3c
000000c0: 48e8 863c b074 86bc 1aed 39bc e915 8ebd
000000d0: a8a4 cfba 00d7 fcbc 2470 babb 4e39 533d
000000e0: d069 a1bd 1a41 da3c 16d7 fb3d b879 66bc
000000f0: 3a56 fa3d b143 7fbc a555 633d 0b11 eb39
