snapshots/model.pt (torch, 88626 bytes, 13 tensors)

weight f4 [32, 1, 5]
-0.2020923 0.4190426 -0.2326782 0.4137072 -0.19857141 0.41621 -0.21975522 0.16474092
-0.31156278 -0.18615243 0.028405001 0.10912027 0.09349358 -0.22982448 0.32504213 -0.3841229
-0.2621243 0.23596168 0.047537357 -0.36376673 -0.14543074 -0.12155858 0.39608908 -0.106924236
-0.16186976 -0.39637387 -0.28759116 -0.14164007 -0.16708294 -0.32953814 0.2453991 0.07162787
-0.46946776 0.05249784 -0.80146146 0.15558898 -0.39919248 -0.26941496 -0.21041517 0.35032457
0.6174198 0.32227802 0.09993174 -0.65461046 -0.5842525 -0.027823865 -0.19921021 0.36763626
0.39580965 -0.29382885 -0.21112752 -0.37740135 -0.28636506 0.3928656 0.3861164 -0.14675638
-0.56075436 -0.04189184 -0.63296044 -1.1448381 -0.06971199 0.028783213 0.18760127 0.17057656
0.028599378 -0.32124096 -0.123455524 0.35486346 -0.28795162 0.19086063 1.093865 0.48415697
-0.48583195 -1.5850408 -1.82571 -0.28888124 0.108739614 0.12901819 0.051750302 0.17808807
-0.166974 -0.5824859 0.1609163 0.3369144 0.18025553 0.4307575 0.3206432 0.018141529
-0.09636995 0.23256604 0.31241682 0.40593773 -0.50422627 -0.71159095 -0.0806862 0.3339163
0.27770108 0.14634812 0.17339927 -0.2645902 0.09906484 0.026762161 0.027876947 0.35781404
0.35083583 0.049424477 0.44472632 -0.4583723 -0.33065346 -0.71132195 -0.21910661 0.07910353
0.022537917 0.4128126 0.37849075 -0.2979455 -0.1628995 0.06481844 -0.12742072 -0.016548008
0.23444603 -0.044721503 0.084369354 -0.10042148 -0.7017457 0.11774401 -0.2797223 0.43287495
-0.06864898 0.83479244 0.25258332 -0.42568496 -0.2056656 0.186032 -0.42703307 0.6141878
0.24601199 -0.38548273 -0.09885273 -0.8287516 0.23793352 0.073595524 -0.25195765 0.14295948
-0.19035849 0.034373567 -0.26163715 0.3215442 0.10955429 0.6237798 -0.058331996 -0.061235152
0.23953252 0.30438823 -0.5217933 0.03676161 0.04143703 -0.018698722 -0.10958135 -0.056436896
00000000: 49f1 4ebe c08c d63e 3243 6ebe 6ed1 d33e
00000010: 4e56 4bbe 7a19 d53e 8307 61be d8b1 283e
00000020: 2885 9fbe be9e 3ebe 9bb1 e83c 737a df3d
00000030: 9079 bf3d 1c57 6bbe ec6b a63e c2ab c4be
00000040: 2835 86be f09f 713e 88b6 423d a23f babe
00000050: cceb 14be b4f3 f8bd 30cc ca3e 18fb dabd
00000060: 30c1 25be 84f1 cabe 263f 93be 180a 11be
00000070: ca17 2bbe 39b9 a8be e749 7b3e a2b1 923d
00000080: 145e f0be fa07 573d 942c 4dbf b852 1f3e
00000090: f562 ccbe c2f0 89be 1377 57be be5d b33e
000000a0: 390f 1e3f a001 a53e 03a9 cc3d 8d94 27bf
000000b0: 9291 15bf e0ee e3bc c3fd 4bbe d23a bc3e
000000c0: 90a7 ca3e bc70 96be d031 58be c03a c1be
000000d0: 719e 92be ae25 c93e 0cb1 c53e 4e47 16be
000000e0: 998d 0fbf c796 2bbd b209 22bf 0e8a 92bf
000000f0: 29c5 8ebd c6ca eb3c 8c1a 403e 9fab 2e3e
00000100: 3e49 ea3c b279 a4be 40d6 fcbd aab0 b53e
00000110: 656e 93be f870 433e c503 8c3f 6ce3 f73e
00000120: f7be f8be 9ee2 cabf deb0 e9bf 3ee8 93be
00000130: e0b2 de3d 581d 043e 20f8 533d b85c 363e
00000140: 3bfb 2abe cc1d 15bf 3ec7 243e 0b80 ac3e
00000150: e894 383e 3f8c dc3e 582b a43e 8b9d 943c
00000160: 9c5d c5bd cb25 6e3e 19f5 9f3e 12d7 cf3e
00000170: f914 01bf d32a 36bf ce3e a5bd 14f7 aa3e
00000180: d62e 8e3e 48dc 153e 948f 313e 5e78 87be
00000190: 82e2 ca3d 523c db3c 325e e43c 6733 b73e
000001a0: c1a0 b33e 5271 4a3d 2bb3 e33e c6af eabe
000001b0: 694b a9be 3219 36bf 7c5d 60be 0801 a23d
000001c0: 70a1 b83c 2c5c d33e 8ac9 c13e 508c 98be
000001d0: 20cf 26be 88bf 843d 947a 02be b08f 87bc
000001e0: 9f12 703e e52d 37bd d7c9 ac3d c7a9 cdbd
000001f0: 9ba5 33bf c623 f13d c337 8fbe c9a1 dd3e
00000200: d697 8cbd f5b4 553f 9a52 813e 61f3 d9be
00000210: 019a 52be 2c7f 3e3e 14a4 dabe 693b 1d3f
00000220: 91ea 7b3e fe5d c5be 4d73 cabd 1129 54bf
00000230: d8a4 733e 40b9 963d 9800 81be f863 123e
00000240: 56ed 42be 4ccb 0c3d 4ef5 85be 71a1 a43e
00000250: 005e e03d 08b0 1f3f 88ed 6ebd b6d1 7abd
00000260: 0348 753e c6d8 9b3e 3f94 05bf 5893 163d
00000270: e0b9 293d 102e 99bc 306c e0bd 602a 67bd

bias f4 [32]
-0.062224507 -0.253734 -0.11206608 -0.2226113 -0.13993728 -0.10684928 0.31699377 -0.1828455
0.1633223 -0.19972312 -0.3053037 0.21749304 -0.12639053 -0.29424286 0.13230817 -0.41301984
-0.048861403 -0.2806619 0.22704905 -0.16784114 -0.058696296 0.117773436 -0.34807014 -0.0812152
0.21059902 0.006288403 -0.13102803 0.2382456 -0.26766166 0.0059346966 -0.00010895536 -0.19042465
00000000: 20df 7ebd 6ce9 81be e782 e5bd 37f4 63be
00000010: b84b 0fbe ccd3 dabd 024d a23e da3b 3bbe
00000020: f63d 273e 3884 4cbe c450 9cbe 7fb6 5e3e
00000030: 856c 01be 00a7 96be cb7b 073e 5677 d3be
00000040: e522 48bd ebb2 8fbe 8c7f 683e 8cde 2bbe
00000050: 876b 70bd 3333 f13d 4036 b2be 2854 a6bd
00000060: 45a7 573e f30e ce3b 362c 06be a8f6 733e
00000070: f30a 89be d877 c23b f77e e4b8 aefe 42be

weight f4 [32, 32, 3]
0.002785951 0.08899814 0.06278035 -0.04546372 0.095979944 -0.0654397 0.008275316 0.050490957
0.045025717 -0.06642339 -0.015290715 -0.072521314 -0.08673571 -0.060759887 0.03856373 -0.06770429
-0.071812354 0.017100498 -0.3851597 -0.43330082 -0.3153054 0.035265252 -0.06734309 -0.057270218
-0.47607836 -0.50037646 -0.34101334 0.011075281 -0.019146033 0.0077498406 0.002460435 0.094781995
-0.07197197 0.04389801 0.03059738 -0.1836274 -0.0003509565 0.06317655 0.09730396 0.030632824
-0.059949167 0.015090086 0.12608187 -0.12527442 -0.44560722 -0.002894424 -0.08454022 0.093133
0.092883445 0.0036322884 0.14532408 0.037166663 -0.047797292 0.019747185 -0.28703624 -0.40117303
-0.33433923 0.04252425 0.008640632 -0.10034979 0.097747944 0.10035809 0.18600602 -0.1447503
-0.0026326075 -0.08217208 -0.016850933 0.06432946 -0.06652233 0.06571351 -0.04276277 -0.06205736
-0.28014973 -0.37800187 -0.50776523 0.11579461 0.24609126 0.16873562 -0.06953399 0.014617339
-0.015465029 -0.44680658 -0.5545782 -0.48099825 -0.0041015595 -0.050363924 -0.04943627 0.05769301
0.1969286 0.15589467 0.04369919 0.09046753 0.08976545 -0.07198075 0.06567229 0.032327652
0.040690005 -0.025197223 -0.07168598 0.0955345 0.031396896 -0.09990272 0.14467391 -0.06644563
-0.14447069 0.0138439685 0.10189031 -0.07354821 0.034573376 0.024644822 -0.008090571 0.053147584
0.08555403 0.08644134 0.0069234786 0.123989575 0.25873134 0.052077785 -0.07391111 -0.022240207
0.0632264 0.12394025 0.44526646 0.05186005 -0.01792442 0.07862811 0.086275265 -0.07908934
-0.024719805 -0.19192137 0.03269961 0.48213777 0.01258349 0.04685717 -0.052798316 -0.040091403
0.08126752 -0.013960272 -0.28044325 0.29355237 0.7340128 0.052408755 0.050582126 -0.004268907
0.12866509 -0.013420866 -0.18098897 0.09148128 -0.029535167 -0.070640385 0.015655102 0.045520347
0.23717034 0.0017090514 -0.078781635 0.023872733 0.050086014 0.0656908 -0.19512868 -0.046302002
0.10772746 0.3137015 -0.0033779666 0.05546014 0.015134506 -0.08907304 -0.021756284 0.06009765
0.09334691 0.10394237 0.17470516 0.061190978 -0.04475074 -0.23607466 0.04185894 0.09297846
-0.09554094 0.14180243 0.22658311 0.50181884 0.05761747 -0.09495177 -0.020163782 0.019831609
-0.040586594 -0.14537254 0.053260874 0.017866548 0.038845345 0.019288726 0.043803737 -0.06573291
0.044114947 -0.05940733 -0.0034812093 0.034826487 -0.05601 0.0051302463 0.010689708 -0.020055808
0.038714606 0.098033294 0.05313836 0.07445893 -0.01591891 0.07868025 0.03012687 0.028922334
-0.090029 -0.0064510554 -0.060172834 -0.0078255255 -0.16012806 -0.042858914 0.057331562 0.03095983
0.095625654 0.041200887 0.011489025 -0.02828613 0.0005008206 -0.03399905 -0.061905775 0.06484656
0.0114270225 -0.1253903 -0.09822707 -0.15242219 0.059824582 0.033427026 -0.08829865 0.07926817
-0.07986429 -0.0931915 0.035572372 0.008751528 -0.07112545 -0.023817964 0.019735575 -0.032100737
0.033838734 -0.023379177 -0.041673105 -0.07418903 0.09639611 -0.019054264 -0.0917031 -0.024772802
-0.061988514 0.045356393 0.07891925 -0.0846586 0.04688244 0.07980744 -0.098123804 0.016974483
00000000: 8094 363b a844 b63d fc92 803d 2a38 3abd
00000010: 2291 c43d 4005 86bd 3195 073c 9bcf 4e3d
00000020: e36c 383d fc08 88bd e885 7abc 0e86 94bd
00000030: 7ea2 b1bd 5cdf 78bd 00f5 1d3d 8ca8 8abd
00000040: 5b12 93bd 5816 8c3c a733 c5be 9bd9 ddbe
00000050: b66f a1be 4c72 103d 2deb 89bd 2d94 6abd
00000060: 8bc0 f3be ac18 00bf 4d99 aebe 1875 353c
00000070: 24d8 9cbc 60f2 fd3b 403f 213b 101d c23d
00000080: 0a66 93bd 66ce 333d 5ba7 fa3c d208 3cbe
00000090: 9600 b8b9 b562 813d 4c47 c73d b0f1 fa3c
000000a0: 428d 75bd 683c 773c 9b1b 013e f047 00be
000000b0: a126 e4be 60b0 3dbb 6c23 adbd 84bc be3d
000000c0: ad39 be3d b00b 6e3b d6cf 143e 123c 183d
000000d0: 18c7 43bd d9c4 a13c 6af6 92be 8d66 cdbe
000000e0: 832e abbe e82d 2e3d 7091 0d3c 3184 cdbd
000000f0: 1330 c83d 8b88 cd3d 5d78 3e3e 6c39 14be
00000100: d387 2cbb d649 a8bd f80a 8abc 2abf 833d
00000110: dc3c 88bd ce94 863d 0428 2fbd dc2f 7ebd
00000120: c96f 8fbe 7689 c1be e7fc 01bf b925 ed3d
00000130: 59ff 7b3e 08c9 2c3e d667 8ebd 907d 6f3c
00000140: 0861 7dbc d5c3 e4be d6f8 0dbf 6745 f6be
00000150: 6066 86bb 674a 4ebd b07d 4abd 814f 6c3d
00000160: a7a7 493e daa2 1f3e ecfd 323d 0a47 b93d
00000170: f3d6 b73d a56a 93bd 327f 863d 006a 043d
00000180: 90aa 263d 686a cebc 19d0 92bd 98a7 c33d
00000190: 089a 003d cc99 ccbd 6625 143e a514 88bd
000001a0: 20f0 13be d0d1 623c deab d03d 72a0 96bd
000001b0: d09c 0d3d f0e3 c93c 508e 04bc 48b1 593d
000001c0: f436 af3d 2808 b13d 59de e23b 3fee fd3d
000001d0: 6f78 843e 844f 553d b55e 97bd 1831 b6bc
000001e0: d87c 813d 63d4 fd3d f7f9 e33e 346b 543d
000001f0: 3cd6 92bc c607 a13d 16b1 b03d 98f9 a1bd
00000200: 3081 cabc 0987 44be 07f0 053d c3da f63e
00000210: fc2a 4e3c 4eed 3f3d 0c43 58bd e236 24bd
00000220: 966f a63d a0b9 64bc 4296 8fbe 7f4c 963e
00000230: 43e8 3b3f 90aa 563d 342f 4f3d 30e2 8bbb
00000240: c8c0 033e 31e3 5bbc 2c55 39be 8a5a bb3d
00000250: bcf3 f1bc e8ab 90bd 213f 803c 8b73 3a3d
00000260: c8dc 723e 4002 e03a 4458 a1bd c090 c33c
00000270: fe26 4d3d e688 863d d0cf 47be 2ba7 3dbd
00000280: 37a0 dc3d 7c9d a03e e060 5dbb 2c2a 633d
00000290: b8f6 773c ed6b b6bd 3c3a b2bc f428 763d
000002a0: aa2c bf3d bddf d43d e9e5 323e 64a3 7a3d
000002b0: 8d4c 37bd 8ebd 71be 4874 2b3d 7e6b be3d
000002c0: f8aa c3bd a834 113e 6705 683e 3377 003f
000002d0: 4c00 6c3d 1376 c2bd 842e a5bc e675 a23c
000002e0: 213e 26bd 8adc 14be 1328 5a3d de5c 923c
000002f0: 4c1c 1f3d 6403 9e3c 8c6b 333d fa9e 86bd
00000300: e0b1 343d 1a55 73bd 0025 64bb 38a6 0e3d
00000310: be6a 65bd a01b a83b e323 2f3c 144c a4bc
00000320: 3593 1e3d aec5 c83d 9ca7 593d ec7d 983d
00000330: 6068 82bc 1c23 a13d a0cc f63c 88ee ec3c
00000340: 2061 b8bd 6063 d3bb ca77 76bd a236 00bc
00000350: 9cf8 23be d48c 2fbd 80d4 6a3d 789f fd3c
00000360: 62d7 c33d 43c2 283d 773c 3c3c 50b8 e7bc
00000370: 8049 033a 9642 0bbd e990 7dbd 46ce 843d
00000380: 6838 3b3c 5166 00be 462b c9bd 9014 1cbe
00000390: 9f0a 753d c7ea 083d ecd5 b4bd 5a57 a23d
000003a0: e48f a3bd 2fdb bebd 56b4 113d 9262 0f3c
000003b0: 38aa 91bd e41d c3bc 80ac a13c 107c 03bd
000003c0: 7c9a 0a3d b085 bfbc 6bb1 2abd 6bf0 97bd
000003d0: 536b c53d b017 9cbc d6ce bbbd 55f0 cabc
000003e0: abe7 7dbd a0c7 393d 6aa0 a13d 7d61 adbd
000003f0: cd07 403d 1572 a33d 22f5 c8bd 120e 8b3c

bias f4 [32]
-0.07206619 0.1505175 -0.07618385 -0.07066418 -0.03715486 -0.015403255 0.0372081 0.024325429
-0.041173782 -0.045314156 -0.016642267 -0.031466775 -0.041070215 -0.14095432 0.15650073 -0.106072664
-0.008029464 -0.06143344 0.02237179 -0.10651876 -0.09636055 -0.0805354 0.11167993 -0.031166231
-0.024597783 -0.05674897 -0.043569088 -0.09359939 -0.07603436 -0.06445554 -0.09595336 -0.034272917
00000000: 7097 93bd 4221 1a3e 4706 9cbd 62b8 90bd
00000010: b22f 18bd ef5d 7cbc 8567 183d 1f46 c73c
00000020: d7a5 28bd 569b 39bd 5d55 88bc 4ee3 00bd
00000030: 3e39 28bd 5456 10be ba41 203e a03c d9bd
00000040: 038e 03bc a1a1 7bbd 0b45 b73c 8226 dabd
00000050: ae58 c5bd beef a4bd 72b8 e43d 5350 ffbc
00000060: 4a81 c9bc 9c71 68bd 8075 32bd 09b1 bfbd
00000070: e7b7 9bbd 4401 84bd 3283 c4bd c261 0cbd

weight f4 [64, 64]
-0.20447713 -0.3417661 0.05761945 0.11863692 -0.019533226 -0.160787 -0.11187415 -0.018207729
0.065546066 -0.050826862 -0.10512625 -0.039370153 0.067321114 0.1888466 0.005835868 -0.012022041
-0.09187115 0.0022835622 -0.06292187 -0.006397765 -0.051778473 0.12665087 -0.111932084 0.10594924
0.051035658 0.11183813 -0.050146982 -0.19055273 -0.05414449 0.0066985134 -0.17462191 -0.23235604
-0.04447018 0.025814 -0.058483347 0.06959185 -0.010673001 0.0957105 0.030291969 -0.00069600093
0.06818217 -0.0598131 0.032849237 0.025987178 -0.061986543 0.04279635 0.04174135 0.099549055
-0.0017241195 -0.034529835 -0.040094584 0.018096581 0.12164965 0.0517229 0.11148447 -0.09971231
-0.10869227 0.09374522 -0.09300879 -0.046659425 -0.07681 -0.01745528 0.053898975 0.07735991
0.03474526 0.056883737 0.10121864 -0.11369945 -0.069987744 0.08900076 0.050132185 0.021886185
0.04782252 -0.12350364 0.08385347 0.017667979 0.04260561 0.028468966 -0.013623655 -0.05274269
-0.055824876 -0.083471805 0.04873821 -0.071076125 -0.10757409 -0.0662055 0.0903821 -0.068392396
-0.062713966 0.10217331 -0.11451922 -0.11176701 0.018227011 -0.102096796 -0.09022738 0.005341351
0.06975758 -0.049378023 0.02898255 -0.08003162 -0.04940577 0.09174539 -0.022797331 -0.024336904
0.032740787 0.096064076 0.022664353 -0.116166264 -0.043779746 0.079886734 0.023693934 -0.10635513
-3.8728118e-05 0.1162387 0.10748963 0.01933211 -0.036871135 -0.10629931 -0.108729616 -0.11363995
-0.035805285 -0.032338575 -0.07490447 0.002008468 0.10569601 0.07194427 -0.12472765 -0.10257621
0.103249736 -0.05241463 0.0548106 0.25167084 0.083967045 -0.035208557 -0.062023565 0.054888144
0.06813833 0.061291903 0.0001909784 -0.053595454 -0.043717593 0.2705473 -0.052491046 0.04427261
-0.015703954 -0.06814707 -0.1000832 0.022277351 0.024152473 -0.027372953 -0.010073394 -0.10353945
-0.05941546 -0.004405737 -0.03596787 -0.21084571 -0.08335912 0.18999426 0.028527062 -0.17457615
0.0929418 -0.07665949 0.075758696 -0.010053411 -0.07665758 -0.08655307 0.06342906 -0.013539189
-0.009232288 -0.029986061 -0.11850479 0.11253445 -0.17009705 0.18107997 0.040457454 -0.24337947
0.05265387 0.002409449 0.10263343 0.03446366 -0.07107249 0.10512386 -0.056030974 -0.12371643
-0.08226627 0.0139847845 0.03981714 -0.08650169 -0.03642398 -0.038383722 -0.11529412 -0.089971505
0.07912508 -0.12353259 0.019874774 -0.10871694 -0.11468081 -0.051715195 -0.049344942 0.08164626
0.11305672 -0.074834466 -0.038903415 -0.013182062 0.021265192 0.10121999 -0.09190488 -0.07213183
-0.024948567 0.12034981 -0.12526245 -0.100432254 0.050335515 -0.030488558 -0.02839446 -0.00492543
-0.01825872 0.07630952 -0.04598753 -0.0075793415 -0.121708356 -0.037489805 -0.03846565 -0.01348975
-0.1006424 -0.10137173 -0.05121331 0.097592965 -0.10496667 -0.10862367 -0.021409556 0.026441798
0.09754136 -0.09927513 0.016670972 0.11892122 -0.07593268 0.08206318 0.09756309 -0.10069003
-0.04903631 -0.018543512 -0.050179943 -0.0066303164 -0.11756155 -0.047535747 -0.014273569 0.08105561
-0.044283718 -0.07770701 0.067676365 -0.109306306 -0.10535772 -0.123549536 0.0068531656 0.062336717
00000000: 7462 51be f7fb aebe 5f02 6c3d eaf7 f23d
00000010: 2504 a0bc 59a5 24be 461e e5bd 6028 95bc
00000020: 043d 863d d42f 50bd 6e4c d7bd 9942 21bd
00000030: a7df 893d 0161 413e cf3a bf3b 18f8 44bc
00000040: f126 bcbd d1a7 153b 2edd 80bd 58a4 d1bb
00000050: aa15 54bd c4b0 013e a63c e5bd eafb d83d
00000060: c40a 513d 640b e53d ec66 4dbd 4120 43be
00000070: 9dc6 5dbd 347f db3b 16d0 32be beee 6dbe
00000080: 5d26 36bd e277 d33c 3c8c 6fbd 2c86 8e3d
00000090: d0dd 2ebc de03 c43d dd26 f83c d573 36ba
000000a0: 18a3 8b3d 95fe 74bd ec8c 063d 10e3 d43c
000000b0: 9ae5 7dbd 3a4b 2f3d faf8 2a3d 60e0 cb3d
000000c0: dafb e1ba 286f 0dbd 383a 24bd 483f 943c
000000d0: 7423 f93d 64db 533d f851 e43d f835 ccbd
000000e0: 0e9a debd 7efd bf3d 647b bebd f41d 3fbd
000000f0: 904e 9dbd 60fe 8ebc 2cc5 5c3d df6e 9e3d
00000100: 0c51 0e3d ecfe 683d b84b cf3d 42db e8bd
00000110: bc55 8fbd 0846 b63d 6857 4d3d a84a b33c
00000120: 8ce1 433d 7aef fcbd 5ebb ab3d 70bc 903c
00000130: 3883 2e3d c037 e93c c035 5fbc b808 58bd
00000140: a0a8 64bd 44f3 aabd b8a1 473d 5c90 91bd
00000150: ce4f dcbd c096 87bd 401a b93d 5011 8cbd
00000160: 2e70 80bd 3e40 d13d 0e89 eabd 1ae6 e4bd
00000170: d050 953c 2018 d1bd 22c9 b8bd 8006 af3b
00000180: 10dd 8e3d 9c40 4abd d06c ed3c 9ee7 a3bd
00000190: b45d 4abd 02e5 bb3d 78c1 babc 305e c7bc
000001a0: 341b 063d 3ebd c43d 98aa b93c 94e8 edbd
000001b0: 6452 33bd a89b a33d c819 c23c b8d0 d9bd
000001c0: 0070 22b8 8e0e ee3d 8623 dc3d 605e 9e3c
000001d0: 3006 17bd 74b3 d9bd a2ad debd 10bc e8bd
000001e0: 90a8 12bd 7475 04bd 8467 99bd 80a0 033b
000001f0: 2677 d83d 8457 933d 3671 ffbd 7a13 d2bd
00000200: 9974 d33d b9b0 56bd 1481 603d 00db 803e
00000210: eaf6 ab3d d936 10bd 6c0c 7ebd 64d2 603d
00000220: 1c8c 8b3d 380d 7b3d 6041 4839 e886 5bbd
00000230: 3811 33bd 2d85 8a3e da00 57bd 3257 353d
00000240: 94a5 80bc b190 8bbd 6cf8 ccbd fe7e b63c
00000250: 68db c53c 3e3d e0bc e00a 25bc 7e0c d4bd
00000260: a05d 73bd 005e 90bb 0c53 13bd f0e7 57be
00000270: 30b8 aabd db8d 423e 96b1 e93c 17c4 32be
00000280: 4558 be3d a7ff 9cbd 6027 9b3d 10b7 24bc
00000290: a6fe 9cbd bc42 b1bd 18e7 813d 79d3 5dbc
000002a0: 0643 17bc 54a5 f5bc a4b2 f2bd 7678 e63d
000002b0: ec2d 2ebe 076d 393e b7b6 253d 7838 79be
000002c0: 96ab 573d d9e7 1d3b 7a31 d23d c429 0d3d
000002d0: 748e 91bd 2e4b d73d bc80 65bd 0a5f fdbd
000002e0: 387b a8bd 7020 653c 4c17 233d cc27 b1bd
000002f0: 5031 15bd 4038 1dbd 531f ecbd fb42 b8bd
00000300: 540c a23d a8fe fcbd 6cd0 a23c fda6 debd
00000310: c6dd eabd 50d3 53bd ec1d 4abd 2836 a73d
00000320: 488a e73d d042 99bd 3059 1fbd 93f9 57bc
00000330: 5734 ae3c 6d4c cf3d a038 bcbd dab9 93bd
00000340: f060 ccbc f679 f63d cd44 00be 6daf cdbd
00000350: 9d2c 4e3d 24c3 f9bc 809b e8bc 8065 a1bb
00000360: 5093 95bc 2a48 9c3d 6c5d 3cbd 205c f8bb
00000370: 3b42 f9bd e98e 19bd 288e 1dbd 1d04 5dbc
00000380: 9a1d cebd fb9b cfbd 0cc5 51bd d2de c73d
00000390: c4f8 d6bd 1676 debd 1863 afbc 789c d83c
000003a0: c4c3 c73d c250 cbbd 9091 883c f88c f33d
000003b0: 9882 9bbd be10 a83d 28cf c73d 9336 cebd
000003c0: 4cda 48bd 90e8 97bc 7c89 4dbd 2043 d9bb
000003d0: 1cc4 f0bd d8b4 42bd b0db 69bc 7c00 a63d
000003e0: d862 35bd da24 9fbd e899 8a3d fcdb dfbd
000003f0: cac5 d7bd 8a07 fdbd 8590 e03b c954 7f3d

bias f4 [64]
-0.1378457 -0.10744859 -0.07737016 -0.0345974 -0.098252386 -0.11893074 -0.06801811 -0.13730447
-0.053358093 -0.10598762 -0.063304424 0.0008337435 -0.050867856 -0.043736294 -0.0983589 -0.11200683
-0.03412129 0.051756833 -0.04488267 -0.052091196 0.08392971 0.03866274 0.0030475429 -0.012698398
-0.06414934 -0.1239482 -0.044967208 -0.018901464 -0.04361976 0.0354564 0.022635223 -0.050885245
-0.11661497 -0.0890503 -0.102253705 -0.04060906 -0.11025268 0.008475727 -0.07541628 -0.123033665
-0.09630133 -0.059602275 -0.1563525 -0.049022425 0.026748758 -0.034298934 -0.10314149 -0.049454913
-0.09861229 0.005098521 -0.10033095 -0.1122438 0.014168701 -0.14421019 -0.086822435 -0.08469576
-0.033167005 0.005809617 -0.05409473 -0.0087195365 -0.089349955 -0.027180418 -0.0011921029 -0.015467665
00000000: 6c27 0dbe 020e dcbd 3f74 9ebd 01b6 0dbd
00000010: 8c38 c9bd f691 f3bd 144d 8bbd 8b99 0cbe
00000020: 048e 5abd 0a10 d9bd c0a5 81bd 948f 5a3a
00000030: d05a 50bd d424 33bd 6470 c9bd d663 e5bd
00000040: c4c2 0bbd f9fe 533d e4d6 37bd 945d 55bd
00000050: 57e3 ab3d d25c 1e3d 49b9 473b f10c 50bc
00000060: bb60 83bd 8ed8 fdbd 892f 38bd 3ed7 9abc
00000070: a2aa 32bd bb3a 113d 816d b93c 0c6d 50bd
00000080: d4d3 eebd 0160 b6bd 646a d1bd b055 26bd
00000090: 28cc e1bd c7dd 0a3c da73 9abd 13f9 fbbd
000000a0: a239 c5bd 8421 74bd df1a 20be bdcb 48bd
000000b0: 3620 db3c 0a7d 0cbd d83b d3bd 3c91 4abd
000000c0: 3ef5 c9bd 7e11 a73b 507a cdbd 14e0 e5bd
000000d0: d723 683c d6ab 13be f6cf b1bd f874 adbd
000000e0: 20da 07bd 9a5e be3b 7092 5dbd 63dc 0ebc
000000f0: 1cfd b6bd 78a9 debc 5640 9cba 176c 7dbc

weight f4 [64, 64]
-0.053871624 0.108942255 -0.08448166 0.06855571 0.036550418 -0.036708176 -0.01944223 0.02534011
0.07028647 0.07932201 0.043223992 -0.014948478 0.030434266 0.08107805 0.018692687 -0.05205959
-0.113946244 -0.062722094 0.015020971 -0.110706225 0.05719148 -0.057297677 0.09069224 0.084403545
-0.061126173 -0.02699098 -0.040474027 -0.10079863 -0.09217273 -0.1118093 -0.08895148 0.084651545
-0.046080664 0.017038345 0.03239356 -0.14855102 -0.056100816 -0.026064176 0.056154013 0.09997524
0.03968188 -0.060029566 -0.03023529 -0.06668559 -0.12491177 -0.045513272 0.10849258 -0.0824786
-0.033978343 -0.08034243 0.08312899 -0.033343777 0.062066127 -0.07889135 -0.01653795 0.05860117
0.019381091 -0.05601944 0.0911106 -0.019414619 -0.10845649 0.03874345 0.0028087944 -0.04312228
0.05133838 -0.10733697 -0.142883 -0.04892546 0.023385778 0.04154505 0.04406506 -0.081286415
-0.07078542 0.11367044 -0.0014451444 -0.06993787 0.11701599 0.111812025 0.03561832 -0.08031207
-0.06625669 -0.0896334 -0.05680843 -0.03923677 0.029122077 -0.086607344 0.046242155 -0.06511428
-0.10466872 -0.120720446 0.08788851 -0.1525121 -0.04872814 -0.10772486 -0.12738742 -0.052498087
0.06386927 -0.12445113 0.0809924 -0.027087994 -0.12476945 0.117562205 0.058894366 -0.0059842467
-0.11049499 -0.087226845 -0.047096983 -0.117027655 0.0009994518 -0.03992808 -0.11850788 0.100317895
-0.037789688 -0.09556031 -0.11844064 0.057669938 -0.0689318 0.087754875 -0.019823194 -0.08060451
-0.069488525 -0.06321762 -0.026047647 -0.03887172 0.058585383 -0.0038134009 0.08286853 0.04074356
-0.15958475 0.0737278 -0.18608546 0.07874702 0.061375663 -0.08797406 -0.035873473 -0.12163964
-0.07356268 0.08087328 -0.069002375 -0.13011372 0.06568655 -0.0016856939 0.0766899 -0.039354622
-0.0037970543 -0.046251625 -0.08332268 0.123160884 -0.014896851 0.0016869615 -0.024593841 -0.13873094
-0.036041692 0.06584032 -0.12116073 0.030023055 -0.034808632 -0.058901876 0.029839417 -0.11438309
-0.054407775 -0.0049954504 0.063606024 0.057818323 -0.082065344 -0.021004725 -0.044769615 -0.041753113
-0.1171647 -0.098104194 -0.07296726 -0.077331714 0.041450545 0.05910924 -0.009446839 0.031768262
0.055763245 0.07650201 0.08421534 -0.11380224 0.009162642 -0.054005712 -0.04369907 -0.11270428
-0.03631924 -0.077041715 0.053140994 -0.07132061 0.006498456 0.112512976 -0.11698918 0.035721257
-0.08556279 0.06696154 0.005664499 0.08117357 0.10557364 0.06882118 0.10624011 -0.12210107
0.06757726 0.0046854466 -0.11115371 -0.051632088 0.0015750378 -0.04275824 -0.06167215 -0.10985251
-0.007810384 -0.08070158 0.033514462 -0.12391704 0.07136513 -0.028599974 -0.06510364 -0.012939537
0.070844024 0.060468033 -0.09772706 -0.08791308 0.04631453 -0.12146589 -0.14176679 -0.0055651367
0.038773954 0.06379496 0.04495506 0.037268557 0.023775503 0.080808975 0.08330873 0.060986653
-0.032460608 0.08182365 -0.039331347 0.009774617 0.0045448667 -0.14297448 -0.10008107 -0.028335705
0.011484072 0.053653985 -0.046118826 0.05251217 0.04368999 -0.117514506 0.06739639 -0.09172155
-0.023111284 0.027841954 -0.13608763 0.07956377 -0.080298156 0.07389149 -0.05195 0.050223842
00000000: 7ea8 5cbd 1e1d df3d b804 adbd f066 8c3d
00000010: e4b5 153d 505b 16bd 5045 9fbc 1096 cf3c
00000020: 5af2 8f3d 9473 a23d a40b 313d 76ea 74bc
00000030: 4851 f93c 400c a63d 6821 993c 703c 55bd
00000040: a65c e9bd 7174 80bd 851a 763c f2b9 e2bd
00000050: 9d41 6a3d f8b0 6abd dabc b93d c4db ac3d
00000060: 705f 7abd 301c ddbc 18c8 25bd 836f cebd
00000070: 0ec5 bcbd 46fc e4bd 322c b6bd ca5d ad3d
00000080: 14bf 3cbd 0094 8b3c 1caf 043d c21d 18be
00000090: f8c9 65bd 8a84 d5bc c001 663d d2bf cc3d
000000a0: 7889 223d 90e1 75bd 00b0 f7bc 7492 88bd
000000b0: bed1 ffbd 206c 3abd 5c31 de3d 8aea a8bd
000000c0: e02c 0bbd 928a a4bd 883f aa3d 7c93 08bd
000000d0: 0d39 7e3d ca91 a1bd 987a 87bc c807 703d
000000e0: 18c5 9e3c a474 65bd 3298 ba3d 680b 9fbc
000000f0: 701e debd 74b1 1e3d c013 383b fda0 30bd
00000100: 3148 523d 7cd3 dbbd ec4f 12be 1066 48bd
00000110: 8893 bf3c 242b 2a3d 907d 343d 7e79 a6bd
00000120: f2f7 90bd 0ccc e83d 006b bdba 963b 8fbd
00000130: 14a6 ef3d b4fd e43d 84e4 113d a87a a4bd
00000140: 96b1 87bd b791 b7bd f5af 68bd bcb6 20bd
00000150: 6c91 ee3c 315f b1bd 6a68 3d3d a35a 85bd
00000160: 8e5c d6bd 483c f7bd e4fe b33d 222c 1cbe
00000170: 2897 47bd da9e dcbd d971 02be 3c08 57bd
00000180: e4cd 823d 3ce0 febd 58df a53d a4e7 ddbc
00000190: 2087 ffbd 74c4 f03d 383b 713d 8017 c4bb
000001a0: 334b e2bd fda3 b2bd c4e8 40bd 32ac efbd
000001b0: 0a00 833a a08b 23bd 42b4 f2bd 7873 cd3d
000001c0: 5cc9 1abd 20b5 c3bd 0291 f2bd 5037 6c3d
000001d0: 1e2c 8dbd d4b8 b33d 4064 a2bc fa13 a5bd
000001e0: 0050 8ebd 3d78 81bd e061 d5bc f437 1fbd
000001f0: 3af7 6f3d 40ea 79bb fab6 a93d b8e2 263d
00000200: 2f6a 23be 9afe 963d 308d 3ebe 1e46 a13d
00000210: 0c65 7b3d be2b b4bd 10f0 12bd 341e f9bd
00000220: 08a8 96bd e4a0 a53d 1e51 8dbd 883c 05be
00000230: ac86 863d 80f2 dcba 980f 9d3d 5032 21bd
00000240: 00d8 78bb 5872 3dbd 15a5 aabd c63b fc3d
00000250: ec11 74bc 091d dd3a 0679 c9bc 7c0f 0ebe
00000260: 74a0 13bd 4ad7 863d 1e23 f8bd e9f2 f53c
00000270: 7f93 0ebd 1843 71bd cb71 f43c ae41 eabd
00000280: b0da 5ebd e0b0 a3bb e043 823d e8d2 6c3d
00000290: e011 a8bd 1a12 acbc 5860 37bd 5005 2bbd
000002a0: 0cf4 efbd daea c8bd dc6f 95bd 1760 9ebd
000002b0: 0cc8 293d 881c 723d eac6 1abc 701f 023d
000002c0: 0068 643d 16ad 9c3d 1879 ac3d 2611 e9bd
000002d0: e81e 163c 1835 5dbd ccfd 32bd 80d1 e6bd
000002e0: 7cc3 14bd 0cc8 9dbd 5faa 593d 8a10 92bd
000002f0: 00f1 d43b 346d e63d 0698 efbd 7450 123d
00000300: 8b3b afbd 2223 893d 439d b93b 543e a63d
00000310: fe36 d83d 1ef2 8c3d 6a94 d93d 2010 fabd
00000320: f265 8a3d 6088 993b 8ea4 e3bd 2b7c 53bd
00000330: 8071 ce3a 4423 2fbd f09b 7cbd 5afa e0bd
00000340: 40ee ffbb df46 a5bd 7646 093d 38c8 fdbd
00000350: e227 923d 7e4a eabc 0f55 85bd 5a00 54bc
00000360: ac16 913d 54ad 773d 2025 c8bd c60b b4bd
00000370: 4eb4 3d3d 1cc3 f8bd 502b 11be c05b b6bb
00000380: 70d1 1e3d efa6 823d cc22 383d eaa6 183d
00000390: d8c4 c23c 2d7f a53d c49d aa3d 24cd 793d
000003a0: 6af5 04bd 2893 a73d e819 21bd b725 203c
000003b0: 1bed 943b e767 12be 4ef7 ccbd 4820 e8bc
000003c0: b027 3c3c 48c4 5b3d 18e7 3cbd 0017 573d
000003d0: 46f4 323d 72ab f0bd 1e07 8a3d 82d8 bbbd
000003e0: e053 bdbc cf14 e43c 8e5a 0bbe 54f2 a23d
000003f0: 5c73 a4bd 6c54 973d 86c9 54bd 84b7 4d3d

bias f4 [64]
0.00081571005 -0.0123314345 -0.0155149065 -0.060941264 -0.060697123 -0.1318223 -0.006745763 -0.02541872
0.009163651 0.01088742 0.016710792 0.12107589 -0.11170209 0.015115657 -0.0046713524 0.018759206
-0.04446529 -0.066553086 -0.007816294 -0.018873714 -0.10961646 -0.06382269 0.0015810243 0.0029730638
-0.10095355 -0.094678536 0.041147847 0.057266343 -0.0633959 -0.012212527 0.01543592 -0.13305755
-0.06382021 -0.08289544 -0.002108453 0.09622964 -0.01688881 -0.057795182 0.0625754 -0.14139372
0.009364756 -0.07335149 -0.11841218 -0.010081158 -0.07456783 -0.0060570324 0.004477466 -0.004055406
-0.012344709 0.010517442 -0.05592356 -0.08793621 0.007381087 -0.07160334 -0.105594635 -0.058605492
-0.087520376 -0.10646404 -0.006294352 -0.025456203 0.012066292 -0.065195136 -0.06766075 -0.07129309
00000000: 60d5 553a c909 4abc 3c32 7ebc 8c9d 79bd
00000010: 8c9d 78bd 6dfc 06be 900b ddbb eb3a d0bc
00000020: 2323 163c 2661 323c 12e5 883c a3f6 f73d
00000030: 11c4 e4bd a9a7 773c 2512 99bb e8ac 993c
00000040: 3c21 36bd fc4c 88bd ea0f 00bc 0c9d 9abc
00000050: 987e e0bd 78b5 82bd 5f3a cf3a bcd7 423b
00000060: bcc0 cebd d2e6 c1bd a58a 283d 1d90 6a3d
00000070: b6d5 81bd 0d17 48bc f1e6 7c3c 3d40 08be
00000080: 2cb4 82bd 16c5 a9bd f92d 0abb 0c14 c53d
00000090: 675a 8abc a4ba 6cbd 8827 803d 84c9 10be
000000a0: a26e 193c 4e39 96bd 1682 f2bd 712b 25bc
000000b0: 05b7 98bd 127a c6bb b5b7 923b 36e3 84bb
000000c0: 7641 4abc 5951 2c3c 1a10 65bd e617 b4bd
000000d0: 0cdd f13b c6a4 92bd 0042 d8bd 500c 70bd
000000e0: e23d b3bd d209 dabd da40 cebb 8789 d0bc
000000f0: b2b1 453c 0785 85bd b891 8abd 1d02 92bd

weight f4 [64, 64]
-0.082629204 -0.030024886 0.066944376 0.055374682 -0.06136605 -0.110987335 0.10429035 0.046516567
-0.059808493 -0.014114201 0.07788814 -0.0026210926 -0.039721206 0.046076447 -0.015500186 0.10339102
-0.085400224 0.041497007 -0.111405745 -0.09875269 -0.016908899 0.001749739 0.059576347 -0.04024712
0.06465596 -0.12353855 -0.03508061 0.101633936 0.05092737 -0.08076526 0.0052219047 -0.019767433
-0.048990518 0.06365451 -0.0666312 -0.093302526 0.043421015 -0.05887176 -0.026951453 -0.06873466
-0.05507274 0.0093756765 0.08379655 0.051765874 0.105240285 -0.105835035 0.107295826 -0.08487785
0.09121789 -0.1121894 -0.117563576 0.074976414 -0.103690475 0.08755779 -0.10999291 -0.08817348
0.10269828 0.07783298 0.026960714 0.09647636 0.043104567 -0.10142359 -0.11066702 0.02519922
0.121693626 -0.08309461 0.08182117 0.10872403 0.044841632 0.10306874 -0.08809402 -0.019442016
-0.08255514 -0.04751875 0.034982428 -0.030441111 0.059574675 0.083661154 0.05824862 -0.12593742
-0.07867427 -0.062821984 0.004282713 0.10939829 0.041156664 -0.105420664 -0.12462492 -0.101671755
-0.013462231 -0.036031574 -0.12435791 0.08012337 0.010475993 0.008813987 -0.13943298 0.009108692
0.019393675 -0.044518966 -0.09832087 -0.025152592 -0.08831692 -0.071838364 -0.03654654 -0.10067027
0.059418716 -0.03917606 -0.07303287 0.111433126 0.04031075 0.015327964 -0.05146881 -0.04997635
0.0122742355 -0.10918428 0.11360225 0.07181914 0.07016981 0.07308756 -0.026979834 -0.060933188
-0.054153353 0.062170938 -0.049960602 -0.035543256 0.076334424 0.02380254 -0.013669595 0.1034037
-0.124032915 -0.024601772 0.023744956 -0.070901364 -0.13085744 0.072858974 -0.10342834 -0.020465204
-0.029563576 0.07055464 0.0066638296 0.05708718 0.01070787 -0.110667534 -0.009462978 -0.0806082
-0.1206969 0.026484773 0.037180267 0.004459972 -0.040856138 0.08398746 -0.12100439 -0.08207351
0.09945494 0.10548136 -0.020587934 -0.12192825 0.008919597 -0.055081505 -0.10118915 -0.11166811
-0.068970956 -0.039790526 0.02783811 -0.06359868 0.0024746691 0.12244581 0.105847634 -0.1306182
-0.076175526 -0.11649954 0.005189669 0.067806974 0.06574312 0.09320492 -0.028779592 -0.026045488
0.017734468 -0.08843337 0.096627474 -0.08929247 0.023993492 0.098876886 0.009150609 -0.07029936
-0.015099242 0.080284655 -0.13372518 -0.019409038 0.036432516 0.012476934 -0.008105099 0.07807949
-0.088521704 -0.044529144 0.03146373 -0.016729077 -0.048412457 0.03389196 0.07901592 -0.123253904
-0.017546948 0.09894539 -0.060092397 0.001175352 -0.0131859975 0.05954707 -0.041642644 -0.09164502
0.051298898 0.0139449835 0.023874063 0.07885956 0.019921914 0.12096807 -0.13167931 0.035873126
0.04474193 0.097834826 -0.14399165 -0.14841558 0.053041667 -0.1187021 0.053658593 0.11857213
-0.0069734217 -0.045174412 -0.09132088 -0.04768446 0.06275312 0.067502186 -0.12362228 0.019248635
0.12374321 -0.0813847 0.123557925 0.07395344 -0.069084845 -0.01601075 -0.0019563425 -0.035569374
0.05984603 0.06277982 -0.029090345 -0.010559082 -0.07693855 0.06835021 -0.06404577 -0.09801409
0.11495298 0.11794223 -0.0024305165 0.0521436 0.10874133 -0.046693627 -0.031386506 0.02042279
00000000: 8039 a9bd c0f6 f5bc 221a 893d 90d0 623d
00000010: f85a 7bbd 544d e3bd 2e96 d53d 2888 3e3d
00000020: c0f9 74bd 403f 67bc d183 9f3d a3c6 2bbb
00000030: b4b2 22bd a8ba 3c3d 7ef4 7dbc acbe d33d
00000040: 50e6 aebd c4f8 293d b228 e4bd da3e cabd
00000050: 8884 8abc 8057 e53a 5406 743d 2ada 24bd
00000060: 586a 843d c801 fdbd b0b0 0fbd 7425 d03d
00000070: 3899 503d 4268 a5bd 831c ab3b 50ef a1bc
00000080: 48aa 48bd 4c5d 823d f075 88bd 6515 bfbd
00000090: 3cda 313d 8423 71bd 4bc9 dcbc c2c4 8cbd
000000a0: f493 61bd 709c 193c 879d ab3d 7408 543d
000000b0: 3888 d73d 0ac0 d8bd eabd db3d 70d4 adbd
000000c0: 72d0 ba3d 8ec3 e5bd 2cc5 f0bd 3c8d 993d
000000d0: ac5b d4bd 8051 b33d f643 e1bd 4c94 b4bd
000000e0: 7a53 d23d e666 9f3d b7dc dc3c 6695 c53d
000000f0: 6a8e 303d 2cb7 cfbd 64a5 e2bd 986e ce3c
00000100: 823a f93d 822d aabd dc91 a73d b4aa de3d
00000110: dcab 373d b415 d33d a36a b4bd dd44 9fbc
00000120: ab12 a9bd 05a3 42bd bc49 0f3d a35f f9bc
00000130: 9304 743d 8a56 ab3d 1b96 6e3d bdf5 00be
00000140: fa1f a1bd d0a8 80bd 0056 8c3b 360c e03d
00000150: e493 283d cae6 d7bd 5a3b ffbd 4839 d0bd
00000160: b090 5cbc d895 13bd 5caf febd b917 a43d
00000170: 80a3 2b3c 8a68 103c 85c7 0ebe a03c 153c
00000180: 7cdf 9e3c 8559 36bd 745c c9bd cf0c cebc
00000190: 80df b4bd fe1f 93bd d3b1 15bd 372c cebd
000001a0: 0a61 733d 1477 20bd 4292 95bd 0d37 e43d
000001b0: e31c 253d 2422 7b3c f5d0 52bd 00b4 4cbd
000001c0: e019 493c 029c dfbd 4ca8 e83d ea15 933d
000001d0: 30b5 8f3d eeae 953d d004 ddbc 1495 79bd
000001e0: e8cf 5dbd f4a6 7e3d 7da3 4cbd ce95 11bd
000001f0: 3955 9c3d 8bfd c23c 70f6 5fbc 52c5 d33d
00000200: f804 febd a889 c9bc c884 c23c bc34 91bd
00000210: 7eff 05be 1637 953d 3dd2 d3bd a5a6 a7bc
00000220: 502f f2bc f37e 903d 415c da3b 3fd4 693d
00000230: 1070 2f3c a9a5 e2bd 9b0a 1bbc e915 a5bd
00000240: f02f f7bd 98f6 d83c 564a 183d f524 923b
00000250: c458 27bd 9e01 ac3d 26d1 f7bd 2816 a8bd
00000260: 08af cb3d 9c06 d83d 07a8 a8bc 85b5 f9bd
00000270: 8023 123c 259d 61bd 423c cfbd 40b2 e4bd
00000280: a540 8dbd 64fb 22bd c00c e43c 0640 82bd
00000290: 0f2e 223b dec4 fa3d a5c6 d83d c7c0 05be
000002a0: ea01 9cbd 5097 eebd 190e aa3b 62de 8a3d
000002b0: 54a4 863d 39e2 be3d 2ec3 ebbc 595d d5bc
000002c0: e047 913c 8e1c b5bd a0e4 c53d f8de b6bd
000002d0: 008e c43c f77f ca3d 70ec 153c 1cf9 8fbd
000002e0: d062 77bc 486c a43d 41ef 08be b4ff 9ebc
000002f0: 433a 153d 0e6c 4c3c 40cb 04bc 24e8 9f3d
00000300: de4a b5bd 3164 36bd 1de0 003d 6b0b 89bc
00000310: 244c 46bd 4cd2 0a3d 19d3 a13d 8b6c fcbd
00000320: 9ebe 8fbc e1a3 ca3d 7223 76bd 450e 9a3a
00000330: 150a 58bc a1e7 733d 7a91 2abd 62b0 bbbd
00000340: cb1e 523d 8079 643c 8a93 c33c 1f81 a13d
00000350: 4833 a33c 1cbe f73d f1d6 06be b3ef 123d
00000360: 5043 373d a05d c83d 8c72 13be 41fa 17be
00000370: 3842 593d 161a f3bd 1dc9 5b3d f2d5 f23d
00000380: 4d81 e4bb ce08 39bd 7106 bbbd c850 43bd
00000390: b584 803d 963e 8a3d ae2d fdbd 50af 9d3c
000003a0: 156d fd3d 06ad a6bd f00b fd3d e774 973d
000003b0: 5b7c 8dbd fa28 83bc fb35 00bb 31b1 11bd
000003c0: 1c21 753d b592 803d e04e eebc 0000 2dbc
000003d0: f591 9dbd 32fb 8b3d 6e2a 83bd 9cbb c8bd
000003e0: 786c eb3d b28b f13d 4d49 1fbb 8794 553d
000003f0: c6b3 de3d d141 3fbd 238f 00bd b24d a73c

bias f4 [64]
-0.0401516 -0.034711424 -0.025273725 -0.019869935 -0.016038088 -0.10262217 -0.13946316 0.17112355
0.010475343 -0.006010802 0.0027329973 -0.02987946 -0.10528966 -0.06004361 -0.12472238 -0.013414448
0.0016912175 -0.013339711 -0.13182692 -0.10771883 -0.015672151 0.0076355846 -0.025132062 -0.1896526
0.10906339 -0.02617918 -0.042135824 -0.0054946044 -0.1139 -0.11370762 -0.07533622 -0.009677436
-0.010959921 -0.07567972 -0.15619253 -0.0017424371 -0.04341555 0.013547195 -0.12046313 -0.06910753
-0.1221641 -0.028493678 0.0036868283 0.21264362 0.004191966 -0.033318255 -0.0391832 -0.037988536
0.0056580766 -0.057417005 0.03628798 -0.048719317 -0.08013578 -0.015240189 -0.10663404 -0.06704949
-0.01331758 0.027323138 -0.058569655 -0.15604319 0.019428384 0.018995512 0.015110305 -0.013022367
00000000: 0176 24bd 912d 0ebd d80a cfbc 46c6 a2bc
00000010: 4f62 83bc 922b d2bd 6ecf 0ebe 033b 2f3e
00000020: c6a0 2b3c 43f6 c4bb 161c 333b c5c5 f4bc
00000030: 1ba2 d7bd 4af0 75bd 726e ffbd 46c8 5bbc
00000040: d8ab dd3a ce8e 5abc a3fd 06be b19b dcbd
00000050: e262 80bc ed33 fa3b c1e1 cdbc 4b34 42be
00000060: a05c df3d b875 d6bc 9d96 2cbd 150c b4bb
00000070: 6744 e9bd 8adf e8bd e049 9abd 1c8e 1ebc
00000080: 3e91 33bc f8fd 9abd eff0 1fbe 7d62 e4ba
00000090: 81d4 31bd 0ef5 5d3c 60b5 f6bd 4088 8dbd
000000a0: 2c31 fabd 936b e9bc b79e 713b 40bf 593e
000000b0: c25c 893b b978 08bd 907e 20bd de99 1bbd
000000c0: 6367 b93b 182e 6bbd b4a2 143d e88d 47bd
000000d0: 3a1e a4bd fcb1 79bc f362 dabd 3e51 89bd
000000e0: fb31 5abc c6d4 df3c bce6 6fbd c9c9 1fbe
000000f0: 4628 9f3c 7a9c 9b3c 3691 773c c45b 55bc

weight f4 [64, 64]
0.052582197 0.020130655 -0.13713291 0.010759689 -0.22435695 0.10749382 0.04295891 -0.16988492
-0.038181633 0.006927006 0.027947905 -0.06363123 -0.02113472 -0.08750206 -0.11084527 -0.044982996
0.0032774194 0.07340544 0.03704257 -0.1724491 0.07247977 -0.04574236 -0.025350466 0.05998856
-0.13811347 0.038322706 0.035444424 -0.10163212 0.04229138 0.034888174 0.0018164476 0.034266207
0.109204195 0.0117928535 0.019121055 0.035763394 0.027298747 -0.054070555 0.11745517 -0.016064942
0.024513919 0.032090936 0.0450124 0.0044470876 -0.031233957 0.03340413 0.10499665 0.009779517
0.06592807 0.10054156 -0.053609036 0.0075633526 -0.10274997 -0.03687831 -0.03276399 0.1078859
0.09811634 -0.14584605 -0.0073606074 -0.064727865 0.0008385611 -0.15738072 0.08870318 0.015795927
0.0006256486 -0.06445345 -0.07951441 0.08462738 0.08010526 -0.07356392 0.0568202 -0.05157484
0.031162977 -0.1421351 -0.08855709 0.09964593 0.007961126 -0.096616685 -0.07730621 0.027562324
0.0062214723 -0.09951604 0.029553404 -0.022806812 0.0698456 0.026094368 -0.0027045803 -0.08884259
0.103383854 -0.08993201 -0.092199385 -0.02154028 0.1161387 0.036049712 0.091579586 -0.10771609
-0.03667745 0.10582703 0.12100659 -0.05454652 -0.056793272 0.02528225 -0.11595784 -0.090900496
0.006691613 0.07222244 -0.1159598 0.050052658 0.0562381 0.09778142 -0.015398801 -0.085760996
-0.0586456 -0.0031269193 0.06335746 0.1150293 0.10406676 -0.15594609 -0.17326652 -0.058385372
0.005554066 -0.029327003 0.09032099 0.054261494 -0.06514143 -0.07992402 0.09883764 -0.059770994
0.08718466 0.04828243 -0.043469384 0.0820737 -0.05847126 0.091306195 -0.059703253 0.03589241
-0.0054477565 -0.09041102 0.09645937 -0.02237004 0.025891498 -0.079228505 0.084376276 -0.0067291553
0.022901729 -0.09066156 0.11669077 0.012075421 0.07510632 -0.099293515 0.103942946 0.056259602
0.06526037 0.02605943 0.054657206 -0.1147646 -0.09336129 -0.09484665 -0.086744174 0.032757815
-0.052423056 -0.11449017 0.014256775 -0.124197386 -0.11002703 0.050835915 0.06274222 0.07679576
-0.028535709 -0.049009353 0.018502915 0.06672179 -0.055604696 -0.082848504 0.015471324 0.013688266
0.1047796 -0.07317859 0.07947525 -0.019242406 -0.07800016 -0.0061918884 0.029105997 -0.123058945
0.006245598 -0.1166588 0.05309619 0.087509945 0.080368504 0.119008675 -0.11817272 0.014523987
-0.11364339 0.10583257 0.063220814 -0.048814386 0.11877233 0.05592318 -0.01408723 -0.061677083
-0.088635355 0.06921248 -0.082957625 -0.029911995 -0.13825513 0.027012214 -0.061385036 0.023527801
-0.06372073 0.07621859 -0.0014225096 0.04128413 -0.08522758 -0.03011088 0.00020803511 0.10301805
0.020594731 0.0630952 0.03274317 -0.04419963 0.06899236 0.10595214 -0.007303357 0.024623439
-0.10536555 0.045051098 -0.124071285 0.084071755 -0.09645933 -0.057349503 0.023038924 0.029692948
0.09242825 -0.12401411 0.03695953 -0.05519861 0.014773279 0.017413616 -0.05188644 0.012517914
-0.090819314 -0.027596265 -0.046389073 -0.0698417 -0.098630786 -0.0719188 0.041791126 0.10059023
-0.09521614 0.080655456 -0.12286489 -0.033246055 0.08047703 0.031346723 0.10496469 -0.03116265
00000000: 6e60 573d 0be9 a43c 926c 0cbe 6849 303c
00000010: d4bd 65be b825 dc3d aff5 2f3d 50f6 2dbe
00000020: 5864 1cbd f0fb e23b 01f3 e43c 1751 82bd
00000030: b822 adbc 4834 b3bd d802 e3bd 1740 38bd
00000040: f9c9 563b 9755 963d f3b9 173d 7f96 30be
00000050: 4670 943d 575c 3bbd c8ab cfbc 90b6 753d
00000060: 9e6d 0dbe 45f8 1c3d 2c2e 113d 8024 d0bd
00000070: ba39 2d3d e7e6 0e3d de15 ee3a b95a 0c3d
00000080: 73a6 df3d d036 413c c2a3 9c3c a37c 123d
00000090: 9fa1 df3c 1679 5dbd 568c f03d a09a 83bc
000000a0: 6ad1 c83c c971 033d ec5e 383d e0b8 913b
000000b0: 5bde ffbc c5d2 083d 7c08 d73d 443a 203c
000000c0: 4c05 873d bce8 cd3d 2695 5bbd 00d6 f73b
000000d0: 946e d2bd b60d 17bd 8933 06bd 48f3 dc3d
000000e0: 38f1 c83d ab58 15be 4031 f1bb 0b90 84bd
000000f0: e2d2 5b3a 6928 21be 03aa b53d 7666 813c
00000100: 9102 243a 2c00 84bd 73d8 a2bd 1f51 ad3d
00000110: 3a0e a43d aea8 96bd 4cbc 683d 2440 53bd
00000120: 8049 ff3c dd8b 11be 6b5d b5bd 2a13 cc3d
00000130: 626f 023c f8de c5bd b852 9ebd 62ca e13c
00000140: 7edd cb3b 11cf cbbd fb19 f23c 5ad5 babc
00000150: 360b 8f3d dbc3 d53c 543f 31bb 1bf3 b5bd
00000160: eaba d33d 462e b8bd 08d3 bcbd 3e75 b0bc
00000170: 20da ed3d dda8 133d 148e bb3d 419a dcbd
00000180: 183b 16bd d8bb d83d 4ed2 f73d 2c6c 5fbd
00000190: 10a0 68bd b91c cf3c 4e7b edbd 0a2a babd
000001a0: 5145 db3b 5ce9 933d 557c edbd 0404 4d3d
000001b0: ec59 663d a041 c83d 414b 7cbc 76a3 afbd
000001c0: 5e36 70bd 00ed 4cbb 8ec1 813d 7b94 eb3d
000001d0: f420 d53d 55b0 1fbe c76c 31be 8025 6fbd
000001e0: e2fe b53b 2f3f f0bc 36fa b83d 4d41 5e3d
000001f0: df68 85bd 34af a3bd 636b ca3d 6ed2 74bd
00000200: df8d b23d ccc3 453d f40c 32bd 4216 a83d
00000210: 8f7f 6fbd befe ba3d 668b 74bd eb03 133d
00000220: 1883 b2bb 6a29 b9bd 7d8c c53d 6041 b7bc
00000230: 681a d43c 8e42 a2bd 78cd ac3d 3f80 dcbb
00000240: 689c bb3c c5ac b9bd 92fb ee3d fdd7 453c
00000250: 58d1 993d 665a cbbd 0ae0 d43d 7870 663d
00000260: 3ba7 853d 967a d53c 3ce0 5f3d b409 ebbd
00000270: 3434 bfbd f63e c2bd eea6 b1bd 0f2d 063d
00000280: 8fb9 56bd d279 eabd 4095 693c 335b febd
00000290: da55 e1bd 5239 503d fe7e 803d 1847 9d3d
000002a0: b8c3 e9bc 08be 48bd 6d93 973c 6fa5 883d
000002b0: c0c1 63bd 7aac a9bd 707b 7d3c c044 603c
000002c0: b096 d63d a8de 95bd ebc3 a23d 40a2 9dbc
000002d0: 8cbe 9fbd 53e5 cabb b36f ee3c 5406 fcbd
000002e0: e0a7 cc3b cfea eebd 647b 593d 6a38 b33d
000002f0: 3e98 a43d d2ba f33d 8a04 f2bd 04f6 6d3c
00000300: debd e8bd bfbe d83d ea79 813d 98f1 47bd
00000310: e83e f33d b40f 653d 20ce 66bc 1ca1 7cbd
00000320: 7486 b5bd 46bf 8d3d b0e5 a9bd 000a f5bc
00000330: c192 0dbe b848 dd3c e06e 7bbd 60bd c03c
00000340: 0480 82bd 7e18 9c3d 8073 baba 8c19 293d
00000350: cc8b aebd 18ab f6bc 0024 5a39 21fb d23d
00000360: 48b6 a83c 0e38 813d b41d 063d ac0a 35bd
00000370: de4b 8d3d 70fd d83d 0051 efbb 18b7 c93c
00000380: e5c9 d7bd 8087 383d 1619 febd d02d ac3d
00000390: 788c c5bd 50e7 6abd 20bc bc3c a03e f33c
000003a0: 064b bd3d 1cfb fdbd e062 173d f017 62bd
000003b0: a00b 723c 00a7 8e3c e086 54bd f017 4d3c
000003c0: 7aff b9bd 9011 e2bc 7802 3ebd 2a09 8fbd
000003d0: f0fe c9bd 2a4a 93bd 2c2d 2b3d 4002 ce3d
000003e0: ae00 c3bd b02e a53d 96a0 fbbd 042d 08bd
000003f0: 24d1 a43d 6c65 003d baf7 d63d d048 ffbc

bias f4 [64]
0.00054393505 -0.031610902 -0.14963335 -0.060535863 0.0004891122 -0.023068361 -0.09362578 -0.0048683546
0.06569687 0.09658834 -0.010229402 -0.013779446 -0.09330854 -0.08215527 -0.072044045 -0.10355173
-0.019537171 -0.074287735 -0.0666264 -0.0367255 -0.10622125 -0.0059256037 0.20790939 0.20356937
0.052064173 -0.009504097 -0.0579568 -0.06852921 -0.09157791 0.04657121 0.0045626494 -0.1507781
-0.06470835 -0.00026238995 -0.124472246 -0.1403442 -0.103772715 -0.10288225 -0.00032152445 -0.14506143
0.21347296 -0.082263775 -0.023206517 -0.01017274 -0.08721976 -0.07678458 -0.018545061 -0.10132968
-0.1289801 -0.03220467 -0.0031398355 -0.009883433 -0.12078403 -0.04223183 -0.11335264 0.29429394
-0.021296337 -0.01903553 -0.12931418 -0.04824033 0.16997741 -0.1585023 -0.06550254 0.004541852
00000000: dd96 0e3a 6f7a 01bd 7c39 19be 74f4 77bd
00000010: c437 003a dcf9 bcbc dfbe bfbd b886 9fbb
00000020: 158c 863d 1cd0 c53d 3999 27bc 2fc3 61bc
00000030: 8c18 bfbd 0641 a8bd d48b 93bd ee12 d4bd
00000040: 6b0c a0bc 2b24 98bd 6c73 88bd 7a6d 16bd
00000050: 878a d9bd 912b c2bb 33e6 543e 7d74 503e
00000060: 3e41 553d 12b7 1bbc 1c64 6dbd 0b59 8cbd
00000070: 338d bbbd 74c1 3e3d 4782 953b 9365 1abe
00000080: d085 84bd 6291 89b9 4eeb febd 64b6 0fbe
00000090: ca86 d4bd eeb3 d2bd 4892 a8b9 fc8a 14be
000000a0: a898 5a3e e979 a8bd 981b bebc 90ab 26bc
000000b0: 46a0 b2bd 3c41 9dbd d0eb 97bc ef85 cfbd
000000c0: 5c13 04be 0be9 03bd b3c5 4dbb 1fee 21bc
000000d0: 9e5d f7bd 49fb 2cbd 6e25 e8bd b2ad 963e
000000e0: a875 aebc 66f0 9bbc f06a 04be a797 45bd
000000f0: 8f0e 2e3e 6d4e 22be 3226 86bd d1d3 943b

weight f4 [1, 64]
-0.0003290624 -0.00535112 -0.042432964 0.0011428363 0.0020639799 -0.07685723 0.054207765 0.005697334
-0.040561132 -0.13978207 -0.006074401 0.0023320604 -0.024831131 -0.067417845 0.022835761 -0.056612536
-0.0009309873 0.004242025 -0.013340751 -0.014043616 -0.02477101 -0.016597515 0.14281526 0.15392908
-0.12444132 -0.0014781521 0.05203505 0.016015844 0.017595744 -0.09530099 -0.005238641 -0.039665326
-0.032851893 0.0007859015 -0.016518267 0.03825239 -0.0782703 -0.003103744 -0.003460814 0.0026136343
0.17926249 -0.08470735 0.04024463 0.025494248 -0.09755839 -0.08295311 -0.09425418 -0.0378756
-0.08337495 0.030941451 0.00080328423 -0.0040666033 -0.10113707 -0.05275734 0.003269583 0.21156871
0.06793259 -8.270566e-05 -0.026183642 -0.029303724 0.16830161 0.0012568011 0.11736609 0.001294893
00000000: 0286 acb9 7358 afbb 30ce 2dbd 39cb 953a
00000010: d643 073b 5367 9dbd f608 5e3d b4b0 ba3b
00000020: 6e23 26bd 0823 0fbe c50b c7bb 7bd5 183b
00000030: a86a cbbc 5e12 8abd 1012 bb3c 8ce2 67bd
00000040: 800d 74ba af00 8b3b 2a93 5abc 3217 66bc
00000050: 93ec cabc 83f7 87bc 2a3e 123e 969f 1d3e
00000060: 17db febd 8ebe c1ba b422 553d a933 833c
00000070: f324 903c 2a2d c3bd e8a8 abbb 1c78 22bd
00000080: b58f 06bd f504 4e3a 5151 87bc 8aae 1c3d
00000090: 2e4c a0bd 2f68 4bbb d3ce 62bb 8249 2b3b
000000a0: 9690 373e 0c7b adbd 8ed7 243d 50d9 d03c
000000b0: b1cc c7bd 52e3 a9bd 5608 c1bd 7223 1bbd
000000c0: 7cc0 aabd ed78 fd3c 7e93 523a 2441 85bb
000000d0: f420 cfbd 1518 58bd 8046 563b 78a5 583e
000000e0: 3e20 8b3d 4372 adb8 147f d6bc 5d0e f0bc
000000f0: 4257 2c3e 3fbb a43a a25d f03d 66b9 a93a
