snapshots/model.pt (torch, 341370 bytes, 13 tensors)

weight f4 [128, 4]
000000 f7 0e 2a 3e 5e 59 99 3e 09 12 1d 3e 45 48 a3 3e
       0.16607271 0.29950994 0.15338911 0.31891075
000010 6c b1 fd bd 20 40 ef 3e e8 99 f9 3d ee f5 10 bf
       -0.12387356 0.4672861 0.121875584 -0.5662526
000020 80 6f 99 3d f6 a6 4b be 6e c8 00 bf e4 d7 f7 be
       0.0749197 -0.1988791 -0.5030583 -0.484069
000030 ff 57 34 bf 86 58 d2 be a5 f8 d0 3e 57 ab ed 3d
       -0.7044677 -0.41083163 0.408147 0.11604946
000040 40 a8 98 3d f6 ef 83 be a0 6c 73 bd 00 5f a3 3d
       0.07453966 -0.25769013 -0.059429765 0.07977104
000050 39 11 ad be f7 b7 b6 3e 45 60 a1 3d 41 8c 37 bf
       -0.33802202 0.3568723 0.0787969 -0.71698385
000060 40 5d d5 3d 83 cd 19 be 09 62 59 be 7b d1 83 3e
       0.10418177 -0.15019803 -0.21228804 0.25745758
000070 04 e5 19 3e 70 8c df be 70 41 c9 bd b0 49 29 3e
       0.15028769 -0.43661833 -0.09826934 0.16532016
000080 aa 8e 10 3f 4e 07 95 be 85 57 39 bf c7 73 da bf
       0.5646769 -0.29107136 -0.7239917 -1.7066582
000090 12 31 02 bf eb 48 43 be b5 6d 0c 3e 34 c3 a0 3d
       -0.50856125 -0.19070785 0.13713725 0.07849732
0000a0 5a 02 9c be 20 cd c1 bc b6 82 ba be d0 19 a3 bd
       -0.30470544 -0.023657382 -0.3642785 -0.07963908
0000b0 e8 4f c9 3d 9c d6 ea be 82 4d 97 be 90 c8 50 bd
       0.09829694 -0.4586686 -0.2955132 -0.05097252
0000c0 1f c3 eb 3e 3e b5 84 3d 3a 0a 52 be 03 66 19 bf
       0.46047303 0.06479882 -0.20511714 -0.5992128
0000d0 50 00 65 3d 80 46 21 3c 08 85 29 3e d8 f0 af bd
       0.0559085 0.009843469 0.16554654 -0.08590859
0000e0 36 e9 a6 be 0d f7 1e be 04 17 d2 3e c7 a1 cd be
       -0.325998 -0.1552393 0.41033185 -0.4016249
0000f0 68 af bb be 30 e3 4c 3e 4a 7d 92 3e 30 b5 da 3d
       -0.36657262 0.2000854 0.28611213 0.1067909
000100 54 38 c1 3e 92 ac 05 3f 60 51 7d 3e 94 7b c0 3e
       0.37738287 0.52216446 0.24738073 0.37594283
000110 06 11 2b 3d 9d 91 a6 bc ce 82 ea 3c 03 95 b5 be
       0.04176428 -0.020333106 0.028626826 -0.3546525
000120 18 5b f5 bd c0 e3 ac 3e 28 a8 e3 3e 9e 05 cf be
       -0.119802654 0.3376751 0.4446423 -0.40433973
000130 fc 1b 11 be ee a3 89 3e c0 18 cd be c4 3b e0 be
       -0.14170831 0.2688288 -0.40057945 -0.43795598
000140 fc 15 03 3e 38 1d ac 3d 40 1c 06 3e f8 d3 15 3e
       0.12801355 0.084040105 0.13096714 0.14631641
000150 06 02 ac 3f 75 fe 2e bf fc ab 2d c0 6e e1 a0 c0
       1.3438118 -0.6835702 -2.713622 -5.0275183
000160 50 70 b0 be 84 00 a5 be 1c 9b 4e be 36 a4 86 be
       -0.34460688 -0.32226956 -0.20176357 -0.26297158
000170 54 06 7d 3e e0 b2 eb 3c 5c f5 ce be e0 76 dc bd
       0.24709445 0.028771818 -0.4042157 -0.10764861
000180 34 d4 c6 3e 4c b3 0d be 00 24 21 3a 48 3f b7 be
       0.38833773 -0.13837928 0.0006147027 -0.35790467
000190 7d 71 32 3e 4d ee b7 be 81 1c 25 be 81 d7 ca 3e
       0.17426105 -0.35923997 -0.16124155 0.3961754
0001a0 6b 25 12 3e 36 ee c4 be af 8c 55 3e 1d 17 1a 3e
       0.14272086 -0.3846299 0.20854448 0.1504788
0001b0 a0 e5 ca 3c 58 ee db be b8 ed fe bd 00 d3 b6 bd
       0.024767697 -0.4295528 -0.12447685 -0.08926964
0001c0 8e d1 98 be 3c 91 3b 3e 88 a2 da be d8 a8 a6 3d
       -0.29847378 0.18317121 -0.42702127 0.08137673
0001d0 30 9c 01 bd a8 29 14 be dc 10 43 3e fe eb f3 be
       -0.031643093 -0.14469016 0.190494 -0.47640985
0001e0 69 a3 ac be d0 0f 96 be 2d 4f 4f 3c 10 ab bc 3d
       -0.33718422 -0.2930894 0.012653154 0.09212315
0001f0 3f 38 a2 3e 77 8e 0c be 5c c5 ff be d0 06 27 bf
       0.31683537 -0.13726221 -0.4995526 -0.6524477
000200 f7 d1 f6 bc b2 92 99 be b4 80 b3 bc c0 53 38 bf
       -0.030129416 -0.29994732 -0.021911956 -0.7200279
000210 a2 d8 52 be 0b 12 29 3e f9 f7 d5 be 67 5f be 3e
       -0.20590451 0.16510789 -0.4179075 0.3718216
000220 73 de 07 bf b4 50 91 be ee 88 b8 3e 95 c5 2e 3f
       -0.53073806 -0.28381884 0.3604197 0.68270236
000230 05 b4 5d 3e e4 ac 01 3e 24 94 c1 3d 9f 6f 01 bf
       0.21650703 0.12663609 0.09452084 -0.50560945
000240 50 34 ee 3d ec 68 ac be fe 2a bc be 18 e5 f8 be
       0.116310716 -0.336738 -0.3675155 -0.48612285
000250 3f 7f 1d bf 72 1e a2 be db 77 07 3d 65 1c ef 3e
       -0.6152229 -0.31663853 0.033073287 0.4670135
000260 a0 3f 46 3e 5c 7c 5e be ae e6 c8 3e e0 75 b0 3c
       0.19360209 -0.21727127 0.39238495 0.021540582
000270 cf b7 1d 3f 9c e1 d7 3d 42 0f 67 be f8 17 1c bf
       0.61608595 0.105410784 -0.22564414 -0.60974073
000280 44 de a9 3e 80 76 15 bd 10 cb 20 3e 14 9b 9d be
       0.33177388 -0.036489964 0.15702462 -0.30782378
000290 fb 52 b6 be 78 d2 57 3e 62 90 56 3d b6 6f 0a 3d
       -0.35610184 0.21076381 0.052383788 0.033797942
0002a0 4b 06 0c 3f 06 57 d5 3e d9 1e 06 bf 74 04 02 bf
       0.546971 0.41667956 -0.5239082 -0.50788045
0002b0 a0 84 6b 3d 96 e4 a5 3e 44 14 85 be 8a 79 c8 3e
       0.057499528 0.3240096 -0.25992024 0.39155227
0002c0 cb 1f 6f 3e f0 db 12 3e 77 8d 3b bd 6f 79 8f be
       0.23351972 0.14341712 -0.04578921 -0.28022334
0002d0 9a 0c 37 bf 1c 63 3b be 94 6e 78 3e 5d 42 bd 3e
       -0.71503603 -0.18299526 0.24260932 0.36964694
0002e0 e5 6b 2d bf 7d 2c 02 bf e1 1d 06 3f d4 65 b7 3e
       -0.6774276 -0.50849134 0.5238934 0.35819876
0002f0 7c c0 9c 3e fc 57 d7 be 70 98 7d 3e 4c f0 1e be
       0.30615604 -0.42059314 0.24765182 -0.15521353
000300 a2 aa de 3e 80 75 93 bc 1c 07 3e be 3c 2e 3d 3e
       0.43489558 -0.018000364 -0.185574 0.18474668
000310 98 a6 cc 3d 50 57 36 be 80 7f 00 3e be 5e a0 be
       0.09992713 -0.17806745 0.12548637 -0.31322283
000320 60 38 ce 3d 10 da 0e bd 28 44 76 be dc 46 8b be
       0.100693464 -0.03487593 -0.24049437 -0.272025
000330 68 e1 6c be 58 84 f3 bd 9e c3 f1 be 66 da a8 3e
       -0.2313286 -0.11890477 -0.47219557 0.32979125
000340 e3 2f 39 be 3b 99 cd be 8f 6c 2b be 84 3f bf 3e
       -0.18084674 -0.40155968 -0.1674063 0.37353146
000350 72 4d d8 3e f0 22 9c bd 40 19 b6 bd ac 72 02 be
       0.42246586 -0.07623851 -0.08891535 -0.12739056
000360 35 b0 8f 3e d9 56 16 bf 9d 61 28 bd 0c ec 24 3e
       0.28064123 -0.5872627 -0.041108716 0.1610567
000370 40 ac 57 bc 40 6e 18 be e0 77 b0 be 78 99 cc 3d
       -0.013163626 -0.14885807 -0.34466457 0.09990209
000380 bc a6 27 bf 5b 4a fd bd 1f 7b 46 3e 9f 6a a1 3e
       -0.6548879 -0.12367698 0.19382904 0.31526658
000390 f9 38 95 be d5 e8 6b be 01 d5 3d bd 65 1f 98 bd
       -0.2914503 -0.23038037 -0.046345714 -0.07427863
0003a0 a2 e0 dd 3e 7a 19 ef be 70 b0 7b 3d 90 5b de 3d
       0.43335444 -0.46699125 0.06144756 0.10857308
0003b0 73 04 99 be a2 36 f4 bc ba 58 b0 3e a6 68 b8 3d
       -0.29886207 -0.029811207 0.34442693 0.09004335
0003c0 82 01 ab 3e ec 2d 30 3e d1 a6 0b bf 4d 78 52 bf
       0.33399588 0.17205018 -0.54551417 -0.82214814
0003d0 b0 12 4c 3d ac 69 8a be 00 db 50 be e6 00 ba be
       0.04982251 -0.27033746 -0.20396042 -0.3632881
0003e0 c7 ad 08 3f be 06 bd 3e b5 a1 76 be 35 7e 3c bf
       0.53390163 0.36919206 -0.24085124 -0.73630077
0003f0 10 df 9c bd c8 2d b8 bd 00 6f 9a 3c 98 75 d3 3e
       -0.07659733 -0.08993107 0.018851757 0.41300654

bias f4 [128]
000000 78 5c a3 be b0 51 d9 b8 7b 84 c4 3e 6c 36 24 bb
       -0.31906486 -0.00010362582 0.38382325 -0.0025056852
000010 40 48 8e bc ff f0 5b bb 93 62 1e bc 22 fc 8f be
       -0.017368436 -0.0033560393 -0.009667057 -0.2812205
000020 41 73 3e 3e 5c 63 1f b9 72 60 a9 be 48 16 15 be
       0.18598653 -0.00015200436 -0.33081394 -0.14559281
000030 89 2e 18 3e 3c 3b 4a be bc 4d 84 35 e6 d6 e1 be
       0.14861502 -0.19749159 9.85739e-07 -0.44109267
000040 ad c3 fc be 5d ab 80 ba f9 88 a8 bd f0 b8 7b bd
       -0.4936804 -0.0009816695 -0.082292505 -0.061455667
000050 58 c8 99 be fc 94 5d 3e 84 88 fa be 00 e5 93 bc
       -0.30035663 0.21638864 -0.48932278 -0.018053532
000060 34 94 14 be 61 64 e8 bc 17 3b 42 bd 20 8a af be
       -0.1450966 -0.028368177 -0.047419634 -0.3428507
000070 8e 25 aa be 00 46 7f bb 83 0f 71 b7 92 21 8d 3e
       -0.33231777 -0.0038951635 -1.4368331e-05 0.27564675
000080 b3 be bc 3e f0 20 2e bc ae a1 2c 3b 51 02 93 b8
       0.36864242 -0.01062797 0.0026341486 -7.009938e-05
000090 80 47 e9 be 86 44 68 bb 94 33 d4 be b4 d2 ff 3d
       -0.45562363 -0.0035441234 -0.414456 0.1249136
0000a0 8a c4 ec be 62 ef 73 bb 7b 08 c6 3d d2 65 e7 be
       -0.46243697 -0.003722154 0.09669586 -0.4519487
0000b0 05 12 94 bb 98 47 3a bc 92 c1 98 bc 0e 19 d5 be
       -0.0045187497 -0.011369608 -0.018646989 -0.41620678
0000c0 90 6f c3 be a0 69 31 be 48 42 8b bd 40 ea de bd
       -0.38171053 -0.17325449 -0.067997515 -0.108845234
0000d0 f4 b2 34 bc 3c 12 49 be bd 77 17 b9 ac 5f 4c be
       -0.011028994 -0.19635862 -0.00014445088 -0.19958371
0000e0 15 18 d1 bb 29 ae 4b ba 00 12 69 be 41 9b 76 bd
       -0.0063810446 -0.00077697873 -0.22760773 -0.060206655
0000f0 a8 58 c6 3d ee b5 99 be 81 16 e9 3c 04 fa ea be
       0.096848786 -0.30021614 0.028453114 -0.45893872
000100 74 6b 59 be 05 b1 9c 3e bd e1 f4 3d 0c a9 d7 be
       -0.21232396 0.30603805 0.11957119 -0.4212116
000110 13 86 f1 b9 d7 ed b1 be 26 0d d1 ba b6 ac 00 bc
       -0.00046066995 -0.3475177 -0.0015949353 -0.0078536775
000120 a3 af a0 bb 88 01 cc be 48 74 bf be b5 bd a5 bd
       -0.00490375 -0.39844918 -0.37393403 -0.08092824
000130 5d 4b a0 3e 63 06 6d bb 42 ec 8a 3e b7 b8 6e bb
       0.31307498 -0.0036167137 0.27133375 -0.0036426017
000140 e4 54 39 b9 56 d9 bc be cc d3 ea ba fc 31 fe be
       -0.00017674599 -0.36884564 -0.0017915904 -0.4964751
000150 15 62 3f 3e 3c 8d d2 be 0d ea 7d b9 6f 62 fe b9
       0.18689759 -0.41123378 -0.00024215151 -0.00048519994
000160 9c f0 ec be ba 0c d5 be 68 8c 1e be c8 ba 1a be
       -0.4627732 -0.41611272 -0.15483248 -0.15110314
000170 24 fa dc be 65 9b 04 bb 30 25 29 be 58 64 a4 bd
       -0.43159592 -0.0020234224 -0.16518092 -0.080269516
000180 76 46 ea be a1 b5 21 3e d2 c2 26 b9 47 c1 99 b7
       -0.45756882 0.15791942 -0.0001590357 -1.8329023e-05
000190 90 47 f1 bd c2 c0 ec be eb 4b de 3e 47 7b 37 ba
       -0.117812276 -0.46240813 0.43417296 -0.0006999266
0001a0 13 0f 4a 3e 72 d9 a0 3e 00 b9 a7 bd 00 b7 81 bb
       0.19732313 0.31415898 -0.08189583 -0.003958583
0001b0 f0 04 7f be d6 e8 f7 be da 0a f1 ba 60 ca cc bd
       -0.24904227 -0.48419827 -0.0018390075 -0.099995375
0001c0 bd 98 ac bd 1d a9 ea b9 c0 a0 4b be 26 35 07 3f
       -0.0842757 -0.00044757957 -0.1988554 0.52815473
0001d0 3c 49 9f bd ce c7 de be 34 70 e1 be 32 71 eb be
       -0.0777764 -0.43511814 -0.44030917 -0.459848
0001e0 82 8b 12 bc c1 8b 47 3e 3a 71 89 bc a4 1a 9f be
       -0.008944394 0.19486906 -0.016777623 -0.31075013
0001f0 d8 42 79 3e c4 eb 37 3e 72 f2 97 be 9a 17 7d b8
       0.24341905 0.17961031 -0.2967716 -6.034188e-05

weight f4 [128, 128]
000000 ce ed 7c 3d af 5a 35 3d 0e 9f 84 3c e0 b5 49 bc
       0.061750226 0.044275936 0.016189124 -0.012311429
000010 ef 65 61 bd a6 02 9a bd 76 62 96 bd 9d 68 12 bd
       -0.055028852 -0.075200364 -0.07342999 -0.0357443
000020 7b f3 77 3d 39 3f b3 3d 66 b8 4c 3d 2a 57 18 3d
       0.060534935 0.08752293 0.049980544 0.0371925
000030 a0 33 d6 bd 40 46 0d 3b 17 47 47 bd 62 93 71 3d
       -0.104590654 0.0021556765 -0.04865178 0.058978446
000040 fd 9a 11 bd 64 f6 ee 3c 72 f3 47 3d a0 ed 99 3b
       -0.0355482 0.029170223 0.048816152 0.0046975166
000050 00 24 85 ba 9a 2a 6e bd 48 b4 6c bc 8a 20 9f bd
       -0.0010157824 -0.058146097 -0.014447279 -0.07769878
000060 e1 54 ad bd 70 0d 37 3c da a0 7f 3d e6 92 ab bd
       -0.08463455 0.011172637 0.06240926 -0.08377628
000070 c9 c1 83 3d 1e 3f 3a 3d 82 4a 38 3d 79 01 73 3d
       0.06433446 0.04547035 0.04499293 0.059327576
000080 36 88 4f 3c d3 8d 91 3d 68 c0 8f bb ee f8 9f bd
       0.012666753 0.07107129 -0.0043869503 -0.078111514
000090 c8 83 52 bc 1f c3 0e bd 6c 62 8a bc 72 47 3c 3d
       -0.012848802 -0.03485405 -0.016892634 0.045966573
0000a0 94 ce 90 bc 07 9a 96 3d f8 f4 cf bc 30 f6 f7 3b
       -0.01767663 0.07353597 -0.025385365 0.0075671896
0000b0 64 d3 6e bd bc 5f 46 bd 70 0a 5a bc a8 4d af bc
       -0.058307067 -0.048431143 -0.013308153 -0.021399334
0000c0 dc aa 32 bd 0c 28 f3 3c 4a 2c 77 bd 13 3f 42 bd
       -0.043619975 0.029682182 -0.06034497 -0.047423434
0000d0 14 36 2d bd 20 6e f7 bb 5e e7 a0 bd 89 f3 b1 bd
       -0.0422879 -0.0075509697 -0.0785663 -0.08689029
0000e0 72 7b fe bc 80 f6 2b bb 00 81 6f 3a 4d 35 98 bd
       -0.031064723 -0.0026239455 0.0009136349 -0.07432041
0000f0 07 10 f6 bc e0 9b ba 3b 7a 54 8e bb 7a 3c 41 3d
       -0.03003694 0.0056948513 -0.0043435665 0.047176816
000100 16 8c 00 3d f8 89 a9 bd de 62 b4 bd 43 86 a0 3d
       0.031383596 -0.082782686 -0.0880792 0.078381084
000110 6e 36 f8 bc a4 2b b8 3c 2e 04 59 3d 00 7d 1b ba
       -0.030299392 0.022481747 0.0529825 -0.0005931407
000120 67 bd 05 bd fb 85 75 bd ba 84 ee bc 64 7b 24 bd
       -0.03265133 -0.059942227 -0.029116023 -0.040156737
000130 43 c9 b5 3c 7e 7b 1e 3d 56 8d 9b 3b 00 de 30 bb
       0.022190696 0.03869199 0.004747073 -0.002698779
000140 61 de 2e bd 40 21 43 3b 56 a5 9c bd 28 42 2b 3c
       -0.042692546 0.0029774457 -0.07648723 0.010452785
000150 c3 78 8c 3d ec 49 d8 3c 8c ef c2 3c e0 22 c6 bc
       0.06858971 0.026402436 0.023795865 -0.024186552
000160 56 16 2d 3d cf 5c 17 bd 35 3f 82 3d 6d 61 4a bd
       0.04225763 -0.036953744 0.06359712 -0.04940932
000170 4d c2 ac 3d 24 d6 90 bd c5 a9 a3 3d b2 12 74 3d
       0.084354974 -0.07072094 0.07991365 0.05958814
000180 52 a1 4e 3d 19 86 96 bd 25 42 8d 3d e4 fd 66 bd
       0.050446816 -0.07349796 0.06897382 -0.056394473
000190 5e 89 d4 bc 92 60 48 3d 1a fd 25 bc 56 ab 26 3d
       -0.025944408 0.04892022 -0.010131145 0.040690742
0001a0 c3 13 92 bc 8a b8 83 3d 7f 24 5c bd e8 87 8a 3c
       -0.017831689 0.064316824 -0.053745743 0.016910508
0001b0 1e 9a 7a bd 00 d0 26 39 c1 4a 92 3d 73 70 07 bd
       -0.061182134 0.0001590848 0.071431644 -0.033066224
0001c0 c0 61 be bb 27 9d 85 3d 48 23 60 3c 51 75 d7 bd
       -0.0058099926 0.06524115 0.013680287 -0.10520423
0001d0 5a 0e 1f 3d d8 ae 18 bc f0 e4 75 3c 8f de 96 3d
       0.038832046 -0.00931903 0.015008196 0.073666684
0001e0 64 4c 13 3d 12 0c a9 bd ce fa 6c 3d 1d 0f 72 bd
       0.035961524 -0.08254255 0.057856373 -0.059096444
0001f0 da 26 04 3d f4 bd c4 bd 2f a1 90 3d e7 fe 93 3d
       0.032263614 -0.09606543 0.07061993 0.07226353
000200 80 cb 05 bc c5 d1 8a 3d eb 98 b1 3d f0 4d cb bc
       -0.008166194 0.067782916 0.08671745 -0.024817437
000210 47 c6 b4 3d b8 5f c8 bc ce 85 ac bd 55 1c 9d 3d
       0.08826881 -0.024459705 -0.08423959 0.076714195
000220 e8 cf a2 bd 38 a1 27 3c 4c 1f 23 bd ae ad a3 bd
       -0.07949811 0.010231309 -0.03982477 -0.07992111
000230 3e 73 84 bd 8f c8 b4 bd e2 24 57 3d 76 85 79 3d
       -0.06467293 -0.08827316 0.05252541 0.060918294
000240 94 f8 0d 3d 58 85 c3 3c 18 6c 0a bc 80 f4 97 3c
       0.03466089 0.023867294 -0.008448623 0.018549204
000250 b1 9d 96 3d 8d 7c 65 bd 2c b5 b9 3c 20 5a 8f 3b
       0.07354296 -0.056026984 0.022669397 0.0043747574
000260 e9 52 1b bd 8c 37 a2 bd 8d 4f 78 bd d8 92 20 3c
       -0.037920866 -0.07920751 -0.06062274 0.009800635
000270 56 c9 31 3d 69 b4 91 3d 54 56 fe bc 20 28 1a bb
       0.0434049 0.07114489 -0.031047024 -0.0023522452
000280 00 6e 1f b9 5a 4b 29 3d 57 cc b3 3d b2 f6 e7 bc
       -0.000152044 0.041331626 0.08779209 -0.028315876
000290 66 60 51 3d 40 95 f3 bb ec 68 e7 bc b0 c4 44 3c
       0.051117323 -0.0074335635 -0.028248273 0.012009785
0002a0 f1 09 51 bd ca 18 07 bd e7 16 ac 3d 90 2c 4d bc
       -0.05103487 -0.032982625 0.08402806 -0.012522832
0002b0 8d 99 05 bd 28 da cc 3c d7 af 96 bd 6b 09 9b 3d
       -0.03261714 0.025006369 -0.073577575 0.07570156
0002c0 e0 e8 ae 3c 16 0a 4a bd 4b f5 ae 3d 45 4d a1 3d
       0.021351278 -0.049326025 0.0854288 0.07876066
0002d0 e5 d8 80 bd ff 74 ae bd 74 a3 8c bc 02 66 9c bd
       -0.06291369 -0.08518409 -0.017167784 -0.07636644
0002e0 e8 67 3b bc 36 93 aa bd 1a 9c 3f 3d 94 e0 fb bc
       -0.011438347 -0.083288595 0.04677973 -0.030746736
0002f0 60 51 d6 3b 32 8b 78 3d 60 c9 86 bc 40 1d 99 bc
       0.0065404624 0.060679622 -0.016453445 -0.018690705
000300 02 89 0a bd ed 12 9e bd d7 b5 86 bd 8e de 38 bd
       -0.033822067 -0.077184536 -0.06577652 -0.04513412
000310 b2 76 7a bd 10 ca 81 3b 1b 53 87 bd 10 96 07 3c
       -0.061148353 0.0039608553 -0.06607648 0.008275524
000320 98 b3 20 bc 60 77 43 3c 2b c9 3a bd 10 61 e1 3b
       -0.0098084435 0.011930317 -0.045602005 0.006878026
000330 62 59 4c bd 6e b0 54 3d 3c 66 0e 3d b2 d6 9d bd
       -0.04988993 0.05192607 0.034765467 -0.077069655
000340 18 48 bc 3c fa 93 6b bd 5b c0 74 bd 17 a6 98 bd
       0.022983596 -0.05751417 -0.059753757 -0.07453554
000350 fc fa de bc 4c 3a bb 3c c2 3f 57 3d e0 df 47 bb
       -0.027219288 0.022854947 0.05255104 -0.003049843
000360 69 12 5e bd 44 9d db bc 80 00 69 bb b8 44 12 bd
       -0.054216776 -0.026808389 -0.0035553277 -0.035710067
000370 23 49 a7 bd 00 49 34 3c b2 90 3e 3d c0 af 1c 3b
       -0.081682466 0.011003733 0.04652471 0.0023908466
000380 28 f0 7e 3c 4c 0f 51 bd e2 23 56 3d 60 ac ca 3b
       0.015560187 -0.05103998 0.052280314 0.0061850995
000390 e3 68 98 3d d5 f9 b3 3d d0 41 4a bc 01 f8 8b 3d
       0.074418806 0.08787886 -0.0123447925 0.06834412
0003a0 a1 56 8c 3d 26 21 26 bd 30 ec d7 bb 2a 87 4a 3d
       0.06852461 -0.040558957 -0.006589435 0.04944531
0003b0 d2 bb 4c 3d 7c 41 95 bd e4 7b 67 bd 70 4d b4 3b
       0.049983807 -0.07287881 -0.056514636 0.0055023953
0003c0 38 87 2b bd aa a0 17 3d 29 8b 71 bd 50 e4 15 3d
       -0.041877 0.037018456 -0.058970604 0.03659469
0003d0 30 96 33 bc 82 a1 74 3d be 30 01 3d b8 f2 a5 bd
       -0.0109611 0.05972434 0.031540625 -0.081029356
0003e0 3c 8b cb bc 40 1b f2 bb d8 0d 33 bd 72 f5 aa bd
       -0.024846666 -0.0073885024 -0.043714374 -0.08347596
0003f0 64 28 99 3c 70 b9 cb bb 54 71 98 bc e4 57 f3 3c
       0.018696018 -0.006217174 -0.018608727 0.029704995

bias f4 [128]
000000 d4 80 24 bd 7c 80 04 bd cf 26 97 bd 91 d2 a1 bd
       -0.040161923 -0.032349095 -0.07380449 -0.079014905
000010 08 6c 8f bc 64 42 f0 bd f8 5e d3 bc 6b 09 f0 bd
       -0.017507568 -0.11731413 -0.02580212 -0.11720546
000020 1e 1c 1f 3d a8 42 71 3d d6 5a 9d bd eb a2 96 3b
       0.038845174 0.05890146 -0.07683341 0.004597058
000030 c2 d9 a5 bd 03 d8 b7 bd 54 a3 f3 bc a4 af ac 3d
       -0.08098175 -0.08976748 -0.029740967 0.08431938
000040 8b 77 b6 3d 1b 8b b1 bd 9e c5 44 bd 25 c4 43 bb
       0.0890952 -0.086691104 -0.048040025 -0.002987155
000050 ed 9a 94 bd b5 30 e8 bc 99 bf 1c bd a4 d2 53 bd
       -0.07256112 -0.028343538 -0.03826866 -0.051714554
000060 04 91 95 bd b4 96 86 bc fb 00 b6 bd 95 16 38 bd
       -0.0730305 -0.016429283 -0.08886906 -0.04494341
000070 90 1d 4e bd 6a 25 ff bb 47 06 aa bc f2 97 4a bc
       -0.05032116 -0.0077864425 -0.020754946 -0.012365328
000080 0f 17 98 b9 94 35 a2 bc f8 48 77 bd 23 9f c2 bd
       -0.0002900888 -0.019800939 -0.060372323 -0.09503009
000090 4a 8f fa bc da 22 5f bc ee 08 0e 3b b5 c1 56 bd
       -0.030585904 -0.013619149 0.0021672803 -0.052430827
0000a0 2c 2b e2 bc 34 49 98 bd 6a c2 b2 bc c9 aa 3e bd
       -0.027608477 -0.074358374 -0.02182122 -0.046549592
0000b0 4c 31 10 bc 58 b3 34 bc bb 78 6b bd d8 75 4a bd
       -0.008800816 -0.011029087 -0.057488184 -0.04942879
0000c0 41 86 47 3d 8d 00 1c bd 6f 46 1e bc 87 93 4e bd
       0.04871202 -0.038086463 -0.009660347 -0.05043366
0000d0 55 29 fe bc b0 95 e5 3c 1d 2f bd bc b4 b9 c6 bc
       -0.031025568 0.028025478 -0.023093754 -0.024258472
0000e0 d7 1c ee bc 22 9d b3 bc 99 8f 3b bd 7e f6 c4 bc
       -0.029066486 -0.021925513 -0.045791242 -0.024043318
0000f0 a2 32 70 bd a3 ce b2 bc f9 f2 e8 bc 44 22 28 bd
       -0.058642037 -0.021827048 -0.02843617 -0.041048303
000100 e5 3c 1f 3a 90 09 b9 bc 5c fa 8e bc df 9b 54 bd
       0.00060744426 -0.022587568 -0.017453365 -0.051906463
000110 04 cc aa bd ee 60 a9 bd fe c1 a0 bb 64 39 01 3d
       -0.08339694 -0.08270441 -0.004905938 0.031548873
000120 b8 5f 22 ba 18 21 49 bd 4d 97 ea bc a5 29 9c bd
       -0.0006194073 -0.049103826 -0.028636599 -0.076251306
000130 5e 37 fb bb 23 0a 3a bd 15 57 af 3b 3e b6 7e 3a
       -0.0076665124 -0.045419823 0.005350957 0.0009716487
000140 16 ac f6 bc 2f 6b 19 bd 5d ad bb bc 8a c3 36 bd
       -0.030111354 -0.037455734 -0.022909814 -0.044620074
000150 12 97 48 3c 9a ed e6 bb 1f 7f 1e bd 4c 10 9b bd
       0.012243049 -0.0070473673 -0.03869545 -0.07571468
000160 26 df d2 b9 d7 c0 22 3d 8a cb e4 bd 46 19 ac bd
       -0.0004022058 0.039734688 -0.111716345 -0.08403258
000170 2c 0c 19 3b 3a 08 10 bd 11 00 3b bd 0d 42 79 bd
       0.0023353202 -0.035164095 -0.04565436 -0.060854007
000180 0d 6d ea bd af 63 0c bc 72 52 b7 bd 4f 91 5f bd
       -0.11446581 -0.008568688 -0.08951272 -0.054581936
000190 92 b0 19 bd b2 56 81 bc c3 b5 56 bd 19 45 4d bc
       -0.037521906 -0.01578841 -0.052419435 -0.012528681
0001a0 a0 bb e4 bc 98 bb f0 bc 78 b4 83 bd 94 b9 22 bd
       -0.027921498 -0.029386327 -0.06430906 -0.039727762
0001b0 16 34 9d bb da f0 83 bc 13 a2 04 bd 5e b5 c1 bc
       -0.004797469 -0.016106058 -0.03238113 -0.023646053
0001c0 2c eb 40 bb bb cd 85 bd 17 b3 a1 bd 7e 9f 44 bd
       -0.0029437048 -0.065333806 -0.07895487 -0.048003666
0001d0 82 e4 be bd 18 71 0c bd ec 9b 73 bc b5 0c 8f 3d
       -0.09320928 -0.034287542 -0.014868718 0.069848455
0001e0 15 a7 fb bd ed 80 37 3d 89 54 55 bd f4 67 a9 bd
       -0.12287728 0.044800688 -0.052082572 -0.082717806
0001f0 57 88 8d bc 38 76 73 bd 8f d5 d5 bd 06 10 a5 bd
       -0.017276926 -0.059438914 -0.10441124 -0.08059697

weight f4 [128, 128]
000000 34 3a 83 bc a8 19 53 bc 9e b0 88 3d f7 5a ff 3a
       -0.016018964 -0.012884535 0.06674312 0.0019482066
000010 2c a9 82 bc 92 2e 0f 3d a8 92 a1 3c b1 b3 98 bd
       -0.015949808 0.034956522 0.019723251 -0.074561484
000020 ea c7 f7 bc 55 ad 8e bc 6c 66 f9 3c 73 f0 06 3e
       -0.030246694 -0.017416636 0.030444346 0.13177662
000030 67 aa 86 3d 58 22 cb bc 76 a2 25 3d fa fa cf bd
       0.065754704 -0.02479665 0.040438138 -0.10155292
000040 f0 84 61 3d 00 9e 0a b9 ee df 50 bd 25 f0 1a be
       0.05505842 -0.00013219565 -0.050994806 -0.1513067
000050 53 77 a6 3d e6 13 8f 3d fd e9 32 bd ec 16 f2 3c
       0.08128228 0.06986217 -0.04368018 0.029551946
000060 00 a9 a2 3b c0 17 a7 bd 39 f1 8d bd 5d e2 e4 bb
       0.004963994 -0.08158827 -0.06930775 -0.0069849924
000070 60 ec 2d bd ab 91 41 bc 6c 0a 8a bc 24 29 65 3d
       -0.042461753 -0.011814515 -0.016850673 0.055947438
000080 29 b7 91 3d 20 af a0 bc b3 a3 75 bd 62 8b c0 3a
       0.07115013 -0.019614756 -0.05997057 0.0014689977
000090 40 72 c7 bc 5e 82 f7 3d 85 7a 2e bd 8e 52 1c 3d
       -0.02434647 0.120854124 -0.042597312 0.038164668
0000a0 d6 3a 2d 3d 0d a1 97 3d b6 5c 16 3d 18 db 2b bc
       0.04229244 0.07403765 0.03670951 -0.010489248
0000b0 ed e7 59 3d ab c1 2c 3d 03 bc a9 3d dd 47 43 bd
       0.053199697 0.042176884 0.082878135 -0.047675956
0000c0 b2 db f0 bc 47 c0 a0 3d 38 c9 23 3d 87 06 f4 bc
       -0.029401634 0.07849174 0.03998682 -0.029788269
0000d0 61 34 53 bd 79 43 d1 bc d2 9f 11 bd 46 df 89 bd
       -0.051563624 -0.025544869 -0.035552807 -0.06732039
0000e0 6d 04 2d bc db c1 c4 3c 59 d7 55 3d 25 0f 1e 3d
       -0.010560137 0.024018219 0.052207325 0.03858866
0000f0 17 db 1c bd 78 24 c8 bc 80 33 39 bc 42 2f bf bd
       -0.038294878 -0.024431452 -0.011303782 -0.093351856
000100 02 cb 19 3d e9 16 98 3d 5b bb 60 bd b2 b6 60 bd
       0.03754712 0.07426245 -0.054866176 -0.05486173
000110 ba b6 f1 3c 8f 25 52 bc e0 54 06 bb da 5f 3c be
       0.029506076 -0.0128263375 -0.0020497367 -0.1839594
000120 94 2d 86 3c 05 5a c7 bb 7d fa a4 3c b2 3e 48 3d
       0.016379155 -0.006083729 0.020138973 0.048887916
000130 d8 7c 6d bd f6 5a c5 bd da e5 74 3c 40 fa 56 bc
       -0.05798039 -0.0963649 0.014947379 -0.013121188
000140 93 03 5d ba f4 38 16 bd f8 a5 f6 3a 10 41 92 bd
       -0.00084310136 -0.03667541 0.0018817773 -0.07141316
000150 46 47 e7 bd d4 cd 9f bd 4a e1 30 bc 40 51 1e 3c
       -0.11292891 -0.078029305 -0.010795901 0.009662926
000160 c7 95 82 bd 2a d9 31 bd ec 76 8d bd d0 73 00 bd
       -0.06376224 -0.043419994 -0.06907448 -0.031360447
000170 94 3a e9 bd a3 e6 0a 3d 19 47 6e bd 36 62 6e 3c
       -0.11388126 0.03391136 -0.058173273 0.0145497825
000180 71 d0 8f 3d 11 60 0c 3d 59 8f 9f 3d a2 02 3b 3d
       0.07022179 0.034271304 0.07791013 0.045656808
000190 65 87 7a bd 26 05 1b 3d e1 d4 87 3d 66 67 69 3d
       -0.06116428 0.037846707 0.066324 0.056983374
0001a0 75 3c 9e bd 8d 52 0b bd 00 ab 43 bc 46 65 15 b9
       -0.07726375 -0.034014273 -0.011942625 -0.00014247475
0001b0 aa c8 e4 bd a8 77 a9 bd ad a2 b1 3d 6d b6 0f bd
       -0.11171086 -0.08274776 0.08673606 -0.035086084
0001c0 69 b6 ae 3d 87 92 a0 bd 8c ed f7 bc 8d f2 89 3d
       0.08530886 -0.07840448 -0.030264638 0.06735716
0001d0 8f 05 3f 3d e9 e2 26 3d 3a b0 80 3d 54 fa ea bd
       0.04663616 0.040743742 0.062836125 -0.114735276
0001e0 18 28 1d 3d 12 48 45 3c d5 3d 29 3d 7c 75 06 bd
       0.038368315 0.012041109 0.041318733 -0.032826886
0001f0 50 23 ff 3c cc 3b 04 bd 35 d2 56 3d ff 85 df bc
       0.031144768 -0.03228359 0.052446563 -0.027285574
000200 69 65 91 3d ee a7 6c 3d c0 31 4e 3d 2a d1 32 3c
       0.070994206 0.057777338 0.050340414 0.010914126
000210 ae 3e 33 3d c0 2c e5 bc 7f 09 91 3d 3c 7c b4 bc
       0.043760948 -0.02797544 0.07081889 -0.022031896
000220 54 e2 23 3d 6d f7 86 bd fc fd 3b bd c7 58 3e 3d
       0.040010765 -0.065901615 -0.045896515 0.046471383
000230 86 fe 63 3d e6 14 09 3d c0 c0 b3 3b 4e 28 30 3c
       0.055662654 0.033467196 0.005485624 0.010751797
000240 ea 75 50 bd 80 bf 25 3a 1d 85 84 bd 54 1d 4d bb
       -0.0508937 0.0006322786 -0.06470702 -0.0031297999
000250 bf 59 9e 3d 03 18 b1 bb 9e 9f 94 bd 95 ab 6d bd
       0.077319615 -0.0054044737 -0.07257007 -0.05802496
000260 9c 6a d7 3c 00 ee 54 ba 20 7e 0d bd 2e 0c 2b 3d
       0.026295952 -0.0008122623 -0.03454411 0.041759662
000270 cc f7 4f 3c 3b 5d 85 bc 92 15 bc 3d b5 04 18 bd
       0.012693357 -0.016279807 0.09183802 -0.037113864
000280 26 e4 9b 3d bd 7d 88 3d 7c a0 26 3d b5 11 94 bd
       0.07611875 0.06664608 0.040680394 -0.0722994
000290 97 f7 b2 3d 1f 41 fd 3c b9 38 f9 3c 6b 4e b4 3d
       0.0873863 0.030914841 0.030422555 0.088040195
0002a0 b1 a5 ae 3d 0f 9a c0 bc d2 87 1d 3d b4 60 f7 bc
       0.08527697 -0.02351096 0.038459606 -0.030197479
0002b0 f6 5a 9c bc 2f 33 b7 3d 65 67 ac bd 40 1c e6 bb
       -0.019086342 0.08945309 -0.084181584 -0.0070224106
0002c0 99 e3 d5 3c 43 45 09 bd c3 6a 2a bd 29 ca df 3d
       0.026109504 -0.03351332 -0.041605722 0.10927231
0002d0 10 54 97 3b 63 eb ad bd dc 00 02 3d a9 f5 a7 3d
       0.0046181753 -0.08492162 0.0317391 0.08201153
0002e0 44 cb 08 bc fc 8e 62 3d 34 66 64 3c e6 db 65 3c
       -0.008349244 0.05531214 0.013940383 0.014029479
0002f0 ca cc e9 bc 7a a0 b0 bd e0 ba f9 3b ba 62 de bc
       -0.028540034 -0.086243585 0.007621154 -0.027146686
000300 9c 0f 9c 3b fe 47 46 3d 02 a8 66 3d a6 45 00 bd
       0.004762603 0.0484085 0.05631257 -0.031316422
000310 71 53 a3 bd 53 26 78 3a a0 a1 58 3c 82 3e 06 be
       -0.079748996 0.000946616 0.013222128 -0.13109782
000320 cc f4 99 3b 64 f4 94 3d 9b 1c 01 be c2 85 a0 bd
       0.0046983715 0.07273176 -0.12608568 -0.07838012
000330 4a 95 22 3d 30 04 50 bc 35 3f 95 bc 5d d7 8b bd
       0.039693154 -0.012696311 -0.018218616 -0.06828187
000340 14 61 f4 bd 80 7b 1c bc d6 dd 10 3d 30 ea 32 bc
       -0.11932579 -0.009550929 0.03536781 -0.010920092
000350 6d a5 5b 3c 61 b7 79 bd 9f 4a 84 ba 98 ca 85 bc
       0.01340614 -0.0609659 -0.001009304 -0.016331956
000360 ce ab f6 3c 7f a8 23 3c d2 99 85 bd 54 7f 06 ba
       0.03011122 0.009988903 -0.065234795 -0.00051306677
000370 3b e2 ab bd 23 30 bc bc 49 4a 45 3d 9a c6 55 3d
       -0.083927594 -0.022972172 0.048166547 0.052191354
000380 fb 5d 78 3d 3a ff 1f bc 97 4c 44 bd c0 e3 3c bc
       0.0606365 -0.009765441 -0.047924604 -0.011528909
000390 e4 32 82 bd 10 0b 8a bd b5 f5 99 bd d5 36 c4 3c
       -0.06357363 -0.06740391 -0.07517568 0.023951927
0003a0 07 f8 5f 3b b5 64 8f bd 56 05 a8 bd e8 4b 80 bd
       0.0034174935 -0.0700163 -0.08204143 -0.06264478
0003b0 66 4c 98 bd 19 ab a5 3d d8 d7 89 3d 6d 5c 7b bd
       -0.07436447 0.08089275 0.06730622 -0.06136744
0003c0 20 68 6a bd f6 3f af 3c c0 04 30 bb cd ae 7c 3d
       -0.057228208 0.021392804 -0.00268583 0.06169014
0003d0 17 15 a3 bd ae f2 83 3d d6 7b bd bd 38 6f b3 bd
       -0.07963007 0.06442772 -0.092521355 -0.08761448
0003e0 8d e1 17 3d 90 95 54 bd c3 36 2e bd 90 91 a8 3b
       0.037080336 -0.051900446 -0.042532694 0.0051443055
0003f0 e4 32 04 3d 1b b2 9d bd 67 50 63 3d cf 41 83 bd
       0.032275096 -0.076999865 0.0554966 -0.06409036

bias f4 [128]
000000 22 2b 2e bc 7e 46 1e bd 82 fb c0 bd fa e5 81 bd
       -0.010630401 -0.038641445 -0.09422971 -0.06342693
000010 51 8a 16 bd f9 92 01 bd 4f f1 90 bd 11 c6 87 bd
       -0.036753003 -0.031634305 -0.07077276 -0.06629575
000020 01 cb b0 bd 6f cb 02 bd 7a 1f d2 bd 4c ef 3e bd
       -0.0863247 -0.03193229 -0.1025991 -0.04661493
000030 31 39 aa bc 18 dc 2c be 3f e3 de bc 49 6c dd bb
       -0.020779224 -0.16880834 -0.027207969 -0.0067572934
000040 63 4b 90 bc af 28 c6 bd de 5a a7 bc a9 f9 c0 bc
       -0.017614072 -0.096757285 -0.020429071 -0.023556547
000050 17 bc 68 3c fd a5 9e bd 24 67 51 bc ec b7 8d bd
       0.014205 -0.077465035 -0.012780938 -0.06919846
000060 3a 8c 70 bd 19 fe 96 bc 63 cc e5 bc 87 ed 57 bc
       -0.05872748 -0.01843171 -0.02805156 -0.0131791895
000070 7a db 4c bd f4 70 8c bd 80 3c d1 bb 5e 38 b4 bd
       -0.050013997 -0.068574816 -0.006385386 -0.08799814
000080 63 57 bc bb 64 32 91 bd 87 3c c6 ba 9c b8 ca bd
       -0.005747722 -0.070896894 -0.001512424 -0.09898493
000090 c5 98 b6 bb d7 b2 87 bd 53 a8 2e 3e 06 cd 14 bd
       -0.0055724108 -0.06625908 0.17056398 -0.036328338
0000a0 8f 2c 9a bc 87 dc 3e ba 48 02 90 bd ed 0a 18 bd
       -0.018820075 -0.0007280786 -0.07031685 -0.037119795
0000b0 59 9f 7f bd a0 f7 06 bd a7 77 83 bb aa b2 d9 bc
       -0.062407825 -0.032950997 -0.0040120664 -0.026574451
0000c0 db 48 c9 bd 25 3b 24 bb 7e e8 35 bc 0c 66 e0 bc
       -0.09828349 -0.0025059667 -0.011102794 -0.02739241
0000d0 98 25 93 bc 7f 7e d1 bd 56 68 5d bd 76 1a fe bd
       -0.017962262 -0.10229205 -0.05405458 -0.12407391
0000e0 28 92 8c bc 11 a9 de bd b9 a3 90 bc 1c b6 39 bd
       -0.017159536 -0.108720906 -0.017656194 -0.04533969
0000f0 fa c7 9c bc 25 cb 1c bd 91 b8 a6 bc 95 dc 80 bc
       -0.019138325 -0.03827967 -0.02035168 -0.015730182
000100 ca f5 04 bd 9b 61 cd bd 02 4b 9c bd 2c 09 2a bd
       -0.032460965 -0.100283824 -0.07631494 -0.041512653
000110 56 93 7e bd 1c 83 db bc d7 0e a1 bd b4 1c 1d bc
       -0.06215223 -0.026795916 -0.078641586 -0.009589363
000120 20 b2 a9 bd a0 f4 75 bc e6 28 34 bd e2 87 c1 3c
       -0.08285928 -0.015011936 -0.043984316 0.023624364
000130 78 90 17 bd e9 a4 46 bd 9d 0f 84 bc ad 70 0a bd
       -0.03700301 -0.048497114 -0.016120726 -0.033798862
000140 06 a0 6e bd 45 72 be bc bf 83 d8 bc 1a cf 71 bc
       -0.05825808 -0.023247847 -0.026430009 -0.0147588495
000150 5e 6f af bd 5b c3 aa bd 91 5c 33 bc 21 18 31 bd
       -0.085661635 -0.08338042 -0.0109473625 -0.0432359
000160 90 ed 0c bd 5e 03 06 bd 87 44 c0 bc da 76 1c bd
       -0.034406245 -0.032718055 -0.023470176 -0.038199283
000170 9b b4 4d bc 43 d4 b4 bc ce 4d 92 bd 65 f2 8f bb
       -0.012555267 -0.02207387 -0.07143746 -0.0043929094
000180 06 d4 0a bd cc db 01 bd ac 79 d0 bd 7a f5 d1 bc
       -0.033893608 -0.031703755 -0.10179457 -0.025629748
000190 b1 ec 14 3c e7 e4 61 bd eb e6 2c bd ed ee 91 bd
       0.009089635 -0.05514994 -0.042212408 -0.071256496
0001a0 76 26 ad bd bf 2b d2 bc f8 71 cb bc e6 c5 07 bd
       -0.084546015 -0.025655625 -0.024834618 -0.033147715
0001b0 db 3a a4 bd 1a 16 3d bc a5 45 4e bb 9c b4 da bc
       -0.08019038 -0.011540914 -0.0031474617 -0.02669745
0001c0 90 ef da bc 15 9b a9 bc 0f 32 dc bd b8 50 3e bd
       -0.02672556 -0.020703832 -0.107517354 -0.0464637
0001d0 50 d5 80 bd 99 4e 52 bd a4 35 63 bd 5f da 86 bd
       -0.06290686 -0.051344488 -0.055471078 -0.0658462
0001e0 e4 2f b7 bc 16 d8 23 bd 39 45 14 bd a9 09 fb 3c
       -0.022361703 -0.040000997 -0.03619883 0.030644255
0001f0 b9 d6 4f bd eb 26 8e bc 6e 6f 31 bd 1e 83 f0 bc
       -0.050741885 -0.017352542 -0.04331916 -0.029359397

weight f4 [128, 128]
000000 e8 44 88 bd 94 92 a6 bd 5c 39 89 3d 14 7f 88 3d
       -0.06653768 -0.08133426 0.067003936 0.06664863
000010 12 e8 ee bc 61 b4 a6 bd 88 50 c6 3d a6 14 24 3d
       -0.029163394 -0.08139873 0.09683329 0.040058754
000020 0f 3c 71 3d 4c a5 3a bd 6e 5b b4 bd ee 2a 72 3b
       0.058895167 -0.045567796 -0.08806501 0.0036951858
000030 18 99 ba 3b 06 7b 6b bc 9e 43 d4 bd 22 46 21 be
       0.0056945197 -0.014372593 -0.103644595 -0.1574941
000040 72 3c 7d bd e4 43 3a bc 8e 80 02 be e7 fc 3c b9
       -0.061825223 -0.011368725 -0.12744352 -0.0001802329
000050 91 3e 3d bd fe c4 86 bd f4 91 52 bc 57 04 3e bd
       -0.046202246 -0.06580542 -0.012852181 -0.046390858
000060 49 e8 26 3d fb 83 18 bd c1 20 7d bd 26 5d 4a bd
       0.04074887 -0.03723524 -0.061798815 -0.04940524
000070 c0 37 8a bd f1 d7 8b bd 4b 9c 13 3c e1 fd 87 3d
       -0.06748915 -0.06828297 0.009009431 0.066402204
000080 a7 8c da bc a3 29 c1 bc 5e 83 62 bc 31 ed 65 bd
       -0.026678396 -0.023579424 -0.013825266 -0.056134406
000090 ca 72 56 3b 35 c5 92 bd 4a 10 77 3d 98 4b d6 3c
       0.0032722228 -0.071665205 0.06031827 0.026159093
0000a0 2a 80 42 be 72 da 46 bd 16 3e 92 bb 92 80 90 3c
       -0.18994203 -0.04854817 -0.0044629676 0.017639432
0000b0 b6 b0 88 bc 47 c9 25 bd 52 d4 25 bd 41 75 1d bd
       -0.016685825 -0.040475156 -0.040485688 -0.0384419
0000c0 92 ef af bd ac c2 a0 bd 15 10 ef 3c a7 e4 87 bd
       -0.08590616 -0.07849631 0.029182473 -0.06635409
0000d0 f0 ca 1f bc 17 be a1 bd 94 12 a5 bd 67 8d 01 be
       -0.009752974 -0.07897585 -0.08060184 -0.12651597
0000e0 09 94 67 bd c7 28 93 bd f2 a9 64 bd de 98 86 bd
       -0.05653766 -0.07185512 -0.055826135 -0.06572126
0000f0 4b a4 20 3d 38 4c 23 be b1 62 bd bd 13 23 9a bd
       0.039219182 -0.15947044 -0.092473395 -0.07526221
000100 e3 32 3d bd 61 64 95 bd b8 40 5b 3c 90 dd f7 3b
       -0.046191107 -0.072945364 0.013382129 0.007564254
000110 45 6c 09 3d dd 34 24 3b 88 90 7f 3c f9 3d b8 bd
       0.03355052 0.0025055923 0.015598424 -0.08996195
000120 77 cf 9b 3d 1e 96 aa bc 19 07 27 3c 05 e5 1b be
       0.0760793 -0.020823535 0.010194563 -0.15224083
000130 d4 3b 8f bb 71 52 fd bd a7 f0 25 be fe bf c1 bc
       -0.0043711457 -0.1236924 -0.16205083 -0.02365112
000140 7b fc 20 3d e1 c5 f8 bc 30 9c 10 be 50 da 4e bb
       0.039303284 -0.030367794 -0.14122081 -0.003156323
000150 9a af e0 bc 28 f5 d1 ba 69 bc cd 3c 5c 0b d8 3c
       -0.027427483 -0.0016018497 0.025114255 0.026372604
000160 ae bf cc bc 21 68 1a bd 8b f2 ec bb 80 93 cc bc
       -0.024993744 -0.03769696 -0.007231062 -0.024972677
000170 d2 b9 70 3d 90 ac 37 3c 52 2f bf bc 8e a3 2b bd
       0.058770962 0.011210576 -0.023337994 -0.041904025
000180 fb 7f 1b 3d e2 d5 58 3d f1 88 08 3d 79 88 a3 bb
       0.03796385 0.05293835 0.033333723 -0.004990634
000190 6d c8 a3 3c e0 45 6f bd 3f 12 bb 3c b1 36 85 bb
       0.019993031 -0.058416247 0.022835849 -0.0040653576
0001a0 ab f7 85 bc 84 54 7e bd fa 0a 71 3d 87 6c 4c bd
       -0.016353449 -0.06209232 0.05884836 -0.049908187
0001b0 66 a2 48 3d 63 42 15 bd ea 8c b1 3c d4 75 a6 bd
       0.048983 -0.036440264 0.021673638 -0.08127943
0001c0 5a f4 9d 3c 22 89 22 bd 41 ef 7f bd 51 db 9b bd
       0.019281555 -0.03968156 -0.06248403 -0.07610191
0001d0 fb a1 90 bd dc 22 95 bc 63 4a 70 3d 86 3a 0e be
       -0.07062145 -0.018205099 0.05866469 -0.13889512
0001e0 b3 46 ef bd 87 d1 15 be 58 40 d8 3c e6 cc d0 bd
       -0.11683407 -0.1463071 0.026397869 -0.10195331
0001f0 83 f9 5c bc 92 77 5e bd e6 00 f5 3c e1 84 ea bc
       -0.013487223 -0.05431325 0.029907655 -0.028627815
000200 46 34 b3 bd 11 7a 2b bb bc f6 d4 3c c1 08 19 bd
       -0.08750205 -0.0026165287 0.025996558 -0.037361864
000210 00 8e eb bb c7 b8 a3 bd 74 ad 63 bd 3b c4 51 bd
       -0.0071885586 -0.07994228 -0.05558534 -0.05121253
000220 c7 7f 8e bd cc 23 0b bd 1f 11 a1 3d a5 74 af bd
       -0.06957965 -0.033969685 0.07864594 -0.0856717
000230 88 ab 36 ba fe b1 4f 3d b1 12 9b 3d 31 49 95 3c
       -0.0006968309 0.050706856 0.075719245 0.018223377
000240 cb 26 32 bc f0 37 93 3b c9 76 74 3d 3e 6d 7a 3d
       -0.010873507 0.0044927523 0.059683595 0.061139338
000250 cf dc 8c 38 e0 a9 9f bb f8 92 6e bd a8 4d 6c 3c
       6.716849e-05 -0.0048725456 -0.05824563 0.014422812
000260 4f 39 a7 3c 3a ff 5b 3d 84 80 79 bd d3 c6 5a bd
       0.020413069 0.0537102 -0.060913578 -0.05341227
000270 48 20 29 3c 94 3a 8e 3d e3 93 70 3d 63 ae b1 3d
       0.010322638 0.06944767 0.058734786 0.0867584
000280 40 86 bd bb f4 55 83 3c d2 1c b8 bc 85 69 a8 3d
       -0.005783826 0.016032197 -0.02247468 0.08223251
000290 ec 9e ce 3c 1a 90 9e bd 84 4b cc 3c d0 f5 86 3c
       0.025222264 -0.07742329 0.024938352 0.016474634
0002a0 bb 2b e4 3c 0e 11 76 3d a4 7a 84 bd 40 c6 fb 3a
       0.027852884 0.06007486 -0.06468704 0.0019208863
0002b0 e6 ed 7e 3d 14 25 57 bd 75 d2 61 3c 14 76 45 3d
       0.062238596 -0.052525595 0.013783087 0.04820831
0002c0 7e f7 28 3d 7a 5c 46 bd 22 6a 40 3d a3 a2 56 bd
       0.041251652 -0.048428036 0.046976216 -0.052401196
0002d0 aa ae 9b bd 6b 4f 92 3d bc 4e c6 bc 0c 96 66 bd
       -0.07601674 0.07144054 -0.024207465 -0.05629544
0002e0 25 8c 8a bd 21 42 32 3d 8d 72 37 bd 4c d6 5d bd
       -0.06765012 0.043520097 -0.04478698 -0.054159448
0002f0 26 16 5d bd 86 dc 40 3d 78 2a bc bd 65 1a 87 3d
       -0.0539762 0.047085308 -0.09187788 0.06596831
000300 f9 cf 5b 3d 9e 07 9a 3d 11 d3 75 bd 8c 13 84 bd
       0.053665135 0.07520984 -0.06001574 -0.06449041
000310 d4 a0 9c bc ed 92 06 bd 00 76 2d 3b b2 97 35 3d
       -0.019119658 -0.032854963 0.0026468039 0.04433412
000320 07 12 87 3d 73 54 85 3d 20 31 54 3b 5a 3d a3 bd
       0.06595235 0.06510248 0.0032377914 -0.07970686
000330 e0 0b 94 bb 94 cb 93 3d ef e0 39 bc c4 bd 82 bd
       -0.004518017 0.07216564 -0.011345132 -0.06383851
000340 c5 19 10 bd ce b0 22 3d a5 90 29 bc 15 39 84 bd
       -0.035180826 0.039719395 -0.010349427 -0.064562
000350 2e eb 20 bd 8b 60 3f bd da de 6b 3d d9 c5 52 bd
       -0.039286785 -0.04672293 0.057585575 -0.051458213
000360 ee 38 ea 3c fa fd 8b bd a2 e3 a6 bd d2 5b d9 bc
       0.0285916 -0.068355516 -0.08148886 -0.026533041
000370 61 ee ce bd 40 55 12 3b 4e 6a 05 3d 79 43 1e bd
       -0.10104061 0.0022328645 0.032572083 -0.038638566
000380 04 ab 4e bd 32 fc 04 3d c2 89 e6 bc 60 ff 38 bc
       -0.050456062 0.032467075 -0.02814186 -0.011291355
000390 39 25 17 3d 28 32 aa 3c 28 f1 32 bd 4e 06 28 3d
       0.036900733 0.02077587 -0.043687016 0.041021638
0003a0 90 c8 9a bd 85 45 af 3c 80 44 92 3c 1f fe 89 bd
       -0.075577855 0.021395454 0.017854929 -0.06737923
0003b0 48 f2 72 bd 87 5d 30 3d 23 64 cd ba d9 be 8d 3b
       -0.05931309 0.043057945 -0.0015670102 0.0043257293
0003c0 16 e8 05 bd 20 d1 8d bd cd bb 84 3d 61 54 54 bd
       -0.032692038 -0.06924653 0.06481133 -0.051838282
0003d0 1a 82 8b bd 49 51 a0 3d d3 86 a7 3d 1e b1 6f 3d
       -0.06811924 0.07828004 0.081800126 0.05851852
0003e0 d7 61 09 bd 9c cc fd 3c b1 03 a2 bd 6d 67 9b bd
       -0.033540573 0.030981354 -0.0791086 -0.07588086
0003f0 d3 1c 07 bd 21 93 ad bd fa 00 70 3d 66 8e 21 3d
       -0.032986473 -0.08475328 0.05859468 0.039442442

bias f4 [128]
000000 5b 10 9e bc 12 bc 7e bd cf e1 c1 bd 4a 14 97 bd
       -0.019294908 -0.062191077 -0.09466898 -0.07376917
000010 db a8 50 bd 15 ee 07 bd 8c 72 da bd 0f a7 82 bb
       -0.050942283 -0.033186037 -0.10666379 -0.0039872
000020 49 8f 81 bd 43 7f 1f bd 73 a4 c1 bc 5e e3 e6 bc
       -0.063261576 -0.038939726 -0.023637986 -0.028184589
000030 be f2 aa bd 32 15 b6 bc d7 27 09 be 94 a5 40 bd
       -0.08347081 -0.022226904 -0.13394104 -0.047032908
000040 9f 1f 9f bd c5 67 ad bc 77 93 b9 ba 87 83 90 bc
       -0.07769703 -0.021167645 -0.0014158328 -0.017640842
000050 2b ac 63 bd 16 39 4d bd a8 b4 93 bd 78 8f 5b bc
       -0.055584114 -0.05010327 -0.07212192 -0.013400905
000060 3c 85 1e bc c9 2a 49 bc 62 4f c2 bc 5a 00 da bc
       -0.00967532 -0.012278267 -0.023719493 -0.026611496
000070 9a dd 0e bc 5b 05 35 bd 13 e1 c2 bd 65 aa 3e bd
       -0.008719826 -0.04419456 -0.09515586 -0.04654922
000080 ac a0 6d bc da dc d0 bd 5a 65 c9 bc c3 b2 a1 bd
       -0.014503639 -0.10198374 -0.024584461 -0.07895424
000090 de 49 83 bd 89 d1 91 bc 40 e9 67 bb 88 8f 30 bd
       -0.064105734 -0.01780011 -0.003538683 -0.043105632
0000a0 1c e7 85 bd 1e d6 85 bd ea c8 05 bd 0e 4c 12 bd
       -0.06538221 -0.0653498 -0.03266231 -0.035717063
0000b0 4a 7a 02 bd 8f ce 5d bd 95 2e a0 bd 52 50 24 bd
       -0.031854905 -0.054152068 -0.07821385 -0.040115662
0000c0 e3 7e 34 bc 4e 53 96 bb f1 af 9e bd 1e fe 90 bd
       -0.01101658 -0.0045875674 -0.07748402 -0.07079719
0000d0 dd 6c 06 bd a1 df ba bd 3e d6 90 bd ac 9e 58 bc
       -0.032818664 -0.09124685 -0.070721135 -0.013221424
0000e0 11 79 36 bb 9c 79 88 bd 03 d3 9e bd 8c 7b 9c bd
       -0.0027843157 -0.0666382 -0.07755091 -0.07640752
0000f0 86 97 4d bc c0 4b a0 bd 19 fd ac bd 00 f4 08 bd
       -0.012548333 -0.07826948 -0.08446712 -0.03343582
000100 23 a5 b8 bc f6 c3 e6 3b 4b 83 17 bd 38 8b 98 bd
       -0.02253968 0.0070424033 -0.036990445 -0.07448429
000110 77 c1 44 bd 80 c1 90 bc e7 11 7e bd 21 fd 59 bd
       -0.048036065 -0.017670393 -0.06202879 -0.05321992
000120 f2 c8 87 bd 48 cb 82 bc b8 d1 c9 bd f7 b9 e3 bd
       -0.06630124 -0.015966073 -0.09854454 -0.11119454
000130 98 c0 04 bd 4f 79 87 bd 48 0f 75 bd 17 f0 26 bd
       -0.032410234 -0.06614935 -0.059829026 -0.04075631
000140 1b f0 ca bd 40 9e 9d bd 49 1a 44 bc b7 f5 12 bd
       -0.09909078 -0.076961994 -0.0119691575 -0.035878863
000150 21 5a 9f bd 3f 0d b4 bd 9b da 67 bd 7c 15 a4 bb
       -0.077808626 -0.08791589 -0.056604963 -0.005007444
000160 eb 40 4e bc 3c e4 e8 bc 98 be da bc 4f aa bd bd
       -0.01258872 -0.028429143 -0.02670221 -0.092609994
000170 36 11 fd bc 21 5c 7e bd 05 e0 56 bc f4 c5 81 bd
       -0.030891996 -0.06209958 -0.013114934 -0.06336585
000180 15 87 d1 bc bd 1b c8 bc f7 25 71 bd fc 1a c0 bd
       -0.025577107 -0.02442729 -0.058874097 -0.09380147
000190 fe d4 e7 bd 1e 42 de bc 83 d5 9a bd a8 8e 47 bd
       -0.11319922 -0.027131137 -0.075602554 -0.048720032
0001a0 19 60 d9 bd 5d 7c 91 bc 67 12 35 bc f6 fd 35 bd
       -0.10614032 -0.017759496 -0.011051751 -0.04443165
0001b0 27 a5 32 bd 51 0a e4 bd 6b c1 27 bb be c7 77 bd
       -0.043614533 -0.1113478 -0.0025597464 -0.060493223
0001c0 0b 77 49 bd 3c 08 07 bd ca fd 29 bd 25 01 a1 bc
       -0.049185794 -0.032966837 -0.041501798 -0.019653866
0001d0 de fa 4c bc 2a 44 08 be 0a a0 0f bd 71 b0 4e bc
       -0.012510983 -0.13307253 -0.035064735 -0.012615309
0001e0 ad ee ac bd 7f 61 5b bd 0b a1 14 bd 13 8a 7d 3d
       -0.08443961 -0.053559776 -0.036286395 0.061899256
0001f0 fe 7e 6e bd 84 f5 3c bd 4b 90 b2 bd ca 92 a7 bd
       -0.058226578 -0.04613258 -0.08718928 -0.08182295

weight f4 [128, 128]
000000 a9 6b 9d bd 4b a7 1e bd 00 31 45 ba f1 6d 85 bd
       -0.0768655 -0.03873376 -0.0007522255 -0.0651511
000010 66 a2 40 3d b2 2c a3 3c fa 92 1c 3d f8 80 2a bd
       0.047029875 0.019918773 0.038226105 -0.0416269
000020 c4 f2 bd 3c 1f aa 38 bb bd 11 40 3d 05 47 13 bd
       0.023187049 -0.0028177572 0.046891917 -0.0359564
000030 ae 1f 46 bd f2 36 95 bd 28 a2 47 bc 23 6e c7 bd
       -0.048370056 -0.072858706 -0.012184657 -0.09737804
000040 c8 2e 6d bd b5 0c 5f bd 10 0d 5c bd 9c db 08 bd
       -0.057905942 -0.054455478 -0.053723395 -0.03341256
000050 4d df 82 3c d8 4e c0 bd 74 32 87 bd 50 2e 40 bc
       0.015975619 -0.09390038 -0.0660142 -0.011729792
000060 f2 df 55 3d 04 da d2 3c be 0a 5d 3d 88 ea d4 bc
       0.052215524 0.025738724 0.053965323 -0.02599074
000070 24 18 70 bd d5 6f 8a bc ee 5b 6e 3d c7 ec c3 3c
       -0.058616772 -0.016899029 0.05819314 0.023916615
000080 62 0a 4f 3d d0 74 99 3c 27 ca 27 bd b3 6c 93 3d
       0.05054701 0.018732458 -0.040964272 0.07198467
000090 93 40 95 bd 15 d9 89 bd 6c 4e 76 bd 8c 58 85 bd
       -0.07287707 -0.06730858 -0.060133383 -0.065110296
0000a0 bb 60 97 3d 92 5e 41 3d 25 6d 85 3d b4 4b 09 3d
       0.07391497 0.04720933 0.06514958 0.03351946
0000b0 2a e8 e1 bc 60 89 95 3b 7c d8 6c 38 43 ac 81 3d
       -0.027576525 0.0045634955 5.64684e-05 0.063316844
0000c0 f2 f3 33 bd b0 80 0e 3d fc e2 ac 3c 50 d6 11 3d
       -0.043933816 0.034790695 0.021104328 0.035604775
0000d0 cb 13 58 bd e8 11 9f 3c d2 71 d7 bc 38 0e a7 bc
       -0.05275325 0.019417718 -0.026299391 -0.020392522
0000e0 79 a7 49 3d e0 0b 81 3c b0 2b aa bd 5c 2c 80 bd
       0.04923198 0.015752733 -0.08309114 -0.06258461
0000f0 27 2a 15 bd 01 80 88 3d 3c 62 ee 3c b5 ba 18 bc
       -0.036417153 0.0666504 0.029099576 -0.009321858
000100 19 46 71 bd b7 8e 52 3d 83 b7 9c 3d 80 50 25 bb
       -0.05890474 0.051405635 0.076521896 -0.0025224984
000110 38 e4 8b bc da b6 19 3d 7a ab 47 3d 88 7c 9e bc
       -0.017076597 0.037527896 0.048747517 -0.01934649
000120 cc 49 7a bd a6 b4 83 bd 00 73 51 ba 8c 75 ad bc
       -0.061105534 -0.0643094 -0.00079898536 -0.021174215
000130 45 1d 63 bd 98 2d 0a 3d 28 59 dc 3c 53 c2 b2 bd
       -0.055447835 0.033734888 0.026897982 -0.08728471
000140 72 a3 10 37 0f 0f 16 bd f5 82 9f 3b e6 7c 5f 3d
       8.621124e-06 -0.036635455 0.004867906 0.05456247
000150 16 3e 6c 3d 60 a5 8a bc 72 12 73 bd 3d ec 20 bc
       0.057676397 -0.01692456 -0.059343763 -0.009821949
000160 63 9e 01 bd 71 8b 44 bd 02 67 30 bd af 25 86 3d
       -0.03164519 -0.047984544 -0.043066986 0.06550156
000170 60 92 75 3b 20 e3 26 3d 61 e2 2f 3d 96 d4 41 bd
       0.003747128 0.040743947 0.0429405 -0.04732188
000180 00 04 bd bd 2d 9d a9 3d 18 4f 9c 3d 8e 6d 34 bd
       -0.092292786 0.08281932 0.076322734 -0.044049792
000190 42 e7 00 bd 3f 26 a9 3d 9c 67 95 3c 7e ce 05 3d
       -0.031470545 0.08259248 0.018237881 0.03266763
0001a0 4d b1 a8 bd 97 24 2d bd 6c 98 55 bd 78 ff 5e bc
       -0.082369424 -0.042271223 -0.052147314 -0.013610713
0001b0 75 41 98 3d f0 83 c6 3c d2 48 31 3d a8 75 63 bc
       0.0743436 0.024232835 0.043282337 -0.013883032
0001c0 a2 9e 18 bd 92 b4 1b bd d9 55 a1 bd 85 84 89 3d
       -0.03726066 -0.038014002 -0.07877702 0.06714729
0001d0 04 73 b4 bd c0 0d 79 bb cf 15 36 bd 5d d9 4a 3d
       -0.08811 -0.003800258 -0.044454392 0.0495237
0001e0 fc db 31 bd 31 d0 a2 3d 17 98 9c 3d 70 45 1d 3d
       -0.043422684 0.079498656 0.07646196 0.0383963
0001f0 30 3b 74 bd 39 91 5c 3d ca 2e 6d 3d 23 7b 4a bd
       -0.059626758 0.053849433 0.05790595 -0.04943384
000200 2f 7f 8a bb 78 20 29 3c 2c fb ec 3c ce 10 47 3d
       -0.0042265872 0.010322683 0.028928362 0.04860001
000210 20 68 86 bd eb d9 12 bd a1 75 aa bd 52 2c a3 3d
       -0.06562829 -0.035852354 -0.08323217 0.07967438
000220 e9 a5 8a bd 36 0c 55 bb af b6 75 bd 4d 03 8d 3d
       -0.06769926 -0.00325085 -0.059988674 0.06885395
000230 69 56 4e bd 96 f5 b0 bd 14 b7 0e 3d da 24 81 bc
       -0.050375376 -0.08640592 0.034842566 -0.015764643
000240 2c 4d 85 bc 3e 78 5e 3d b6 65 92 3c a8 c6 fb 3c
       -0.01627215 0.05431389 0.017870765 0.030734375
000250 00 56 4d 3b 32 ad 0e bd 4a 84 1b bd 9b 1a f8 3c
       0.0031331778 -0.03483314 -0.037967958 0.030286124
000260 02 ec 9c bd b3 fe 97 bd cc 29 8a 3c 04 94 57 bd
       -0.076622024 -0.07421627 0.016865633 -0.052631393
000270 0c ad 08 3d 82 f8 63 bd 70 ed 47 3c aa 0a 5a 3d
       0.033368155 -0.055656917 0.012202606 0.053232826
000280 f2 52 b1 3c c0 f4 32 bd 8c 0c a9 bd fd 80 1c bc
       0.021645997 -0.043690443 -0.08254346 -0.009552238
000290 66 d4 1e 3d 5e a4 b0 bd ee 84 d1 bc 87 25 00 bc
       0.038776778 -0.086251006 -0.025576081 -0.007821447
0002a0 08 19 4b bc 42 1b 3a 3d 25 7d ae 3c 2b 21 67 bd
       -0.012396105 0.04543615 0.021299908 -0.056428116
0002b0 88 c5 59 bc 69 ae 96 bd 58 b6 74 bd 5c 54 a9 3d
       -0.013291724 -0.07357485 -0.05974421 0.082680434
0002c0 70 44 97 3c d2 0b 0a bd 68 0e a8 bc f7 aa b3 bd
       0.01846525 -0.03370268 -0.020514682 -0.08772843
0002d0 db 34 66 3d 57 4b 5c bd 00 c4 37 3c ff 4b ad bb
       0.05620275 -0.053782787 0.011216164 -0.0052886005
0002e0 df fe 9f 3c 1a d0 1b 3d bd dd ad 3d 2f 0b 9e bc
       0.019530712 0.038040258 0.08489559 -0.019292442
0002f0 4d ca e7 3c a0 6a ac 3c b0 1b 11 bc a4 1e 69 3d
       0.028294707 0.021046937 -0.008856699 0.056913987
000300 de e5 3e 3d d6 9d 74 bd ef 98 28 bb 9a 73 14 bd
       0.046605937 -0.059720837 -0.002572592 -0.03624306
000310 ac b7 02 3d 36 59 c8 3c 7c 17 fd bc dc df 16 bd
       0.031913444 0.024456602 -0.030894987 -0.036834583
000320 12 de 87 3a 20 bc 2a bd 6a e0 94 bd 84 13 36 bd
       0.0010365865 -0.041683316 -0.07269366 -0.044452205
000330 a4 1e 18 bd 5a dc c4 bc 50 6c a4 3b 48 8b be 3c
       -0.037138596 -0.024030853 0.0050177947 0.023259774
000340 6e e2 1b 3d 84 2c a0 3d 16 6f 83 3d 20 35 0d bc
       0.038057737 0.07820991 0.06417672 -0.008618623
000350 02 02 7e 3d d2 42 1d 3d f6 ac 96 bd d0 bd 91 bd
       0.062013634 0.038393803 -0.073572084 -0.07116282
000360 b7 00 35 bd 04 75 cc bc ee 8a 69 3d 00 f4 5c bb
       -0.044190135 -0.024958141 0.05701726 -0.0033714771
000370 91 da 39 bd a0 1c ec bc 15 4c 38 3b 80 f2 ce 3c
       -0.045374457 -0.028822243 0.002812152 0.025262117
000380 e0 ef 82 3b dc b4 80 3c 0e 7e a6 3d 91 7a ca 3d
       0.0039958805 0.01571124 0.08129512 0.09886659
000390 14 91 ae 3c 5f f7 57 bc ca b4 0f bd 5d 3e 0b 3b
       0.021309413 -0.013181536 -0.035084523 0.0021246888
0003a0 67 ec d6 3c b6 3c 87 3d 40 d3 7f bd c7 45 ae 3d
       0.026235772 0.066033766 -0.062457323 0.08509403
0003b0 08 7f 87 3c 00 5a ca 3c a1 7b 40 bd 19 09 a6 bd
       0.016540065 0.024701118 -0.0469929 -0.08107204
0003c0 30 76 a5 bd fa 74 6d bd eb 17 dc bd 8e de 5c bd
       -0.08079183 -0.057972886 -0.107467495 -0.053923182
0003d0 aa 8e 7f 3d 2e 02 18 3d 34 81 04 bd 17 ce 9a bd
       0.062391914 0.037111454 -0.03234978 -0.0755884
0003e0 aa e1 02 3d 3a cd a5 3d 1b 9b 62 bd 6d ef d1 3b
       0.03195349 0.080957845 -0.0553237 0.0064067156
0003f0 07 f1 97 3d 00 b2 b1 bd c0 83 90 3d 1c ad 4a bd
       0.07419019 -0.08676529 0.07056379 -0.049481496
