snapshots/model.pt (torch, 340346 bytes, 13 tensors)

weight f4 [128, 2]
000000 5e a7 08 bf bf 28 59 bf ae a8 b5 be 86 19 f9 be
       -0.5338038 -0.848278 -0.35480255 -0.48652285
000010 78 b7 83 be f4 96 41 3e 46 42 d7 3e de a8 ea 3e
       -0.25725913 0.1890524 0.4204275 0.4583196
000020 23 4a 95 be 72 1c b8 be f8 f9 35 bf f5 c2 14 3f
       -0.29158124 -0.35959202 -0.7108455 0.5810998
000030 79 14 3e bf d7 c4 0c 3f 9f 9f 0d 3f 22 cf c3 3e
       -0.7424999 0.54987854 0.5532169 0.38243967
000040 58 c3 37 be 20 7f c8 3c 0a c5 aa bf 0c bb dd bf
       -0.17945611 0.02447468 -1.3341382 -1.7322707
000050 38 80 40 3e 98 26 f7 bd 5c 7f aa 3e 20 c9 19 3f
       0.18798912 -0.12067908 0.33300292 0.6007252
000060 f4 14 76 3e 3e da 82 be 76 99 bc 3e 9c bf 4c be
       0.2403143 -0.2555713 0.3683583 -0.19994968
000070 86 ee c4 be c0 42 2c bc e5 92 e2 bc f3 2d 26 bf
       -0.3846323 -0.010513961 -0.027657935 -0.6491386
000080 c2 57 e2 3e d2 7f dc 3e f2 b0 ef 3e bc 61 30 be
       0.4420758 0.4306627 0.46814686 -0.17224783
000090 74 18 2f 3f 81 0d 27 bf c6 32 8a 3d cb 04 0b 3f
       0.6839669 -0.6525498 0.067479655 0.5430419
0000a0 e7 3c 30 bf c8 d1 c9 3e 13 df a9 be 4c 35 0d bf
       -0.6884293 0.39417863 -0.33178005 -0.5515945
0000b0 0d de 1f 3f cb e0 83 bf 08 1e 8c 3d 3b 12 a8 be
       0.624482 -1.0302976 0.068416655 -0.3282641
0000c0 6d 20 9e be 51 ed 8c bf 09 66 74 3e 69 9c 8c bf
       -0.30884114 -1.1009923 0.23867048 -1.0985233
0000d0 ae 21 eb be 1c b1 1a bf 84 70 f0 3e b2 09 e2 be
       -0.45924133 -0.604265 0.46960843 -0.44148022
0000e0 ed 5d 1f 3f ab 48 01 bf 48 16 d0 be 65 63 85 3f
       0.62252694 -0.5050151 -0.40642 1.0420958
0000f0 c3 94 94 be 05 d4 da bf fa 4a 90 bc 11 7f 44 bf
       -0.29019746 -1.7095953 -0.017613877 -0.7675639
000100 30 f0 de 3d 8d c9 b0 be cc c6 a7 3e b9 6d e0 be
       0.10885656 -0.3452877 0.32768857 -0.43833712
000110 b8 02 ef 3e 4a ea 35 bf 51 0b 7c bf 9c f3 3c 3f
       0.46681762 -0.7106062 -0.9845477 0.7380922
000120 50 cf 82 bf 4e bf 0f 3f e1 33 a6 3e de a1 36 bf
       -1.0219517 0.5615128 0.32461455 -0.7134074
000130 93 52 1f bf 48 95 19 3e 22 50 c7 3e 80 48 31 bd
       -0.62235373 0.14998353 0.38928324 -0.043282032
000140 39 b5 f2 3e 9d ae 7d 3f 45 3a ea be f9 1d 7a 3e
       0.47403887 0.99094564 -0.4574758 0.24425496
000150 22 b2 d5 3e d6 88 22 bf bd 62 97 be 51 70 11 3f
       0.41737467 -0.63490045 -0.2956752 0.56812006
000160 e0 37 a9 3d d9 78 13 3f dd 6f 03 bf a0 3d 0c 3e
       0.082626104 0.57606274 -0.51342565 0.13695383
000170 84 4d 73 3e 20 40 aa bd b4 8d 1d 3e f0 c7 a2 3d
       0.23760039 -0.08313012 0.15386087 0.07948291
000180 d8 7d 77 3e 42 76 f6 3e 98 c7 d2 be b8 d2 bb bd
       0.241691 0.481371 -0.41167903 -0.09171051
000190 d2 07 b6 3e ab 6d 27 bf bd c5 0c 3f a1 a7 9e bf
       0.3555284 -0.65401715 0.54989225 -1.2394906
0001a0 c2 ee 89 be 97 cd 0f 3f 23 03 33 bf b4 7f 02 3e
       -0.2693997 0.5617308 -0.6992666 0.12744027
0001b0 a2 5a d7 3e 5f f8 81 be d6 80 1a bf 8d ba 94 be
       0.42061335 -0.25384805 -0.6035284 -0.29048577
0001c0 0e 5c d8 3e e7 c7 fa be 80 aa 04 3f a7 a6 93 bf
       0.42257732 -0.48980638 0.5182266 -1.1535233
0001d0 cf b8 f8 3e 20 70 1e bf ea 0c a8 be 1f ab 2e bf
       0.48578498 -0.6188984 -0.32822353 -0.6822986
0001e0 50 b9 c6 3e df 62 de bb bf 44 2e 3f 86 d1 fd be
       0.38813257 -0.0067866887 0.6807365 -0.49573916
0001f0 0b 1c f8 be 9b 4b 20 3f 3d 40 c5 be 6a 3c 95 3e
       -0.48458895 0.62615365 -0.38525572 0.29147655
000200 08 b3 29 be d0 a8 8f bd 3e 55 bc 3e e8 64 ac 3d
       -0.16572201 -0.0701462 0.36783785 0.08417684
000210 86 24 94 3e ee f8 a2 3e fb 3d 0f bf f6 c9 c7 3e
       0.28934115 0.31830543 -0.5595395 0.3902127
000220 5e 01 31 bf e0 80 0a bf ba 87 1a 3f b8 c3 d0 3e
       -0.6914271 -0.541029 0.6036335 0.40774322
000230 23 f0 8c bf 25 df 38 3f 75 a1 89 bd 75 98 0e bf
       -1.1010784 0.7221549 -0.067202486 -0.5570138
000240 11 b4 13 bf 44 68 17 bf 45 81 d0 be 05 a4 8d 3e
       -0.57696635 -0.5914347 -0.40723625 0.276642
000250 38 fa 42 3e 65 c6 e0 be 49 37 33 be 33 43 20 bf
       0.19040763 -0.43901363 -0.17501558 -0.6260254
000260 22 1e 28 bf a6 d5 e4 3e 35 95 20 3f 13 82 0e 3f
       -0.6567098 0.4469425 0.6272767 0.5566723
000270 bf d9 f4 bd 87 35 4b bf 20 9c 3a bd d2 9b b1 3e
       -0.11955594 -0.7937855 -0.04555905 0.34689194
000280 d7 32 15 3f 72 7b 96 3e 99 f5 13 3f 1c 5e 20 be
       0.582807 0.29391056 0.5779663 -0.156609
000290 f7 8c 31 3f be 29 a6 be 30 16 ba 3d 32 c8 d0 3e
       0.6935572 -0.32453722 0.09086263 0.40777737
0002a0 70 26 4c 3e 40 e1 9f bd 9e 70 c6 3e 81 5c 25 3f
       0.19936538 -0.07806635 0.38757795 0.64594275
0002b0 67 9d 76 bf 53 de 9d 3e 37 45 f9 3e 65 7b 57 be
       -0.96333927 0.30833682 0.4868562 -0.21043165
0002c0 c6 e6 f1 be e8 8d ee be 60 5b c5 be 1f b2 9e 3e
       -0.4724638 -0.4659264 -0.38546276 0.3099527
0002d0 40 23 68 3c 1f d8 06 3f 2c 49 a4 3e 69 c3 04 3f
       0.0141685605 0.52673525 0.32087076 0.5186067
0002e0 6f 93 98 be 7e 38 c1 bf b0 4c 4c bd ee f2 b0 be
       -0.29799983 -1.5095365 -0.049877822 -0.3456034
0002f0 6d de 5a bc 56 88 6c bf 06 1a 06 3e fc c9 57 bf
       -0.0133586945 -0.9239553 0.13095865 -0.8429258
000300 43 da 12 3f 20 c2 a6 be 84 61 2d be fb ed b7 be
       0.5736429 -0.3256998 -0.1693173 -0.35923752
000310 78 ca ab 3e e0 73 5c be 6f b1 32 bf a2 05 23 bf
       0.3355291 -0.21528578 -0.6980199 -0.6368047
000320 9f bc cf be c3 69 0d bf d3 c2 a6 3e e4 dd 85 3e
       -0.40573594 -0.55239505 0.32570514 0.26145852
000330 b7 8e a2 be 69 17 b5 bf c0 e5 01 be 36 8e 61 3f
       -0.31749508 -1.4147769 -0.12685299 0.8810762
000340 f7 00 27 bf a3 8f 38 bf 78 72 09 3f bb f7 c6 be
       -0.6523585 -0.7209417 0.5369029 -0.38860878
000350 b6 46 28 bf e7 81 16 3f 93 3e 17 bf 32 97 d8 3e
       -0.65732896 0.58791965 -0.59079856 0.42302853
000360 39 0f 29 3f 24 eb 5a be 1e 4c e4 be 3f ed 88 be
       0.6603885 -0.21378762 -0.44589323 -0.26743504
000370 20 e7 38 be 02 c9 d2 be f6 97 2d bf e8 8b 34 bf
       -0.18056917 -0.41168982 -0.6781 -0.7052598
000380 1b 2b 91 3e 71 c7 8a 3d 70 82 91 bd 5c 98 0f be
       0.283532 0.06776322 -0.07104957 -0.14022964
000390 04 c2 68 3e 30 80 fe 3d 23 1a 8a 3e f0 77 7f bf
       0.22730261 0.124267936 0.26973066 -0.99792385
0003a0 dd c9 f6 3e d1 46 34 bf fb 05 9e bd dd ca 37 bf
       0.48200884 -0.7042056 -0.077159844 -0.7179392
0003b0 b2 b9 98 be a0 a9 0a bf b6 ad 84 3e 2d fa 22 3f
       -0.29829174 -0.5416508 0.2591378 0.6366299
0003c0 e0 de d6 bc c6 61 06 bf 5d b8 e2 be 68 df 41 be
       -0.026229322 -0.5249294 -0.44281283 -0.18932879
0003d0 f5 62 c0 3e f9 94 c1 bf 83 0c 2b 3f d8 4e 22 bf
       0.37575498 -1.5123588 0.66815966 -0.63401556
0003e0 01 19 d4 be fa 8d 01 bf 26 47 a5 3e 0f fc 27 bf
       -0.41425326 -0.50607264 0.32280844 -0.65618986
0003f0 bf 32 12 bf c0 1d ba 3e 47 1e b8 be 40 cc c6 3c
       -0.5710868 0.36350822 -0.359606 0.024267316

bias f4 [128]
000000 53 9f 02 3f 09 b9 9e 3e 8d 3f e1 be cc 50 ce be
       0.5102436 0.31000546 -0.43993798 -0.40296018
000010 1d 2f b2 be 65 08 35 3c ee 2d 87 bb 87 4c 8b be
       -0.3480157 0.011049365 -0.0041253483 -0.27206823
000020 ab 1d 07 bf bd 73 cc 3d b0 07 b1 be bf 0f 9a be
       -0.52779645 0.09983013 -0.34576178 -0.30090138
000030 00 76 d6 bb d8 77 47 be 68 2e d0 bd 5c de 8d 3e
       -0.0065448284 -0.1947931 -0.10165101 0.2770871
000040 1d 59 28 bf a3 eb 0f bf 5a af 0c 3d 71 00 1e 3c
       -0.65760976 -0.5621893 0.034346916 0.00964366
000050 d7 6c 9f 3d 1f f6 9b 3e f7 17 26 3e f5 5f bb be
       0.077844314 0.30461213 0.1622008 -0.36596647
000060 ec 18 07 3f e3 69 ae 3e 72 9d dd 3e d0 67 47 3c
       0.527724 0.3406516 0.43284184 0.012170747
000070 c8 48 dc be 64 a4 e9 3b df ea 8f 3e 8f 3c a0 3e
       -0.43024278 0.0071301926 0.2810888 0.31296203
000080 d1 ca 89 be d1 61 87 3d 39 4d 9c 3d e2 eb 4a 3d
       -0.2691255 0.06610454 0.076319166 0.04954136
000090 fd d9 dd 3d 4f 2d 55 3e 48 a0 7f be e8 7c 2f be
       0.108325936 0.20818065 -0.24963486 -0.17137492
0000a0 d3 54 30 3c 6d 7b 52 3d fe 29 30 bf f6 c8 cd 3c
       0.010762411 0.05138724 -0.68814075 0.02512024
0000b0 d0 b2 1c bf 71 7a 00 bf 98 10 33 bf 0d 8f 1e bf
       -0.61210346 -0.5018683 -0.69947195 -0.6193703
0000c0 46 db 2a bf d4 e4 26 be 70 15 1b be f6 1b c2 3e
       -0.66740835 -0.16298229 -0.15144897 0.37911958
0000d0 80 6f 9e 3e 78 e3 6f be ed a9 5d bd b1 ce c7 be
       0.30944443 -0.23426616 -0.054117132 -0.3902488
0000e0 70 48 bd bd 31 25 99 3e 7a fe 91 3d c0 d6 c6 3e
       -0.09242332 0.29911187 0.07128616 0.38835716
0000f0 ff 9f 0b be 70 20 95 bd 9c 0e c2 bd f5 db d2 be
       -0.13635252 -0.072815776 -0.09475443 -0.4118344
000100 a8 48 86 bd fc 65 34 be b5 2d b1 be eb 04 9f bb
       -0.06556827 -0.17617029 -0.34605184 -0.004852881
000110 66 32 6d be 40 23 97 be 34 94 a4 3d 02 a8 7f 3e
       -0.23163757 -0.2951908 0.0803608 0.24966434
000120 d0 38 e8 3e 8b 93 e2 bb 08 af 35 be 5d 1d de 3e
       0.45355844 -0.006914561 -0.1774255 0.43381777
000130 f0 e1 7c bd 7a af 1c bf b7 a9 02 3e 3a a5 56 be
       -0.06173891 -0.61205256 0.12760054 -0.20961466
000140 f7 2a 2e bf a4 60 15 be 59 b4 fc be 14 1b 2c bf
       -0.6803431 -0.14587647 -0.49356344 -0.6722882
000150 48 30 bb bd 70 05 23 bf 7a 58 ee 3d 8a 83 bc bd
       -0.09140068 -0.6368017 0.11637969 -0.092047766
000160 24 4a f3 be 35 84 58 bc 98 5f 09 bf 8f 17 89 be
       -0.47517502 -0.013215114 -0.5366149 -0.26775786
000170 00 82 82 3e d0 cf e7 be 9b 6f 0d 3f 09 bc 83 3e
       0.25489807 -0.45275736 0.5524842 0.25729397
000180 99 a1 b7 be 7c c0 ee 3d 21 69 ab bd 1b 32 29 bf
       -0.35865477 0.11657807 -0.08369661 -0.6609208
000190 33 47 ad 3e fe 46 65 be c5 ef 77 3e 8f 6b 10 3e
       0.33843383 -0.22390363 0.24212559 0.1410353
0001a0 bb 49 f6 3e 53 26 23 bd 60 fe 8c be e2 9d 79 be
       0.48103127 -0.03983147 -0.27537823 -0.24376634
0001b0 0a f0 cc be 88 7d 71 3e bc a1 35 be 43 2f e4 be
       -0.40026885 0.23583043 -0.17737478 -0.44567308
0001c0 7f 44 f8 bd 52 51 82 be 58 30 19 bf 76 75 ee 3e
       -0.121224396 -0.25452667 -0.5983939 0.4657399
0001d0 63 eb 9d 3d ed c6 92 3e 3a 30 96 3e eb 57 c5 be
       0.07710912 0.28667393 0.2933367 -0.3854364
0001e0 18 2d 33 be 24 c4 6e be ff 77 2c 3e a0 08 39 be
       -0.1749767 -0.23317009 0.1684265 -0.18069696
0001f0 b0 96 11 bf 67 0d e5 be 85 02 43 3e de 3c 7e be
       -0.56870556 -0.44736788 0.1904393 -0.24827906

weight f4 [128, 128]
000000 bc c5 87 3e aa 58 b3 3d 48 c0 41 bd e6 98 3a 3d
       0.26518047 0.08757146 -0.047302514 0.04555597
000010 4c 5f ad bc 44 41 8d be 59 1e 07 bd e3 26 73 be
       -0.021163605 -0.27588856 -0.032987926 -0.23745303
000020 4f 6d 62 bd 8a 4d 86 3e 87 1a 35 bd 63 88 15 be
       -0.055280026 0.26231033 -0.04421475 -0.14602809
000030 00 68 e4 3c d5 01 1c bd b0 0b ba 3b e7 18 72 3e
       0.027881622 -0.038087685 0.005677663 0.23642312
000040 c4 8a e0 3c 40 01 9e 3c 46 bb a2 3e 29 f9 26 be
       0.027409919 0.019287705 0.31783503 -0.16305985
000050 25 04 92 bd f3 33 66 3e ec 88 b1 3e 32 e6 29 3d
       -0.07129697 0.22480755 0.34674776 0.041479297
000060 d2 fd 0a 3e 95 93 83 3e a5 6f 83 3d e4 e5 40 3e
       0.13573387 0.25698534 0.06417779 0.18837696
000070 30 4d 61 bc 0c 93 83 be 73 b5 ff 3e 94 4c 5d 3e
       -0.013751313 -0.25698125 0.49943122 0.21611243
000080 0f 54 ad 3d fb b3 ba 3d 18 ad 3f 3e ea d0 df be
       0.084632985 0.0911636 0.18718374 -0.43714076
000090 57 13 62 bd b3 90 dd 3d ae 4e 53 3d 9a 7c ad bd
       -0.055194225 0.10818615 0.051588707 -0.084710315
0000a0 ea a4 81 be 25 63 fc bb 56 05 78 3d 06 6a 98 bd
       -0.25321132 -0.0077022486 0.060551964 -0.07442097
0000b0 fa 5e 6b 3d 40 6b 20 bc e0 5f 11 3c 80 9c 78 bc
       0.057463624 -0.009791195 0.008872956 -0.015174031
0000c0 e1 1c aa 3d db aa a4 bd 58 ac c4 3c 2d 0a 32 3e
       0.083062895 -0.080404006 0.024007961 0.17386694
0000d0 e2 43 f0 bc 3d c0 97 3d cd 73 63 3d 38 6d db 3c
       -0.029329244 0.074097134 0.055530358 0.026785478
0000e0 d0 5d 79 bc 63 d7 62 3e fb 3c 00 3e 44 08 59 3e
       -0.015220121 0.22152476 0.12523262 0.2119456
0000f0 58 eb 7a 3d bc 59 40 bd ff 85 a0 bd 12 81 2a 3d
       0.061259598 -0.046960577 -0.07838058 0.041626997
000100 b0 31 d7 3c 3a b4 3b 3d 2c 22 a6 bc 6e 71 05 be
       0.02626881 0.045826174 -0.020279966 -0.13031551
000110 f4 42 42 bd cc 4f 13 be 6d c4 10 be 32 7d 47 3e
       -0.047427133 -0.14385909 -0.1413743 0.19481352
000120 69 f8 ae 3d 6d 5e dc 3c aa fc 81 bd dd fa b1 3c
       0.08543474 0.026900494 -0.0634702 0.021726066
000130 bc 8d f3 3c c9 33 90 3d 45 89 ed 3d 52 0b 7b 3d
       0.02973067 0.07041127 0.11598448 0.061290093
000140 36 cf 61 3d f6 c7 30 bd 4f fb 90 3d 0e 42 35 3d
       0.055129252 -0.043159448 0.07079183 0.044252448
000150 4b f5 9b bd 00 ea 3a bc 21 37 59 bd 81 f3 86 3d
       -0.07615145 -0.011408329 -0.05303109 0.065894134
000160 63 e7 6a bd b0 ed cb bd 38 ae 4f 3c 77 c9 78 bd
       -0.057349574 -0.09957445 0.012675814 -0.060739007
000170 ea ff 0b 3f 00 4f 80 39 e9 42 50 3d 08 45 44 3e
       0.5468737 0.00024472922 0.05084506 0.19166958
000180 de 93 39 3d 2f 1d ad 3d 22 37 2f bd c0 cd c4 3a
       0.045307033 0.08452832 -0.042777188 0.0015014932
000190 50 62 5a 3e d5 6f ec bc 6c 4a ce 3e dd ee 4b bd
       0.21326566 -0.02886192 0.40291154 -0.049788345
0001a0 1f 0c a8 3d 3c ac 7e bd 56 d9 4b 3d 2b 4c 82 3d
       0.08205437 -0.062175974 0.049767815 0.06362184
0001b0 30 9a 4a 3c be 6c 35 3d 88 d9 64 3c ff 19 92 3d
       0.012365863 0.044293158 0.013967879 0.071338646
0001c0 c5 aa 22 bd 39 12 b3 bd 7a ac 8d bd 73 8a 04 3e
       -0.03971364 -0.0874371 -0.06917663 0.12943439
0001d0 55 fd 20 3e c4 37 13 3e 29 eb c8 3c a0 d7 77 bc
       0.15721639 0.14376742 0.024526196 -0.015127093
0001e0 c6 fc ff bc c4 45 d5 bc 9f cf ee 3e b5 68 8d 3d
       -0.031248461 -0.026034243 0.46642777 0.06904737
0001f0 40 4c 5e bc 74 94 c2 bc 53 3d 8c 3c 88 74 87 bc
       -0.013567984 -0.023752429 0.017119085 -0.016535059
000200 c6 a3 2d 3d 30 c3 2f bc 30 ab c0 bb c1 86 25 bd
       0.042392515 -0.010727689 -0.005879782 -0.040411714
000210 85 9b 4a bd c4 76 c6 3c a2 0b 4c 3d 3e bc 3f 3d
       -0.04946472 0.024226554 0.04981578 0.04681038
000220 c0 31 c9 ba f7 f6 aa 3d 80 38 e2 3a a2 2b 31 3d
       -0.001534991 0.08347886 0.001725927 0.043254502
000230 80 46 15 3d 67 c0 2c bd 20 1e c8 bc fa 1d 62 3d
       0.036444187 -0.042175677 -0.024428427 0.05520437
000240 ae db 84 bd d2 33 f8 bc 1c d5 ef bc 2a ef 6a 3d
       -0.06487213 -0.030298147 -0.029276423 0.05735699
000250 00 ad 30 bd 30 29 7b bc 8a 01 4a 3d d5 a8 80 3d
       -0.043133736 -0.015329644 0.049317874 0.06282202
000260 bf 25 ae bd e0 3e 4b 3c 64 74 c0 bc e0 f8 e6 bb
       -0.08503293 0.012405127 -0.023493 -0.007048711
000270 04 75 a5 bd be db d9 bc 3d 26 26 bd 30 b5 69 bd
       -0.080789596 -0.026594039 -0.04056381 -0.05705756
000280 54 4b 44 bd 55 28 75 bd a0 9f b9 bc 57 e1 a5 bd
       -0.0479234 -0.059852917 -0.022659123 -0.08099621
000290 68 be 8c bd dc 8b 83 bd 92 70 ae bd 3c 0e 8f bc
       -0.068722546 -0.064231604 -0.08517565 -0.017462842
0002a0 de ea 20 3d c1 4a 93 3d 40 cf f4 3c 9f 36 14 bd
       0.039286487 0.071919926 0.02988398 -0.036184903
0002b0 b7 35 a1 3d 98 d1 9e bd 30 cd 0c 3d d8 fd 30 bc
       0.078715734 -0.077548206 0.03437537 -0.010802709
0002c0 78 a7 21 bc f6 56 26 3d 7a 2d 3b bd a0 ee c9 bc
       -0.009866588 0.040610276 -0.045697667 -0.024649918
0002d0 70 f0 42 bd 80 ee a1 bd 42 d5 51 3d 20 25 c4 3b
       -0.04759258 -0.079068184 0.05122877 0.005985871
0002e0 68 3b 03 3c 0c 17 f9 3c 1e 2d 72 3d 00 5a 97 3c
       0.008009769 0.030406497 0.05912506 0.018475533
0002f0 48 9e 32 3c 20 df 46 bc 38 af 22 bd 6d 50 9a 3d
       0.010901995 -0.012138158 -0.039717883 0.07534871
000300 80 ac ea bc a4 db ec bc c2 70 47 3d 39 d5 a8 bd
       -0.028646708 -0.028913327 0.04869152 -0.08243794
000310 60 40 14 bd 99 83 61 bd 80 10 12 3b 80 d8 02 3c
       -0.036194205 -0.055057142 0.0022287667 0.007986188
000320 50 3e 8c 3b d0 ef a6 bc 5f 2f 3c bd 06 e8 32 bd
       0.004279889 -0.020378023 -0.045943614 -0.043678306
000330 00 ac 0c b9 c3 b8 aa 3d ba 66 2e 3d 80 72 3f bb
       -0.00013415515 0.08336022 0.042578436 -0.0029212534
000340 3d 52 af bd 76 c3 6f 3d 58 13 9c bd f3 98 b1 3d
       -0.085606076 0.058536015 -0.07620877 0.08671751
000350 50 60 41 bd 3e f3 58 3d 82 95 85 bd 64 ed db bc
       -0.04721099 0.05296635 -0.06522657 -0.026846595
000360 6f 65 96 bd 78 66 02 bc 08 dd f2 3c 21 4c 19 bd
       -0.07343566 -0.007959001 0.029646412 -0.037426118
000370 73 56 1f bd 96 d5 e8 bc aa 37 18 3d ce f3 4d bd
       -0.038900804 -0.028422158 0.03716246 -0.05028134
000380 97 04 6f bd 78 10 a4 bd 68 9c 8c bd d6 f3 36 bd
       -0.058353987 -0.08010954 -0.068657696 -0.044666134
000390 20 76 fa 3c d2 cf 78 3d 09 09 7d bd 4b 00 9c 3d
       0.030573905 0.060745068 -0.061776195 0.076172434
0003a0 bd 9e 9c bd bc e2 51 bd 28 67 1d bc c5 76 44 bd
       -0.076474644 -0.05124162 -0.009607114 -0.04796483
0003b0 80 3e 8d 3c c3 bf 8f 3d e5 42 b0 3d 90 38 71 bc
       0.017241716 0.070189975 0.08606509 -0.014722958
0003c0 60 63 63 bb 73 bd 28 bd c0 16 9f 3c ba 06 f2 bc
       -0.0034696683 -0.041196298 0.019420028 -0.029544223
0003d0 87 1e aa bd 6c 42 b0 bc c2 4a 71 3d 80 d0 00 ba
       -0.08306604 -0.021516047 0.058909185 -0.00049138814
0003e0 0b 9e 87 3d 03 70 24 bd 58 07 99 3c 9c c0 8c bc
       0.06621941 -0.040145885 0.01868026 -0.017181687
0003f0 34 f9 9e bd 0e 4f 86 bd c4 7b b9 3c 4c f5 9c 3c
       -0.077623755 -0.06558047 0.022642024 0.019159935

bias f4 [128]
000000 80 ff 12 3e 62 bc af bd 28 f4 05 bc 2b d6 9c bd
       0.14355278 -0.08580853 -0.008175887 -0.07658037
000010 58 e0 c5 3d e9 d4 f5 3c 3c d4 b7 bc 93 42 83 bd
       0.09661931 0.03000875 -0.022440068 -0.064091824
000020 ab 14 f7 bd 4c 12 9c bd 2f 53 28 3d 48 70 9a bd
       -0.12064489 -0.07620677 0.041094955 -0.07540947
000030 30 3f 3d 3b 2e 5b c3 bd 77 eb 16 bd 8c 4d c1 bd
       0.0028876774 -0.095388755 -0.03684565 -0.09438619
000040 45 71 81 3d d6 ed e8 bd 2b 0b 0c 3b ad 1f 54 3d
       0.063204326 -0.113734886 0.0021368961 0.05178802
000050 80 e2 d7 bd 5b 4f 81 bc af 71 44 bd 0d 36 cd bd
       -0.10541248 -0.01578491 -0.04795998 -0.10020075
000060 29 1f 43 3b c6 7b 03 bd 00 0b 3a bc 33 ed 1e 3c
       0.0029773212 -0.03210046 -0.011355162 0.009700107
000070 42 66 4e bd ce cf 7d bd 18 26 04 3d 89 c2 3f bc
       -0.05039049 -0.061965756 0.03226289 -0.011704096
000080 3f 62 12 3d da e1 53 bd 36 ce ac bb c1 8c 78 3d
       0.035738226 -0.05172906 -0.0052736057 0.06068111
000090 c5 d3 88 3d 64 54 de bc 35 f6 8b bd a4 cf 19 bd
       0.06681017 -0.02713985 -0.0683407 -0.037551537
0000a0 5f ab 97 bd 5b e7 9b bd fe 84 bf bc be ed 9c bc
       -0.07405733 -0.07612487 -0.023378845 -0.019156333
0000b0 6a da 66 bd 8e f0 ef bc a3 40 2d 3d d4 94 33 3d
       -0.05636064 -0.02928951 0.04229797 0.043843105
0000c0 7f 23 45 3d d0 98 35 bd e2 71 52 bd 11 da 6a bc
       0.048129555 -0.044335186 -0.05137814 -0.014334218
0000d0 9c 0d e3 3c 8f 49 04 3d 0f f2 e5 3d 2f 81 80 bc
       0.02771645 0.032296713 0.1122781 -0.0156866
0000e0 f6 92 16 3d 8e 29 3b bd 7b 1d 15 bd 85 a5 7f 3c
       0.036761247 -0.045693927 -0.036405068 0.015603428
0000f0 2b 83 99 bd f9 61 1e bd 18 44 c7 bd 1b a5 a8 bd
       -0.074957214 -0.038667653 -0.09729785 -0.08234616
000100 8f 61 7e 3c 0f b1 1d bd d2 08 ae bd 7a df 2d bd
       0.0155261895 -0.038498934 -0.08497776 -0.042449452
000110 1d c2 7f 3d 5c 6c ed bc 80 4e 82 bd be bb db 3d
       0.06244098 -0.028982334 -0.06362629 0.10729168
000120 36 ec a2 bd 3e 05 22 3d 65 f6 1d bd 2f 2e d5 bd
       -0.0795521 0.03955578 -0.03856506 -0.104091994
000130 55 82 45 bc 2a 26 14 3d 44 c4 a1 bd c0 97 3b 3d
       -0.012054999 0.03616921 -0.07898763 0.045799017
000140 6a e5 c7 3d d0 bc 60 3d 03 57 a9 3c f7 78 41 3d
       0.09760554 0.054867566 0.020671373 0.0472345
000150 9e f5 29 3d fc 48 8b bd 6c 6e 95 bd ed 14 23 3d
       0.041494004 -0.0680103 -0.07296452 0.03981488
000160 e1 f8 e3 3c 5d c5 f0 b9 ea 84 1f bd 68 dc 89 3c
       0.027828636 -0.00045923414 -0.038945116 0.01682873
000170 5d 36 12 3d 28 6a e7 3c 50 b2 c8 bc c5 1f a4 bd
       0.035696376 0.028248861 -0.024499089 -0.08013872
000180 d1 5a 31 bd 5a c6 90 bd 40 34 f1 3b 5d f1 2c 3d
       -0.0432995 -0.070690826 0.007360965 0.04222237
000190 2e 36 1c 3d 20 11 8e 3b 3b 80 3f 3d 30 53 c6 bc
       0.038137607 0.0043355376 0.04675315 -0.024209589
0001a0 01 92 9e 3b 89 ee 87 bd 41 6d a0 bd 00 c4 82 b9
       0.0048391824 -0.06637294 -0.078333385 -0.00024941564
0001b0 fa b9 bc bd 37 db 31 bc 9b a2 a0 bd 02 7c 88 bd
       -0.0921516 -0.010855488 -0.078435145 -0.066642776
0001c0 03 c5 8d bd ba 84 51 bd 75 a1 06 bd a9 6a ba 3c
       -0.06922343 -0.05115197 -0.03286882 0.022755938
0001d0 24 55 93 bc b7 3c 02 be 9a 42 46 bd d1 26 96 3c
       -0.017984934 -0.12718473 -0.04840336 0.018329056
0001e0 8d 8d 8b 3c 54 f1 b0 3c 65 e5 7e 3d fa af f4 3c
       0.01703527 0.02159945 0.062230486 0.029869068
0001f0 05 e4 96 3d a1 98 85 bd 7f 7b 0c bd 43 39 b6 bd
       0.0736771 -0.06523252 -0.034297463 -0.088976406

weight f4 [128, 128]
000000 4a ff 98 3c e7 af aa 3d 02 87 0a bd 0f 43 a1 3d
       0.018676419 0.08334332 -0.03382016 0.078741185
000010 16 7e d6 bd a8 e2 a0 3c 21 b5 92 3d 78 64 01 3c
       -0.10473268 0.019639328 0.07163454 0.007897489
000020 d8 0b 86 bd 79 06 03 bc 54 95 f0 bc 18 1b 8b bd
       -0.06545228 -0.007997149 -0.02936808 -0.06792277
000030 17 14 36 bd d2 fe 68 3d de 5d 48 bd 4a fd 22 bd
       -0.044452753 0.05688364 -0.048917644 -0.039792337
000040 ec af 32 3c 70 90 5a 3d 3e f0 58 bd 8c 2b 80 3c
       0.010906201 0.053360403 -0.052963488 0.015645765
000050 bc b2 85 bd 10 85 10 3c 5d c2 a6 3d a3 39 05 bd
       -0.065282315 0.008820787 0.081425406 -0.03252567
000060 6c 1b 94 bc 3a 8f 9f bd b0 ee b9 bc 07 5b a7 3d
       -0.018079482 -0.0779099 -0.022696823 0.08171659
000070 b3 ca 9a bd 87 5b 94 3d a9 7d 30 bd 4c c0 7c bd
       -0.07558193 0.0724402 -0.04308859 -0.061706826
000080 13 b9 a1 bd b4 a0 ad 3c 82 f3 23 bd 17 15 ec 3c
       -0.07896628 0.021194793 -0.04002715 0.02881865
000090 0e a4 16 3d 4a 4c 3b 3d 61 34 a5 3d 06 fc 60 bd
       0.03677755 0.04572705 0.08066631 -0.05492785
0000a0 4f 13 81 bd 91 a5 9e bd 0a de 07 bd f5 03 b3 3d
       -0.06302511 -0.07746423 -0.033170737 0.08740989
0000b0 0f 02 b5 bd 30 d3 08 bd d3 b2 3a 3d bf fb 5c bd
       -0.08838283 -0.03340453 0.045580696 -0.05395102
0000c0 10 4e b5 bc fa 9e 5b 3d 6b aa d0 bc 49 4a 36 bd
       -0.02213195 0.05361841 -0.025471887 -0.044504438
0000d0 8d 43 ac 3d 10 07 b0 bd f6 74 8c bd 2b 2b 32 bb
       0.08411322 -0.08595097 -0.06858246 -0.0027186375
0000e0 aa f9 36 3d b5 99 00 bd 5e 2e 56 3d fb 9c 00 bc
       0.044671692 -0.031396586 0.052290313 -0.007849927
0000f0 30 90 c2 bc b8 ac 5f bc 04 c9 d7 bc c3 6d a8 bd
       -0.023750395 -0.013652019 -0.026340969 -0.082240604
000100 f8 6d 50 bc 28 26 b9 3c 4b bb 5f 3d 20 63 69 bb
       -0.012721531 0.022601202 0.054621976 -0.0035612062
000110 4c cf 6c bd 4e 8e 9b bd 9e b3 46 3d ee 87 0f 3b
       -0.05781488 -0.07595502 0.04851114 0.0021901089
000120 08 ae 00 bc d2 b1 44 3d 87 40 b2 bd a1 ef 62 3c
       -0.007853992 0.048021145 -0.08703714 0.013851077
000130 fa 71 26 3d 4a e6 17 3d 01 e3 ad 3d 40 df 5a bd
       0.04063604 0.037084855 0.08490563 -0.053435564
000140 ab 25 0a bd 0c f0 1c 3c 0c dc f3 bc 60 e1 d0 bc
       -0.03372733 0.009578716 -0.029768012 -0.025498092
000150 ae bc ba bd 76 e6 6e bd 0a 2b e8 bc de 89 79 3d
       -0.09118019 -0.058325253 -0.028340835 0.060922496
000160 88 56 35 bd 66 32 64 bd b0 ad 29 3c 7c ed 86 3c
       -0.044271976 -0.055712126 0.010356352 0.016470663
000170 0e 1a 15 3d 6a ff 8a bd 4e 1c 5f bd 21 45 b0 bd
       0.0364018 -0.067869976 -0.054470353 -0.08606935
000180 3f 96 1e bd ea 63 24 3d ea a5 42 3d a1 6d ae 3d
       -0.038717505 0.040134348 0.04752151 0.08517004
000190 38 78 0b 3c a6 2c 75 3d ba ef 67 3d d9 70 a5 3d
       0.008512549 0.059857033 0.056625105 0.080781646
0001a0 73 68 9a 3d 01 5b 03 bc 39 39 61 bd a9 68 89 bd
       0.07539453 -0.0080173025 -0.054986212 -0.067094155
0001b0 3c fd 8e bc 7f 78 27 bc 80 a9 41 bd d2 22 fe bc
       -0.017454736 -0.0102216 -0.04728079 -0.031022463
0001c0 b8 5c 2d 3c 6e e2 28 bd b4 99 0b 3d 0a bc 9d bd
       0.010581188 -0.041231565 0.03408213 -0.07701881
0001d0 87 35 90 3d 30 99 9e 3a 71 fa b2 3d 60 9f 21 3d
       0.070414595 0.0012100097 0.08739174 0.039458632
0001e0 5f 8e 3b bd fb ae 81 3d a1 42 80 bd e6 85 a0 bd
       -0.045790073 0.06332203 -0.062627085 -0.07838039
0001f0 aa 0b 29 3d 86 bc 93 bd 0b 77 97 3d e0 2c 98 bd
       0.04127089 -0.07213692 0.073957525 -0.07430434
000200 29 86 f9 bd 7c 59 af bd 2d 67 89 bd b0 23 72 bd
       -0.12183792 -0.0856199 -0.06709132 -0.059116066
000210 1b 72 67 bc 31 e0 f1 bb 66 5f 10 3d 10 a0 f2 bc
       -0.014126326 -0.007381462 0.03524723 -0.02961734
000220 56 1a a9 bd 02 e9 a2 bc 75 9f 42 3b 0f 36 89 bd
       -0.08256976 -0.019886497 0.0029697095 -0.06699764
000230 53 18 be bd 63 87 89 bd 75 6f ab 3d be 50 20 bd
       -0.09281983 -0.06715276 0.08370868 -0.0391395
000240 37 0c fe 3a c6 08 77 bd 90 ff 30 3a 0c 3f d1 bc
       0.0019382302 -0.0603111 0.0006751949 -0.025542758
000250 68 be ac 3c c6 d9 9c bd 43 b3 ae 3d cc af 7a bd
       0.021086887 -0.076587245 0.08530285 -0.06120281
000260 6c d8 a7 3c 10 82 b3 bd e9 1d a0 3d 3c 76 83 bd
       0.02048894 -0.08765042 0.07818205 -0.06419036
000270 5a 33 6d 3d 66 9a 07 bd 29 7d 8d 3d f6 a4 43 3d
       0.0579103 -0.03310623 0.06908638 0.04776474
000280 76 26 6d bd 7c d8 86 bd 6a ef e7 bd 21 de 6c bd
       -0.057898007 -0.0658426 -0.113249615 -0.057829026
000290 34 f1 ff 3c c0 1c dd bb b8 69 5d bc d0 5c 44 bd
       0.031242944 -0.006747812 -0.013513975 -0.047940075
0002a0 01 88 14 bd 8c 4a a0 3d 2f da 90 bd 25 7b 97 3c
       -0.036262516 0.07826719 -0.07072865 0.018491337
0002b0 ad 82 9c bd 5b d5 a5 3d de fe 90 bd 36 a4 86 bd
       -0.07642112 0.08097335 -0.07079862 -0.065742895
0002c0 68 fe 61 3c 80 1b e8 ba bd 34 a1 bb 26 c9 3a 3c
       0.013793565 -0.0017708391 -0.004919617 0.011400497
0002d0 47 4f 46 bc 30 ec af bd 29 ec 04 be c8 06 d0 3d
       -0.012103862 -0.08589971 -0.12980713 0.101575434
0002e0 d8 df b2 bc 1c 9d a6 3d fa af 2d bd c1 06 7e 3d
       -0.021835253 0.08135435 -0.042404152 0.06201816
0002f0 9d 3a b3 bd ea 40 23 bd d5 19 82 bd af ee a6 bd
       -0.08751414 -0.03985683 -0.06352583 -0.08150994
000300 11 d0 b4 bd 40 e5 0d bb 92 79 59 bc d1 21 8c 3d
       -0.08828748 -0.0021651536 -0.0132736135 0.068423875
000310 21 94 51 ba d8 89 a4 bc a3 a0 9f 3d 71 34 59 bd
       -0.000799479 -0.02008526 0.07794311 -0.053028528
000320 78 9e ea 3c 26 1d 5a bd c8 37 8e bd 25 8a f6 bc
       0.028640017 -0.053250454 -0.06944233 -0.03009517
000330 12 6b 03 3d a7 97 02 bd 5c 86 b4 bc 83 94 dd 3c
       0.032084532 -0.03188291 -0.022036724 0.027048355
000340 20 ca 49 be e6 dd 0a bd 03 55 97 bd 70 0a 9e 3b
       -0.19706011 -0.033903025 -0.073892616 0.0048230216
000350 3c 79 27 bd 02 f1 d4 3c 1f 32 8e 3d 9d f2 07 3d
       -0.040887102 0.025993828 0.069431536 0.03319036
000360 38 1e 61 bc cd 21 a1 3d d7 9d 5d bd 78 5b 70 3c
       -0.013740115 0.07867775 -0.054105606 0.014670245
000370 52 9f af bd 1f 9c 2b be e6 64 b1 bd 63 6e 2c bd
       -0.0857531 -0.16758774 -0.08661823 -0.04209746
000380 88 ab 95 bc b4 76 73 bd c0 93 65 bc 5e 94 66 3d
       -0.018270269 -0.059439376 -0.014012277 0.056293838
000390 fe 26 b2 3c fb c9 84 bd ad 2c 58 bd ae ac a7 bd
       0.021747109 -0.06483837 -0.05277698 -0.08187233
0003a0 bc b5 27 bc 14 68 a6 bd 98 1d 86 3c 8f 11 85 bd
       -0.0102362 -0.0812532 0.016371533 -0.0649749
0003b0 d3 d0 53 3d f8 f4 6a 3d 00 d2 f9 39 c2 ad 89 bd
       0.051712822 0.057362527 0.00047649443 -0.06722595
0003c0 8c 2e b4 3c 5b b0 65 3d a0 6e 8e bd 13 5c 08 bd
       0.021994852 0.05607639 -0.06954694 -0.033290934
0003d0 db 19 95 3d 9b db 33 bc 4b 4b 88 bd 99 68 ef bc
       0.07280322 -0.010977651 -0.06654986 -0.02922468
0003e0 b9 30 c6 bb c0 eb a3 bd 5b 1f a0 bd bf 4b 85 bd
       -0.0060482887 -0.0800395 -0.078184806 -0.06508588
0003f0 fc 24 9f bd 0e 67 97 3d aa c7 2e bd ac 7e 79 3d
       -0.07770726 0.07392703 -0.042670883 0.06091182

bias f4 [128]
000000 a1 bb 3a bd 67 0e 25 bd 59 c8 dc ba cc cd b5 bc
       -0.045589093 -0.04029694 -0.0016844376 -0.022192858
000010 43 75 88 bd 73 8a a6 bd 6d 09 31 bd 2e ae 13 bc
       -0.06662991 -0.08131876 -0.04322188 -0.009013696
000020 57 42 20 bd 31 57 00 3e e1 7b 62 bd 09 27 a2 3c
       -0.039125767 0.12533261 -0.05529392 0.019794004
000030 76 c0 56 3d a8 ca b4 bc 51 40 e9 3c d8 93 d1 bc
       0.05242964 -0.02206929 0.028473051 -0.025583193
000040 fc f9 f1 bd b8 77 24 3c 27 a4 e5 bc bb 29 52 bd
       -0.11815259 0.010038309 -0.028032375 -0.05130933
000050 9a 89 62 bc eb 39 c5 bd e5 21 26 bc 30 e9 3c bd
       -0.013826752 -0.096301876 -0.010139917 -0.046120822
000060 2d 9f 5d bd 78 f1 30 bd cd 06 2c bd 30 51 df 3c
       -0.05410688 -0.043199033 -0.041998673 0.027260393
000070 f3 13 8e bb d6 88 a5 bd 08 17 76 bd a9 c7 cb 3c
       -0.004335874 -0.0808274 -0.060080558 0.024875479
000080 41 d1 00 3b e9 f4 b2 bd 14 72 90 bd 17 bf 9a bc
       0.0019655975 -0.08738119 -0.07053009 -0.018889947
000090 5e 4b 27 bd da 23 59 bd de 21 1a bd 0e 6b 12 bd
       -0.04084336 -0.053012706 -0.037629955 -0.035746627
0000a0 7b 80 16 bc 59 a5 cf bd 04 4e fe bc 34 29 51 3c
       -0.009185906 -0.101389594 -0.03104306 0.012766171
0000b0 f1 33 cf bd 25 26 c4 bd e4 a6 e6 bd 89 e0 75 bd
       -0.10117329 -0.09577588 -0.112623006 -0.060028587
0000c0 72 21 34 bd 1c 31 0b be a1 b5 ea bc c0 67 2e bd
       -0.04397721 -0.13592952 -0.02865106 -0.042579412
0000d0 51 b3 97 bc 6b b5 23 3a c1 8d 81 bd 5c fc 21 3d
       -0.018518122 0.000624499 -0.063258655 0.03954731
0000e0 e0 7a dd 3d 20 a4 71 bc 8b 5b a8 bc 0e a7 57 bd
       0.10814452 -0.014748603 -0.020551464 -0.05264955
0000f0 ab d1 d6 bd 67 ed 45 bc b5 cb d7 3b 32 9b 12 be
       -0.1048921 -0.012080527 0.006585563 -0.14317015
000100 f1 2b 93 bd e3 88 56 3c 47 9a 81 bb bf 7b 44 3c
       -0.071861155 0.01309416 -0.003955159 0.011992394
000110 fa 0d ae bc b6 0c 12 3d 61 61 aa 3b ca f6 92 bd
       -0.021246899 0.035656653 0.0051995968 -0.071759775
000120 3f b2 3c bc 8d e5 6f bd 6e 51 44 bd 9b 6e cf bc
       -0.011517107 -0.058568526 -0.04792922 -0.025321295
000130 39 5d ee bc 6c 48 85 bc f7 3f b2 38 cc cc 80 bc
       -0.029097186 -0.016269885 8.499616e-05 -0.015722655
000140 55 32 2f bd 83 56 af bd 4c bd d3 bd 50 dc b9 bb
       -0.04277261 -0.08561423 -0.1033884 -0.0056720152
000150 54 37 c6 3c 22 1b 90 bb 6b 24 99 bc f0 8e 81 bd
       0.024196304 -0.0043977657 -0.018694123 -0.06326091
000160 db 54 20 bc 70 86 9d bd 02 8e 4a bc 61 81 dd 3b
       -0.009785856 -0.076916575 -0.012362959 0.006759808
000170 57 71 58 bd c9 04 c3 3d 0d ae 2f bd 38 ca 9c 3d
       -0.052842464 0.09522397 -0.042890597 0.07655758
000180 e5 38 0e bd 20 8c 71 bd 62 4c 16 bc 89 59 2f bd
       -0.034722228 -0.058971524 -0.0091734845 -0.042809997
000190 09 85 25 bb f3 a7 33 bc 60 48 34 bd 25 cf 8e 3c
       -0.0025256297 -0.010965335 -0.044014335 0.017432759
0001a0 bb a5 2a bd 0d 5a d1 3a 1b 5c bb bc 2c 22 07 bd
       -0.04166196 0.0015972272 -0.022871068 -0.032991573
0001b0 48 ac ba bc 8d 6f f9 bb 92 1e 2e bd 27 bb e9 bd
       -0.022787228 -0.007612175 -0.042509623 -0.114126496
0001c0 f8 40 d0 bd 01 5d a1 bd df 48 5f bd 45 cd 7d bd
       -0.10168642 -0.07879067 -0.054512855 -0.06196334
0001d0 19 2b 1d 3b cc 0b 00 be d5 b7 a5 bc d7 c1 da bc
       0.0023981987 -0.125045 -0.02022926 -0.026703758
0001e0 1e 0b 9c bd e6 4a d3 3c 27 81 8c 3b 82 67 61 bd
       -0.07619308 0.02579255 0.004287857 -0.055030353
0001f0 43 ec 86 bd a3 d7 bf bd 64 99 aa bc 54 d3 61 bb
       -0.06588032 -0.09367301 -0.020825095 -0.0034458237

weight f4 [128, 128]
000000 75 36 80 3c 43 81 e4 bc b9 e3 b2 3c 26 42 54 3d
       0.015650967 -0.027893668 0.021837102 0.051820897
000010 3c c5 a7 3d 7e ee 0a 3d 34 62 3f bd aa 59 88 bc
       0.08191916 0.03391885 -0.046724513 -0.016644318
000020 ad 0f ec bd a0 eb 49 3d 3f 25 37 3d 64 30 f8 3c
       -0.115264274 0.049296975 0.044713255 0.030296512
000030 f0 d9 6f bd e9 93 0c bd 87 9a ee 3b 75 ed 9c 3c
       -0.05855745 -0.034320746 0.0072816047 0.019156197
000040 3c 14 c6 3c f6 c9 8e bd dd c2 bc 3b e1 00 a6 3b
       0.02417957 -0.06972115 0.005760534 0.0050660227
000050 81 c6 f0 bd 49 eb 5f 3c 5f 70 65 3d be 34 34 bd
       -0.117566116 0.013666936 0.05601537 -0.04399561
000060 ab 8a 14 bd f2 d0 00 3b ab 48 d1 bd 00 d6 b0 bd
       -0.036265057 0.001965579 -0.102189384 -0.08634567
000070 da e9 83 3d 6c b2 ab 3c ac 97 14 3c a5 32 e3 3c
       0.06441088 0.020959102 0.0090693645 0.02773411
000080 94 8b b4 3d 41 b6 13 bd 25 da b7 bd c0 27 4a 3c
       0.08815685 -0.036062483 -0.08977155 0.012338579
000090 c3 63 21 be 8a b6 45 3d 7f 9e 6a bd bc 1b c9 3c
       -0.15760712 0.048269786 -0.05728006 0.024549358
0000a0 63 08 94 3c 5e 0f 76 bd 9e b0 07 3d 87 a3 df 3c
       0.018070405 -0.06007325 0.03312742 0.027299656
0000b0 c2 28 18 3d 75 7a e4 b9 71 4a bb bc b9 9c 8f bd
       0.037148245 -0.00043578786 -0.022862645 -0.07012314
0000c0 77 88 6a 3d 5a c3 90 bd bc 0f 71 bd da 82 5b 3d
       0.05725905 -0.0706851 -0.058852896 0.053591587
0000d0 48 46 0c be a7 37 04 be 85 e7 0d 3d 73 b0 1e bd
       -0.13698685 -0.12911855 0.034644622 -0.038742494
0000e0 0a 5c 4e bd 3d c0 e5 3a 60 7c 6f 3d 8a ef a4 3b
       -0.050380744 0.0017528605 0.058468223 0.005033438
0000f0 e8 24 23 bc c2 6a 93 bd 22 fa 51 3d 15 84 ce bc
       -0.00995753 -0.07198097 0.051263936 -0.025209466
000100 57 c0 a2 3d 0a f1 bf 3a 46 d5 67 3d cc 22 78 bd
       0.07946842 0.0014643979 0.056599878 -0.06058006
000110 e0 a8 82 bd d9 72 06 3d 9c f5 34 3c 21 50 b5 3c
       -0.063798666 0.03282437 0.011044886 0.022132935
000120 07 ba 92 3b 62 13 85 3d 7e 01 25 bd 28 10 30 bd
       0.0044777426 0.064978376 -0.040284626 -0.042984158
000130 5f 90 00 be 7c de 00 3d 73 fd 94 bd a3 5a a3 bc
       -0.12555073 0.031462178 -0.07274904 -0.01994068
000140 6c cb 35 3d 7a 91 20 3d eb ce 41 3b 60 b4 c0 bb
       0.04438345 0.039201237 0.0029572796 -0.0058808774
000150 d7 0e 3b bd f8 5b 8a 3d 56 66 4f 3d f0 48 78 3c
       -0.04566845 0.06755823 0.050634705 0.015154108
000160 28 6f 72 3b fc 47 da bc 78 24 ab bb f5 96 97 bd
       0.0036992524 -0.026645653 -0.0052228533 -0.0740184
000170 9f c0 ec bd 7b 1a 99 bd 47 fc 0c 3d 97 2d f9 3b
       -0.11560177 -0.07475754 0.034420278 0.0076043117
000180 6f 32 33 bd d7 58 5a 3d 67 1a 96 3d df 6e 7e bc
       -0.04374927 0.05330738 0.073292546 -0.015529363
000190 fa 44 1c ba d9 80 ea bc f8 d0 a0 bd b4 a7 4d bd
       -0.0005961206 -0.028625892 -0.078523576 -0.050208762
0001a0 61 d3 49 3d 3b f8 15 3d 3e fa aa 3c 0e 60 88 bd
       0.049273852 0.036613684 0.020871278 -0.06658946
0001b0 8a ad 22 be 74 3f 8b 3a c4 b3 04 3d c0 a5 a5 bc
       -0.15886512 0.0010623769 0.032398 -0.020220637
0001c0 35 b4 3f 3d 40 1f 58 3a 42 d1 8a bd 30 1f d7 3d
       0.04680272 0.00082444027 -0.06778194 0.105039954
0001d0 18 f5 75 3d cd e6 19 be 3c 9c 02 3d f6 23 be bd
       0.060048193 -0.1502945 0.031887278 -0.09284203
0001e0 a0 78 9a 3d 15 1b 96 bd 75 60 9a 3d c4 9d 2c bd
       0.07542539 -0.07329384 0.07537929 -0.042142645
0001f0 60 54 6e 3d 04 d7 cf 3c 85 e3 b4 3d 20 e3 17 3d
       0.058185935 0.025371082 0.088324584 0.037081838
000200 ab 77 ba bd da 35 11 3c b6 24 be 3c 60 7e 1a 3c
       -0.09104856 0.008862937 0.023210865 0.009429544
000210 08 90 80 bd 22 b3 dd 3c 6b f4 ad bd 6f cc 9a 3d
       -0.06277472 0.027062956 -0.08493885 0.07558524
000220 2c ee b8 bd a9 7d 00 bd f5 bb 36 3d 1c cf 76 3d
       -0.09029803 -0.03136984 0.044612844 0.06025611
000230 26 1a fa bd 07 e7 4c bd 50 15 92 bd 31 1e 8e 3d
       -0.12212019 -0.050025012 -0.07132971 0.06939352
000240 35 cc d0 3c 91 c8 de bd 5e 6c b1 3d 55 c3 97 3d
       0.025487999 -0.10878099 0.086632475 0.074103035
000250 ef 1e ae bd 45 d1 9a bd 0b 5a 4f bd 55 bd 6e bd
       -0.08501994 -0.07559446 -0.05062298 -0.05828603
000260 d0 58 c8 3b 88 72 c5 bb 4f 57 aa 3d 64 58 62 bd
       0.006114103 -0.006025616 0.08317434 -0.055260077
000270 dd 9d 81 bd a0 0e bb bb da de 3c bc be fc 1a bd
       -0.06328938 -0.0057085305 -0.011527741 -0.03783869
000280 48 1a 97 3d 65 61 ae bd 57 bc e8 bc 1b 06 42 bd
       0.073780596 -0.0851467 -0.02841012 -0.047369104
000290 b9 04 71 3c 06 0d 6f bd 30 e3 b4 3c 20 73 07 bd
       0.014710599 -0.05836203 0.022080988 -0.033068776
0002a0 d3 73 1e bb a2 bd 99 bd 30 c0 c7 bb d2 ad 43 bd
       -0.0024177923 -0.07506873 -0.0060959086 -0.04777319
0002b0 40 76 79 bc 2a 62 8e 3d 36 84 27 bd c9 de 8e 3d
       -0.015225947 0.06952317 -0.04089757 0.06976087
0002c0 f0 5d b3 bc 00 31 46 3d c7 4c 4d bd e8 31 e2 3c
       -0.021895379 0.048386574 -0.05012205 0.027611688
0002d0 62 cd 27 bd b3 49 50 3d 74 b3 6e 3d 78 30 b8 bd
       -0.040967353 0.050851535 0.05827661 -0.0899362
0002e0 7d ca 17 be e3 c1 4e 3d 4d 73 18 bd 6c e5 b6 bd
       -0.14823337 0.050477874 -0.037219334 -0.089304775
0002f0 ae d4 28 3d 42 3a ba 3d 9a 01 d6 bd 2d 1a a7 3c
       0.041218452 0.09093143 -0.10449524 0.020398224
000300 91 fd 6a bd eb 36 85 3d ff 26 b5 bd 53 4c 17 bd
       -0.057370726 0.065046154 -0.088453285 -0.036938023
000310 9c f0 a8 3c 5f ad aa 3d 44 e3 c6 3d a4 5c c5 bc
       0.020622544 0.08333849 0.09711316 -0.024092026
000320 0c 00 de 3b 7e d8 6c bd 39 0b 0f bd a6 ab 64 bd
       0.006774908 -0.05782365 -0.034922812 -0.05582776
000330 93 0a 0f bc e7 84 89 ba 24 f6 7a bc 11 e5 f4 3c
       -0.008730548 -0.0010491878 -0.015317474 0.029894384
000340 3c 7d 87 3d 22 82 81 bd 71 8c 5c bd e5 9d 0e bd
       0.066156834 -0.06323649 -0.053844873 -0.03481855
000350 5f d5 3d bd 74 40 db bc 8d 54 79 bd ef f9 9b 3d
       -0.046346065 -0.026764132 -0.06087165 0.076160304
000360 40 1d a6 3d 60 de d5 3b ea f6 41 bd e0 8c 8d 3b
       0.08111048 0.0065267533 -0.047354616 0.004319772
000370 8e aa 9c 3c 3a a4 63 bd e1 ad d8 ba ea cb 23 be
       0.019124296 -0.05557654 -0.0016531312 -0.15995756
000380 40 a5 79 3c f2 4a 08 3d bf 5c a9 bd dd cb a3 3d
       0.015237153 0.0332746 -0.08269643 0.07997868
000390 a3 e4 88 3b f2 b5 35 3c 85 0f 5d bc 77 7c ec bc
       0.0041776462 0.011090742 -0.01349247 -0.028867943
0003a0 62 56 91 bc eb 8e c6 bc 05 6d b9 bd b7 b3 43 3d
       -0.017741386 -0.02423807 -0.09053997 0.04777881
0003b0 4a 8f 90 bd 1e 6f c1 bc e2 69 89 bc b8 b3 ab 3d
       -0.0705858 -0.023612555 -0.016774122 0.08383888
0003c0 c4 87 8c bd f3 c7 a6 3d 40 97 81 3c 34 f6 ac bd
       -0.06861833 0.08143606 0.015819192 -0.08445397
0003d0 ab d6 52 3d 51 42 87 3d 11 f5 00 bd c5 e8 36 3d
       0.051474255 0.06604446 -0.031483714 0.04465558
0003e0 09 b4 84 3d 72 21 5b 3d 6a 7c 94 3d 1d 62 88 3d
       0.064796515 0.053498693 0.072502926 0.066593386
0003f0 25 dd 05 bd 02 f2 6b 3d 99 64 8c bd fe 93 12 bd
       -0.032681603 0.057603844 -0.06855125 -0.035785668

bias f4 [128]
000000 cf 5b 24 3a 66 5c 60 bd f0 ea f4 3c a5 77 3c 3d
       0.0006269784 -0.054775618 0.029897183 0.04601254
000010 34 fc 23 bd 28 ad 8e bc 7a a3 de bb 77 5c 82 bd
       -0.04003544 -0.017416552 -0.0067943903 -0.063652925
000020 03 ad 95 bb cd dc 10 bd 19 af 8f ba 02 7d d7 bd
       -0.0045677437 -0.035366822 -0.0010962217 -0.1052189
000030 b9 1f 65 bd 4d c3 25 bd 47 80 c4 bd ae 69 f7 bc
       -0.055938456 -0.040469456 -0.095947795 -0.03020176
000040 5d 67 78 bc 86 73 01 3d 29 08 c4 bd 5f 34 a8 bc
       -0.0151613625 0.031604312 -0.09571869 -0.020532785
000050 55 94 8e bd bc 52 e0 bb a4 c0 8b bd 07 18 73 bc
       -0.06961886 -0.0068458 -0.06823853 -0.0148372715
000060 c4 70 da bc 0e 10 00 bd 46 aa 4f bd 7b 02 05 be
       -0.026665099 -0.03126531 -0.050699495 -0.12989227
000070 bf e0 7a bd 57 a1 4d bd 50 29 17 bd 91 67 3e 39
       -0.06124949 -0.050202694 -0.036904633 0.00018158394
000080 e7 5f 36 bb 1f 1b 4a bd 9e 1d 29 bb 5a 31 19 bd
       -0.0027828158 -0.04934227 -0.0025805007 -0.03740058
000090 ee af 7e 3c d5 e1 9c bc 10 ec 3c bd f1 5f af bc
       0.015544875 -0.019150654 -0.046123564 -0.021408053
0000a0 e3 08 1d bd 64 59 20 bd 11 ef bc bd 7c 3c f0 bc
       -0.038338553 -0.03914775 -0.09225286 -0.029325716
0000b0 78 04 9c ba f5 7c 98 3b 35 19 13 bd 6d 6d ac bb
       -0.0011903187 0.004653568 -0.03591271 -0.005262068
0000c0 cd 81 99 bd d3 fd 50 bd 9c 7e 81 3c f6 26 ff bc
       -0.07495461 -0.051023316 0.015807442 -0.031146508
0000d0 8f 69 8b bd 36 f0 bc bd 84 1d 18 bd 23 9c 83 bc
       -0.06807243 -0.09225504 -0.037137523 -0.016065663
0000e0 48 7a 1c bd 75 25 91 bd 25 08 12 bd 5f 1c c9 bc
       -0.038202554 -0.070872225 -0.0356523 -0.024549661
0000f0 eb d8 cc 3b 42 5c 00 bd 2b f0 b3 bd bc 32 b1 bd
       0.0062514446 -0.031337984 -0.08786043 -0.08652255
000100 42 92 7b bd a8 4f 99 bd e2 bc 1b bd 9f 08 2f bd
       -0.06141878 -0.07485896 -0.03802193 -0.04273283
000110 f0 1c cb bd 18 5b 4c bd 1e 34 8c bc b3 db e2 bd
       -0.09917629 -0.04989156 -0.017114695 -0.110770606
000120 60 ab d1 bc 06 fc d6 bd 96 93 1b bd 08 0e 1c bd
       -0.025594413 -0.104972884 -0.037982546 -0.03809932
000130 93 28 2c bd 9d fe 56 3c 27 ab 23 bd 72 b7 0e bd
       -0.042030882 0.013122228 -0.039958145 -0.034842916
000140 ee de b9 bd b9 32 9c bd 60 66 6f bd ed 7a 96 bd
       -0.090757236 -0.07626862 -0.05844724 -0.07347665
000150 ac d2 a4 bd 53 19 bf bd ac 3a ce bc 86 a3 0f bc
       -0.08047995 -0.09331002 -0.025174461 -0.008767014
000160 02 1a d2 bd f7 8a 10 bd 7b 62 fc bd 45 70 a5 bd
       -0.10258867 -0.035288777 -0.12323471 -0.08078054
000170 f7 e0 5a 3d 79 7d 0a 3c 22 de 48 bc fd 2f b1 bd
       0.0534372 0.008452767 -0.012259992 -0.08651731
000180 ed 7f d4 bd 7c c5 fa 3c e9 8f 1a bd 15 78 03 be
       -0.103759624 0.030611746 -0.0377349 -0.12838776
000190 8a a7 46 bc 72 04 8b bc c8 00 0f bb ad 33 32 bc
       -0.012124905 -0.016969893 -0.0021820534 -0.010876578
0001a0 be 30 da bd f0 0e 8e 3b ef 32 f4 bb ce 67 63 3b
       -0.10653828 0.004335277 -0.007452361 0.0034699324
0001b0 71 1a 22 bd f4 f9 0f bd f3 fe c4 bd 56 f6 0b bd
       -0.039575998 -0.035150483 -0.0961894 -0.03417047
0001c0 3b 43 39 bc 3c f3 c7 bc 15 37 af bc 3c 19 c9 bd
       -0.011307533 -0.024407975 -0.02138857 -0.09819266
0001d0 54 39 9c 3b 15 4e b4 bd dd 26 74 bd 35 14 17 bc
       0.004767576 -0.088039555 -0.059607375 -0.009221126
0001e0 11 97 36 bc 07 c4 1d bd 71 49 e3 bd 72 30 50 bc
       -0.0111444155 -0.038517024 -0.11097992 -0.012706863
0001f0 3a ad e6 3c 81 7d 54 bd fc 66 03 3c a0 ae dd 3b
       0.028158773 -0.051877502 0.008020159 0.0067652017

weight f4 [128, 128]
000000 84 8e 0a 3d f9 91 78 3d be 90 bc bd 46 b8 81 bd
       0.03382732 0.060686085 -0.09207295 -0.063339755
000010 66 a7 67 3d 9c 97 54 bd 11 c9 ad bd 30 a3 67 3c
       0.056556128 -0.0519024 -0.08485616 0.014138028
000020 a3 fe a0 3c 1a cd ee bb df 2c 40 bd 22 9a 18 3c
       0.01965267 -0.0072876336 -0.046917792 0.009314092
000030 64 3d 54 bd 2a 8d 4e bd 4d 07 16 bd bd 85 8e 3d
       -0.05181636 -0.050427593 -0.036628056 0.06959102
000040 88 06 b9 3d 66 a7 c1 bd c0 2f d1 bb f9 7f 22 3d
       0.09034449 -0.09455757 -0.006383866 0.039672825
000050 eb 77 8e 3d fe a3 df bb 50 63 a7 bd 8a ca 28 bd
       0.06956466 -0.0068249693 -0.08173239 -0.04120878
000060 51 8e a3 3d 6d 5c 95 bd e0 08 b3 bd 56 9d 99 3c
       0.07986129 -0.072930194 -0.08741927 0.018751781
000070 44 70 fa 3c 2f 37 ac bd 76 2f ed bd 9d 99 e9 bd
       0.03057111 -0.08408963 -0.11581318 -0.114062525
000080 c6 35 9c bd b2 49 94 3d 27 c8 55 bc 3b 2c 71 bd
       -0.07627444 0.07240619 -0.013048208 -0.058880072
000090 99 a7 3b 3d 88 bc 8f 3d 3b cf 12 bd 62 5e 0b 3d
       0.04581413 0.07018381 -0.03584216 0.034025557
0000a0 ef 83 2a bc 5c ea 68 bd 80 22 42 ba 22 b4 85 bd
       -0.010407432 -0.056864128 -0.00074056536 -0.06528498
0000b0 a7 da b3 bd b8 f5 96 bc 37 53 45 3d 03 94 d7 bd
       -0.08781939 -0.018427715 0.048175063 -0.10526278
0000c0 1b 61 3b bd ea 56 21 bd 4a 1a ef 3c 60 11 cd bd
       -0.045746904 -0.03938953 0.02918734 -0.1001308
0000d0 22 d5 97 3c a4 12 87 3c 3b e3 d5 3d 19 3b 8e bd
       0.018534247 0.01648838 0.104437314 -0.06944866
0000e0 2d 6d 77 bd 28 32 6e 3d 30 62 f0 3c 37 be ba bc
       -0.060406853 0.0581533 0.029343694 -0.02279578
0000f0 d8 a1 15 bd 4e 6c 16 bd 83 1d ad bd 39 84 e1 3c
       -0.0365313 -0.03672438 -0.084528945 0.027528869
000100 e0 b2 d7 3c 24 4d 92 3c 85 cc d9 3d 86 74 45 bc
       0.026330411 0.01785905 0.10634712 -0.012051707
000110 cb fe ef bd cf 52 82 3d c6 19 95 3d df 72 91 3d
       -0.1171852 0.06363451 0.072803065 0.07101988
000120 40 7a df 3a e7 ee 88 3d 33 ed 72 3d eb 88 85 bd
       0.0017049983 0.06686192 0.059308242 -0.06520256
000130 38 32 1e 3d c0 ca eb 3b ea e3 99 3d ae 72 8b 3d
       0.03862211 0.0071958005 0.07514174 0.06808983
000140 8e 8f 0a 3d ca 00 6b 3d b3 84 e3 bc b7 7f 68 bc
       0.03382831 0.0573738 -0.027773237 -0.014190606
000150 00 29 a1 3c b3 4d 3f 3d a0 ef 0e 3d 52 41 70 bc
       0.01967287 0.04670496 0.034896493 -0.014664011
000160 8b 89 7b bd aa 39 6c 3d c2 51 8d bd 06 96 48 3d
       -0.061410468 0.05767218 -0.0690036 0.0489712
000170 b7 62 f3 bd c0 12 c5 3c 2b 61 72 bd 98 0b ad 3c
       -0.11884063 0.024056792 -0.059174698 0.021123692
000180 1f dd a3 3d 24 d1 19 3d 77 37 9e 3b 09 d8 a1 bd
       0.0800116 0.037552968 0.0048283893 -0.079025336
000190 ef 20 b1 bd e0 35 ae 3b 2f b0 e8 bd 3b 26 9f 3d
       -0.0864886 0.005316481 -0.11361729 0.07770964
0001a0 a8 30 b8 3c cd e7 80 3c 69 a1 9f bd 0b 69 1a 3d
       0.022484139 0.015735531 -0.077944584 0.037697833
0001b0 15 cf 36 3d 7a 03 50 3d d8 13 87 3c dd 02 f2 bd
       0.044631083 0.050784566 0.016488954 -0.118169524
0001c0 c7 39 a0 3c 64 21 73 bd fa df cb 3c c4 45 8c bb
       0.0195588 -0.059358016 0.024887074 -0.0042807776
0001d0 94 d2 22 bd dc 2d 9e 3c a2 28 80 bd 88 c4 df bc
       -0.039751604 0.019308977 -0.0625775 -0.027315393
0001e0 50 e9 f1 3c b4 c1 0b 3d 56 7a 02 3d 04 88 77 3a
       0.029530197 0.034120277 0.03185495 0.000944257
0001f0 e6 2f 65 3d 10 b8 3a bd 50 81 8e bd b5 b0 bb bd
       0.055953883 -0.045585692 -0.06958258 -0.091645636
000200 ac 2b f4 bb ee 78 a2 3d da 2e 87 bd 35 95 15 bc
       -0.007451495 0.07933222 -0.06600733 -0.009129812
000210 79 e5 73 bd ff a3 cb bc e2 f3 84 bc d1 67 21 bd
       -0.059545014 -0.024858473 -0.016229574 -0.039405648
000220 57 92 55 3d 38 71 24 bc 61 67 7f bc 73 be 26 3d
       0.052141514 -0.010036759 -0.015588612 0.04070897
000230 c8 4e 85 bc 72 b5 52 3d 4c de c7 3c 9e b8 78 3d
       -0.016272917 0.05144257 0.024397992 0.06072294
000240 a2 37 34 3d 24 88 e8 bc f7 e0 08 bd 96 b6 8e bd
       0.043998368 -0.02838523 -0.03341767 -0.06968419
000250 23 c9 76 bd 1a 8c 4e 3d 96 69 36 3d f9 7c 19 bd
       -0.060250413 0.05042658 0.04453429 -0.0374727
000260 ac 26 8a bd c1 ef fc bd cf 30 a5 3d d0 97 d3 3b
       -0.06745657 -0.12350417 0.0806595 0.0064573064
000270 98 01 db 3c 88 f7 8a 3d 4d ee 39 3c a1 af 6d 3c
       0.026734158 0.06785494 0.011348319 0.014507205
000280 34 26 8d 3d de 0d 0f 3d 6f cc 92 3d 43 03 8b 3c
       0.06892052 0.034925334 0.07167899 0.016969329
000290 5c 8a 5e 3d 92 2b 2b bd c5 08 d2 bc 37 fa 22 bd
       0.05433117 -0.0417896 -0.025638947 -0.039789405
0002a0 75 e3 36 3d 72 ab 07 bd c4 9a b5 3c e3 b7 ab bc
       0.044650514 -0.033122487 0.022168525 -0.020961707
0002b0 e8 44 dd 3b b7 4a 9d bd d9 d5 fb bd 1c 85 78 bd
       0.006752599 -0.07680266 -0.122966476 -0.060673818
0002c0 28 d7 68 bc 72 e7 96 bd ec 24 72 bd d8 8b 7a bd
       -0.0142114535 -0.073683634 -0.059117243 -0.06116852
0002d0 48 12 a4 bc 00 ef 8a 3c cc a5 df bc f4 f1 07 3d
       -0.020028248 0.016959667 -0.027300738 0.03318973
0002e0 fb 53 17 bd 5e e6 90 bd 1f 55 36 3d be 67 57 bb
       -0.036945324 -0.07075189 0.04451477 -0.0032868232
0002f0 67 2a e5 bc 5c 93 8b bc 9d 5a 9a 3d ad d9 52 bc
       -0.02797432 -0.01703804 0.07536814 -0.012869281
000300 ae e6 a0 bd be 5b 8f bd 75 4f 8c 3d 72 d8 49 3c
       -0.07856499 -0.0699992 0.06851093 0.012319671
000310 9e 42 5c 3c da 36 0e bd ad e7 13 bd 9c bf 75 bd
       0.013443617 -0.03472028 -0.036109615 -0.059997186
000320 df fc a4 3d 85 35 8f bd f0 b7 ba 3c 9c 77 97 bc
       0.08056044 -0.0699263 0.022792786 -0.018489651
000330 c0 c2 42 3b 01 fc 65 3d 12 4d 01 bd 3f 11 19 bd
       0.002971813 0.056148533 -0.03156764 -0.037369963
000340 ea 88 40 3d ca 1e f3 bc 92 79 b4 bd b2 9f 24 bd
       0.04700557 -0.029677767 -0.0881225 -0.04019136
000350 4c 63 43 bd e8 a7 01 3d a5 fe b3 bd 8a 80 9e 3d
       -0.04770212 0.03165427 -0.08788804 0.07739361
000360 f4 5f 68 bd a8 b4 c0 bc 26 a1 01 bc 20 be 11 3b
       -0.056732133 -0.023523644 -0.007911956 0.0022238567
000370 a8 8b cc bd d3 c0 74 bd 04 88 97 bd 3e 25 48 bd
       -0.09987575 -0.059754204 -0.0739899 -0.048863642
000380 18 01 b0 bc 1c 93 09 be 58 73 4e 3d da a9 97 3d
       -0.021484897 -0.13435024 0.05040297 0.074054435
000390 cd 40 53 3c a8 cc b3 3b 2f 33 3a 3d 7b 8d c5 3b
       0.012893868 0.0054870434 0.04545897 0.0060288287
0003a0 fd 52 b4 3d c3 4c c0 bc a9 c2 ae 3d 6d 6f c5 3d
       0.08804891 -0.023474103 0.08533222 0.096403934
0003b0 e3 24 ac bd 90 60 da bb 85 a3 85 3d 80 49 2b 3c
       -0.08405473 -0.006664343 0.065253295 0.0104545355
0003c0 bd 8f 99 bd 98 78 59 bd 96 d4 aa 3c 4d 18 fc 3c
       -0.07498119 -0.053093523 0.020853322 0.030773306
0003d0 81 55 7e 3d 08 d1 8d 3c d3 c5 fb bc 21 ea 14 3d
       0.06209326 0.017311588 -0.030733978 0.036356095
0003e0 fa fd 1c 3d 58 6a af bc 08 ab 66 bc 28 ad ec bd
       0.03832815 -0.021413013 -0.014078863 -0.115564644
0003f0 7c a9 94 3d 2e db 4d 3d 49 c0 91 bd 03 7b 92 3d
       0.07258889 0.050257854 -0.071167536 0.07152369
