snapshots/model.pt (torch, 22826 bytes, 7 tensors)

weight f4 [32, 1, 3]
0.3950615 0.7470246 0.8274571 -0.29647395 -0.52089983 0.34034884 0.46181786 -0.0730077
-0.10863742 -0.18639928 0.107142285 0.019963786 -0.45395565 0.22817002 -0.61242646 -0.30774194
-0.5449645 -0.094825625 0.28470066 0.6553831 0.5830948 0.17642486 0.33227122 -0.55402696
0.13725354 -0.099968754 -0.7335152 0.072212815 0.15660393 -0.16388002 -0.083031796 -0.42461583
0.39185438 -0.045220673 -0.42778504 0.53531516 0.31416625 0.110740125 -0.34079242 0.4005676
0.43899846 -0.08766973 0.080431975 0.51281244 -0.045513563 0.20220166 -0.047096074 -0.46725675
-0.24323693 0.4756992 -0.18570065 0.5416032 -0.13511902 0.572925 -0.18430498 0.31032386
-0.7842048 -0.115787715 -0.48168817 0.25131714 -0.24644977 0.4857396 -0.16178071 -0.19990239
-0.51937675 0.40531042 -0.3223771 0.6743387 0.65895313 -0.22216842 -0.33590817 -0.6475875
-0.1193974 0.5253053 -0.33280405 0.35369477 -0.059473127 -0.50119555 0.31185818 -0.16361278
0.43447173 -0.5080613 -0.22527935 -0.4605397 -0.026022732 -0.40884167 -0.5260372 0.51151156
0.06554288 0.023768783 -0.20383728 0.49822614 0.21165599 0.0109369755 0.48743606 -0.5678915
00000000: 8045 ca3e 013d 3f3f 3ad4 533f 6fcb 97be
00000010: b159 05bf 3442 ae3e 6473 ec3e 1085 95bd
00000020: 4c7d debd 74df 3ebe 6a6d db3d 188b a33c
00000030: e06c e8be 67a5 693e fbc7 1cbf 5a90 9dbe
00000040: cb82 0bbf f033 c2bd 49c4 913e 30c7 273f
00000050: b345 153f b8a8 343e 741f aa3e b6d4 0dbf
00000060: 318c 0c3e 6bbc ccbd a7c7 3bbf 50e4 933d
00000070: c85c 203e 2ad0 27be 930c aabd 3f67 d9be
00000080: 23a1 c83e 5039 39bd a406 dbbe 6a0a 093f
00000090: 66da a03e b8cb e23d 587c aebe 3217 cd3e
000000a0: 68c4 e03e 308c b3bd 85b9 a43d ad47 033f
000000b0: 6e6c 3abd f40d 4f3e d0e7 40bd 473c efbe
000000c0: 1a13 79be d88e f33e 5028 3ebe 82a6 0a3f
000000d0: a45c 0abe 36ab 123f 72ba 3cbe c5e2 9e3e
000000e0: a5c1 48bf 1c22 edbd d59f f6be a4ac 803e
000000f0: 545d 7cbe dcb2 f83e d8a9 25be 36b3 4cbe
00000100: e0f5 04bf d984 cf3e 9c0e a5be 76a1 2c3f
00000110: 27b1 283f 1e80 63be 28fc abbe 4bc8 25bf
00000120: a086 f4bd 687a 063f 4b65 aabe 7b17 b53e
00000130: 189a 73bd 5a4e 00bf e0ab 9f3e 1c8a 27be
00000140: 1473 de3e 4e10 02bf a1af 66be dccb ebbe
00000150: a02d d5bc b253 d1be 60aa 06bf 6cf2 023f
00000160: 583b 863d c0b6 c23c b8ba 50be 7f17 ff3e
00000170: 59bc 583e 0031 333c 3891 f93e 5661 11bf

bias f4 [32]
0.04774266 -0.46629143 -0.4797298 -0.0019434661 0.18697728 0.111029245 0.00054134004 -0.4968373
0.41336936 -0.28506035 -0.0044595 -0.1380617 -0.51614654 -0.46275055 -0.05743519 -0.38903704
-0.2628927 -0.43932357 0.15849641 -0.050291955 -0.36212015 0.038423635 0.2307158 0.2318553
-0.1816968 0.10028295 -0.07309231 0.3690429 -0.06614292 -0.43043476 0.0011530329 -0.5449475
00000000: cf8d 433d c0bd eebe 259f f5be e7bb feba
00000010: f976 3f3e 4d63 e33d b7e8 0d3a 7561 febe
00000020: 26a5 d33e 6ef3 91be ff20 92bb 0c60 0dbe
00000030: 2e22 04bf a4ed ecbe 2941 6bbd dd2f c7be
00000040: df99 86be 05ef e0be e24c 223e f0fe 4dbd
00000050: d067 b9be 1a62 1d3d c340 6c3e 7a6b 6d3e
00000060: ba0e 3abe 2661 cd3d 6cb1 95bd 31f3 bc3e
00000070: f075 87bd f261 dcbe 5d21 973a ae81 0bbf

weight f4 [32, 32, 3]
-0.124664575 -0.13567969 -0.10737793 0.021428697 0.00019470602 -0.0054313242 0.010848358 -0.046647627
-0.015178055 0.049644556 0.08252118 -0.059521865 0.092447594 0.19810936 0.15281835 0.018157562
0.01726421 0.084988706 -0.13558428 -0.18912792 -0.226147 -0.0679494 -0.0028522387 -0.09471122
0.07883896 0.1388169 0.09216728 0.02396439 0.05289878 -0.024821311 0.06690023 0.07494397
-0.13359323 -0.032811902 0.0435656 -0.04571928 -0.062194746 0.09208231 -0.08958243 0.04072155
-0.06933349 0.035972863 0.030092908 0.0907615 0.04219017 0.075606614 0.08554675 -0.028763078
0.05386564 -0.028823048 0.03408034 0.042260066 0.023344845 -0.02862814 0.08762506 0.211818
0.17779747 -0.016357727 0.024857089 0.042160645 -0.06703004 0.050639138 0.049549982 -0.078054346
0.043283943 0.026252868 0.01591296 0.017653417 -0.1272604 0.17566982 0.3285922 0.29807302
-0.07271797 0.08156425 0.028166771 0.22485101 0.075649336 0.2543493 -0.13385801 -0.2680377
-0.1969806 0.0837931 -0.04029711 0.12819026 0.036808774 0.03399524 -0.013591304 0.035802856
0.045803934 -0.04657307 -0.19453953 -0.20763989 -0.40353045 -0.080033876 0.02657789 -0.01720129
0.082001776 -0.09223144 0.048536763 -0.021072164 -0.036906183 -0.06281023 0.068395436 0.013059095
0.07796785 -0.046451062 -0.014793113 0.07987885 0.0074397326 0.10002755 0.0688927 0.04966925
0.026382923 0.04778284 -0.019075356 0.021159254 0.07380457 0.06577477 -0.033221386 -0.05760607
-0.007019326 -0.07011514 0.04774654 -0.007650964 -0.004408121 -0.021279864 -0.036100477 0.10036941
-0.096586 0.10043883 0.10161416 -0.018220216 -0.08264783 0.04308334 0.088957965 -0.048881028
-0.09973105 0.06812185 -0.09495114 0.058837146 -0.088848785 -0.050123896 -0.00983312 -0.0559429
-0.014044292 -0.07212285 0.024901494 -0.063058086 -0.04295508 -0.093676105 -0.08055033 -0.048333827
0.10178515 0.017965198 -0.023494355 0.095791504 0.047918767 -0.020392053 -0.08560235 -0.084760696
0.04963672 -0.04747628 -0.09587667 -0.058662046 -0.082970574 0.06931038 0.062468335 -0.0074152276
0.077588886 -0.055169057 0.036053374 -0.07869556 0.089422256 0.0070713013 -0.021349952 0.09849815
-0.0004076138 -0.06044472 -0.022735246 0.012285359 0.008445837 -0.09074935 -0.07141117 -0.031840794
0.06552513 0.046315134 -0.09940255 -0.024458848 -0.0958138 -0.040942784 -0.04640654 0.075534955
0.09413497 -0.07676701 -0.20021199 -0.081423245 0.08267562 -0.03919147 0.09674518 0.02785547
0.0731885 -0.00699893 0.043316923 0.009588475 0.08993135 0.071076445 0.054767102 0.03793484
0.011355384 0.16406518 0.048531216 -0.055754248 -0.21956636 -0.007815696 0.04603517 0.047612518
0.04035494 -0.04619372 0.07157988 0.057087213 -0.015064053 0.028608575 0.027801009 0.03390184
-0.12670645 -0.006934434 0.09919466 -0.09091352 -0.010098301 -0.09459384 -0.0095902085 -0.0062157363
-0.07949057 0.03962654 0.15915187 -0.031167295 0.014068875 0.10038796 -0.07311788 -0.028325044
0.0730094 0.08506794 0.05776398 -0.07919724 0.07785024 0.04708761 0.04904719 0.15663156
0.13318329 -0.0018894598 0.061584145 0.011760004 -0.044367637 -0.025475502 -0.08154511 0.0037132322
00000000: 2450 ffbd 9eef 0abe f6e8 dbbd 3c8b af3c
00000010: 002a 4c39 40f9 b1bb 50bd 313c 9511 3fbd
00000020: 60ad 78bc 1758 4b3d dd00 a93d 33cd 73bd
00000030: 2a55 bd3d 2edd 4a3e 6a7c 1c3e 2bbf 943c
00000040: ac6d 8d3c 8f0e ae3d 9bd6 0abe c0aa 41be
00000050: 1493 67be 0e29 8bbd a0ec 3abb f5f7 c1bd
00000060: 5276 a13d 0426 0e3e 33c2 bc3d f850 c43c
00000070: 64ac 583d 1056 cbbc fd02 893d 397c 993d
00000080: aacc 08be c665 06bd d871 323d 2444 3bbd
00000090: ebbf 7ebd a695 bc3d fe76 b7bd a4cb 263d
000000a0: b8fe 8dbd 4858 133d 6785 f63c 2ae1 b93d
000000b0: 9acf 2c3d a4d7 9a3d 2233 af3d 8ca0 ebbc
000000c0: 38a2 5c3d 501e ecbc d497 0b3d e418 2d3d
000000d0: b03d bf3c 9085 eabc c474 b33d d1e6 583e
000000e0: 8a10 363e a400 86bc 18a1 cb3c a4b0 2c3d
000000f0: 0c47 89bd fc6a 4f3d ecf4 4a3d f5da 9fbd
00000100: 814a 313d 4110 d73c e55b 823c e69d 903c
00000110: 8d50 02be cae2 333e 3d3d a83e 079d 983e
00000120: 29ed 94bd 280b a73d 00be e63c 583f 663e
00000130: 0aee 9a3d 123a 823e 1312 09be 3d3c 89be
00000140: 48b5 49be b89b ab3d 950e 25bd 4f44 033e
00000150: ccc4 163d 983e 0b3d 10ae 5ebc 04a6 123d
00000160: e89c 3b3d 67c3 3ebd 5f35 47be 8d9f 54be
00000170: 8b9b cebe cde8 a3bd e0b9 d93c b8e9 8cbc
00000180: 8cf0 a73d d6e3 bcbd 7cce 463d 889f acbc
00000190: f02a 17bd a6a2 80bd e812 8c3d d0f5 553c
000001a0: 9cad 9f3d 7843 3ebd d05e 72bc 8697 a33d
000001b0: 00c9 f33b 3edb cc3d 9e17 8d3d fc71 4b3d
000001c0: 0021 d83c f0b7 433d ec43 9cbc 2c56 ad3c
000001d0: da26 973d ecb4 863d 2613 08bd 58f4 6bbd
000001e0: 6002 e6bb 8798 8fbd e091 433d f0b4 fabb
000001f0: 0072 90bb 1c53 aebc 18de 13bd 7a8e cd3d
00000200: e1ce c5bd e0b2 cd3d 161b d03d 9042 95bc
00000210: 4443 a9bd 2878 303d 982f b63d 7937 48bd
00000220: cb3f ccbd 7883 8b3d be75 c2bd 38ff 703d
00000230: 5af6 b5bd b74e 4dbd 181b 21bc 6224 65bd
00000240: 081a 66bc 25b5 93bd 38fe cb3c 9924 81bd
00000250: aaf1 2fbd 42d9 bfbd 92f7 a4bd b1f9 45bd
00000260: bc74 d03d c02b 933c 3c77 c0bc 562e c43d
00000270: 7846 443d 3c0d a7bc 4950 afbd 0497 adbd
00000280: e04f 4b3d 7d76 42bd fd5a c4bd 9d47 70bd
00000290: 7aec a9bd 9af2 8d3d ccde 7f3d 70fb f2bb
000002a0: ece6 9e3d f3f8 61bd b4ac 133d 232b a1bd
000002b0: 0423 b73d 60b6 e73b 18e6 aebc 66b9 c93d
000002c0: 00b5 d5b9 e294 77bd 443f babc 8848 493c
000002d0: 6860 0a3c ccda b9bd 0540 92bd 7e6b 02bd
000002e0: 0a32 863d f0b4 3d3d 9093 cbbd ec5d c8bc
000002f0: 073a c4bd 9fb3 27bd c914 3ebd 12b2 9a3d
00000300: d6c9 c03d 0638 9dbd 5f04 4dbe 3bc1 a6bd
00000310: d651 a93d 3c87 20bd 5622 c63d 2831 e43c
00000320: dae3 953d 4857 e5bb 166d 313d fb18 1d3c
00000330: ed2d b83d 8790 913d 7853 603d 9061 1b3d
00000340: ef0b 3a3c b400 283e abc8 463d 915e 64bd
00000350: 01d6 60be 680d 00bc 608f 3c3d 5805 433d
00000360: 394b 253d a035 3dbd 7998 923d 48d4 693d
00000370: 38cf 76bc 885c ea3c f1be e33c a8dc 0a3d
00000380: 56bf 01be 403a e3bb 9226 cb3d de30 babd
00000390: 5873 25bc 6aba c1bd 4020 1dbc 60ad cbbb
000003a0: f4cb a2bd 704f 223d b5f8 223e 8e52 ffbc
000003b0: 2481 663c 3498 cd3d d4be 95bd ec09 e8bc
000003c0: f485 953d 1a38 ae3d ec99 6c3d 2a32 a2bd
000003d0: f26f 9f3d f0de 403d b5e5 483d 0664 203e
000003e0: 3361 083e c0a7 f7ba a83f 7c3d 08ad 403c
000003f0: d7ba 35bd 00b2 d0bc 1f01 a7bd b359 733b

bias f4 [32]
-0.036866717 -0.018280089 0.025489053 0.062797725 0.03406291 -0.087389745 -0.10359739 0.053881105
0.029301502 -0.004511597 -0.137486 -0.11188054 -0.010779974 0.080374114 -0.05136229 -0.11122008
0.008139239 -0.11962168 -0.045257796 0.025440002 -0.03217923 0.053395357 -0.08753975 -0.06710693
0.020553872 -0.056068387 -0.13292176 0.011938496 -0.021857576 0.10680418 -0.01702869 -0.07856001
00000000: 8e01 17bd 20c0 95bc 6bce d03c 189c 803d
00000010: 8d85 0b3d 65f9 b2bd de2a d4bd 6fb2 5c3d
00000020: b409 f03c 05d6 93bb 21c9 0cbe a021 e5bd
00000030: 7d9e 30bc 2f9b a43d 4461 52bd 5ac7 e3bd
00000040: 715a 053c 36fc f4bd 3d60 39bd 8d67 d03c
00000050: 5ece 03bd 17b5 5a3d 0a48 b3bd 5c6f 89bd
00000060: 9860 a83c f7a7 65bd a41c 08be ae99 433c
00000070: a90e b3bc 26bc da3d c07f 8bbc 12e4 a0bd

weight f4 [8, 128]
0.21409513 0.10309304 0.005007685 -0.16416489 -0.0103637725 -0.06702632 -0.018753618 0.06907796
0.052128084 -0.021103187 0.039736573 -0.18867248 0.027126217 -0.011458162 -0.025126759 -0.108910434
0.07639105 0.08352571 -0.0061534145 -0.16621983 0.08162948 -0.01869198 -0.057164043 -0.07874777
0.03382568 -0.044150982 0.048601843 0.08030112 0.08843393 -0.033500668 0.028335614 0.103583105
-0.0120806 -0.0073405183 -0.052124266 -0.08390937 -0.024961399 0.009892922 0.007914057 -0.04312836
-0.0055271275 -0.09670791 -0.08264704 0.09826854 0.098330714 -0.04485482 0.11761874 -0.0003457022
0.21788141 -0.026527544 -0.005544751 -0.12314074 0.078453146 0.076758765 -0.11841862 -0.17575425
-0.014861903 0.034691952 0.05700409 0.21566215 -0.030668892 -0.01677183 0.058579247 -0.033546515
0.0363407 0.016694617 0.13939305 0.25039965 0.07382505 0.05847405 -0.032706194 -0.027320199
-0.09342869 -0.05080386 0.046213936 -0.024647309 0.045694165 0.04930372 0.065172516 -0.024284586
0.006223159 0.06721481 -0.070147686 0.054077838 -0.049139842 0.06694823 0.048240602 -0.03102904
-0.0489472 -0.0075700358 -0.010263793 0.015251689 -0.06729618 0.07904389 -0.025073223 0.087696694
-0.05673124 -0.02499587 0.08147838 0.0869625 -0.056847416 -0.07437164 -0.053333443 -0.06477978
0.01318565 -0.07917102 -0.048303038 -0.0011980501 0.08574692 0.079734854 0.03478021 0.012961806
9.1727425e-06 -0.012257155 -0.0035973513 -0.040956102 0.13469683 0.0718025 -0.09600934 -0.12730731
0.016445026 -0.05915701 0.06482547 -0.023911983 -0.07821811 -0.01923503 0.056052975 -0.05517137
-0.051456884 0.039465535 -0.0770094 -0.036791395 0.013712622 -0.009829909 0.021094762 0.042492546
-0.14108704 -0.09986969 0.060932744 -0.2938503 0.041370314 -0.14642166 -0.26016602 -0.065181516
0.099911965 -0.021473804 -0.19744208 -0.18428722 0.014444761 -0.048358683 0.034175687 -0.08376245
0.035087883 0.051522084 0.011556052 -0.026863698 -0.00874158 0.06850151 0.0158974 -0.026563808
0.013903419 -0.05416274 -0.08967037 0.037940416 -0.10704299 -0.060521442 -0.017985841 -0.01412207
-0.024550756 -0.044047583 -0.0657612 0.04472682 0.053650416 0.01659061 -0.018618405 0.029997088
-0.06195306 -0.10387639 -0.012314456 -0.083810195 -0.12599905 0.08209255 -0.17488225 -0.3108417
0.038582943 0.0705024 0.12894928 0.07110808 0.037058428 0.02812468 -0.020857355 -0.09214897
0.011496443 0.13941927 0.123164974 0.18763794 -0.11189342 0.021039687 -0.010299746 0.0076600187
-0.07129659 0.06682474 0.06461494 0.0029591986 -0.078307256 0.010351124 -0.06637284 0.020102559
-0.073926136 -0.023323622 -0.015670815 0.04555913 -0.07523108 -0.040230602 -0.018902589 0.04866375
0.0053429157 0.06359301 0.066249855 -0.055196114 -0.06808254 0.03815327 0.072651975 0.078875996
-0.0057440326 0.014902294 -0.020451091 -0.007921434 0.016274825 -0.08052983 -0.072816394 -0.03596185
0.084712096 -0.048360895 0.054215394 0.036263462 -0.027999014 -0.029325325 -0.021741398 -0.02360379
0.07261995 -0.035839833 0.023022851 0.073900126 0.07048248 -0.10589699 -0.24293101 -0.20084259
0.013329364 -0.067852356 0.018352613 -0.030571554 -0.046747617 0.04239192 0.02707056 -0.01853609
00000000: c13b 5b3e 7222 d33d 8217 a43b d71a 28be
00000010: d0cc 29bc 1845 89bd 30a1 99bc bf78 8d3d
00000020: 4284 553d 97e0 acbc d1c2 223d 5c33 41be
00000030: cd37 de3c 04bb 3bbc a2d6 cdbc 6f0c dfbd
00000040: e972 9c3d 870f ab3d 95a2 c9bb 8835 2abe
00000050: 5b2d a73d ec1f 99bc d824 6abd 8346 a1bd
00000060: cc8c 0a3d a9d7 34bd ba12 473d ea74 a43d
00000070: d91c b53d ff37 09bd 1720 e83c 6123 d43d
00000080: b5ed 45bc bb88 f0bb 4180 55bd add8 abbd
00000090: d97b ccbc ec15 223c f6a9 013c 5da7 30bd
000000a0: e81c b5bb cc0e c6bd da42 a9bd 0441 c93d
000000b0: 9d61 c93d b0b9 37bd 18e2 f03d 5d3f b5b9
000000c0: 4e1c 5f3e 4b50 d9bc beb0 b5bb 3631 fcbd
000000d0: 0bac a03d b333 9d3d 7685 f2bd ecf8 33be
000000e0: 577f 73bc 2619 0e3d 1f7d 693d 8ad6 5c3e
000000f0: 543d fbbc 1465 89bc cbf0 6f3d 1268 09bd
00000100: fcd9 143d 26c3 883c 0dbd 0e3e 6234 803e
00000110: 9631 973d 7c82 6f3d eef6 05bd 9cce dfbc
00000120: 8b57 bfbd b517 50bd d34a 3d3d 27e9 c9bc
00000130: ce29 3b3d b3f2 493d 2b79 853d 78f0 c6bc
00000140: a4eb cb3b eba7 893d 97a9 8fbd b980 5d3d
00000150: dc46 49bd 271c 893d f097 453d 9d30 febc
00000160: dc7c 48bd 100e f8bb 7829 28bc 38e2 793c
00000170: 94d2 89bd c3e1 a13d 5c66 cdbc 539a b33d
00000180: 045f 68bd 24c4 ccbc 23de a63d 6519 b23d
00000190: d6d8 68bd 2950 98bd 2b74 5abd 43ab 84bd
000001a0: a008 583c 6a24 a2bd 68d9 45bd e407 9dba
000001b0: 159c af3d 074c a33d b275 0e3d c15d 543c
000001c0: a1e4 1937 3cd2 48bc 8ac1 6bbb 96c1 27bd
000001d0: f7ed 093e 300d 933d 8ba0 c4bd d95c 02be
000001e0: b8b7 863c 9f4e 72bd 37c3 843d 10e3 c3bc
000001f0: d130 a0bd c892 9dbc ce97 653d 60fb 61bd
00000200: 74c4 52bd 9da6 213d 1bb7 9dbd 93b2 16bd
00000210: e8aa 603c a00d 21bc ecce ac3c aa0c 2e3d
00000220: 1f79 10be 7b88 ccbd 9d94 793d 8c73 96be
00000230: eb73 293d 8fef 15be 7b34 85be e37d 85bd
00000240: a59e cc3d d5e9 afbc 422e 4abe cab5 3cbe
00000250: b8a9 6c3c c113 46bd cefb 0b3d a68b abbd
00000260: 50b8 0f3d d208 533d 9855 3d3c 4211 dcbc
00000270: d838 0fbc 854a 8c3d 443b 823c 589c d9bc
00000280: 2acb 633c c0d9 5dbd 19a5 b7bd 6967 1b3d
00000290: 5b39 dbbd 55e5 77bd 0b57 93bc 4160 67bc
000002a0: ab1e c9bc 3d6b 34bd cfad 86bd 7833 373d
000002b0: 8ac0 5b3d 08e9 873c a085 98bc 74bc f53c
000002c0: 7ec2 7dbd 25bd d4bd 92c2 49bc aea4 abbd
000002d0: e505 01be 2420 a83d 5514 33be a526 9fbe
000002e0: 2609 1e3d 9063 903d 480b 043e 1da1 913d
000002f0: 94ca 173d bb65 e63c 0bdd aabc 99b8 bcbd
00000300: 945b 3c3c edc3 0e3e eb3d fc3d 2924 403e
00000310: 6128 e5bd 6c5b ac3c 44c0 28bc e500 fb3b
00000320: f203 92bd 69db 883d d654 843d 1def 413b
00000330: 8e5f a0bd c397 293c 7cee 87bd 1fae a43c
00000340: 9666 97bd 2e11 bfbc 1560 80bc 369c 3a3d
00000350: c112 9abd d8c8 24bd 9ad9 9abc a453 473d
00000360: a013 af3b 0d3d 823d 01ae 873d 5215 62bd
00000370: dc6e 8bbd 9a46 1c3d 8fca 943d bd89 a13d
00000380: 7038 bcbb c028 743c 0c89 a7bc e7c8 01bc
00000390: c852 853c d3ec a4bd c320 95bd bc4c 13bd
000003a0: 897d ad3d 1316 46bd f610 5e3d ff88 143d
000003b0: 305e e5bc aa3b f0bc 041b b2bc bc5c c1bc
000003c0: c5b9 943d cacc 12bd 6b9a bc3c f358 973d
000003d0: 1e59 903d 85e0 d8bd e8c2 78be aea9 4dbe
000003e0: 6863 5a3c 2df6 8abd 3858 963c 3271 fabc
000003f0: 6e7a 3fbd 26a3 2d3d 14c3 dd3c 00d9 97bc

bias f4 [8]
0.1247224 0.15455551 -0.01835493 -0.09035901 -0.02650392 0.019377952 0.11334586 -0.058496643
00000000: 756e ff3d cd43 1e3e 145d 96bc 250e b9bd
00000010: c01e d9bc 83be 9e3c e021 e83d 2d9a 6fbd

weight f4 [1, 8]
0.110059254 0.21391727 0.21374758 0.23236229 0.12854686 -0.16666599 0.15003759 0.25195217
00000000: bf66 e13d 210d 5b3e a5e0 5a3e 61f0 6d3e
00000010: caa1 033e 7daa 2abe 74a3 193e e0ff 803e
